checkpoints_0/hoynet_10.pth (torch, 166254 bytes, 58 tensors)

encoder.cnv1Ddaily.0.weight f4 [64, 3, 1]
00000000: 11a6 f2be 5405 c83e eb8f 22be e45b 97bd
00000010: ac9e 283e de86 2cbe a29f ef3d aab0 f13e
00000020: 3e54 0fbe e994 e93e 78f3 abbe b9b0 5fbe
00000030: 9db3 153e 7311 25be b03f 8b3d fb8f 483e
00000040: 9c65 8e3e 6932 3dbe a00c 063e 635f d5bc
00000050: 86b9 e03e f048 e6be c9ed 84bc 39c7 0b3d
00000060: 8d01 aabe 52eb da3e 6202 b3be 4451 86be
00000070: 870a 86be 6e63 e7bd b27e 54be dbbe c4be
00000080: 502b 36bd 6d5e 7abc 2bf5 953e 5e2d fd3e
00000090: a3ce fcbe 1e07 1dbd 2d7d a93e b794 8ebe
000000a0: 2a34 653e d400 003f f8a8 ed3e 12db cdbd
000000b0: 2a32 0ebf 37ed 0dbc f5d1 fe3c 7cc9 d93e
000000c0: 7ae6 06bf 22a4 b63e 2235 0fbe 7a96 e33e
000000d0: fc0b dbbd 1555 9f3e b4c1 ff3e e58a cd3e
000000e0: 8b7d ae3c 7f60 223e 9407 0b3f d11a a23d
000000f0: 21cd 823e 4973 98be 3bd4 67be 7d7f cb3d
00000100: ae3b 27be 3b34 863e f593 a73d f271 c1bd
00000110: 7c5e c5be a8fc 25be 830f f73e c3f9 cebc
00000120: e11b 63be 8e9e ea3b e2bc 51be 644c 073f
00000130: 3514 be3d e685 543e 238a 7fbe a2d6 7fbd
00000140: e4cf 633d aa86 ddbe 953d 87be 1ce3 9d3d
00000150: 781d d5be aef7 08bf e152 0c3f 5a69 d3bd
00000160: 616a a03d 4da1 c13e f254 a9bd 0e94 94be
00000170: 6c49 aabe 190a ee3e baf3 e23e ba0a a93e
00000180: 2525 85be 5966 a03d 1bc1 cd3e b0bf e9bd
00000190: 5e3c d63e 4f39 c43d 6c65 99bd c89a ab3d
000001a0: 3d64 123f d7cd f7be 6c32 c1be baa9 f63e
000001b0: 1ae2 a83d 913a 173e 4705 dfbe 5db2 28be
000001c0: 025c 2dbd 0992 503e 78e8 0b3f 1483 983e
000001d0: 4e6e 02bf 881b e63e 226b 423e c5dc 6e3e
000001e0: 2cac 483c df06 d4bd 9803 cfbe 3b36 3e3e
000001f0: efd6 d23e fbe3 b03e e123 8e3e 4426 c13e
00000200: 8769 943d f7f8 f33e b989 113e 8565 bfbe
00000210: 9fd8 0dbf ad90 fabe d857 babe cffe 053f
00000220: 09ea 3fbe 3254 a73e f818 b8be 72b1 acbe
00000230: 3364 02bf 547c e63e 8a36 ea3d 3305 c83e
00000240: 973c 093f 2ebd 52bd 6ce9 debe b5b4 0d3d
00000250: 18e4 6c3e 0409 c6bd ff08 01bf 3ddc f6be
00000260: 6b06 0dbf aaad eb3e 69eb a5bc dab2 a83d
00000270: 2139 743e 7b23 d4be e890 babe 397d dfbe
00000280: f692 48bc 8941 a3be 6c6f 163e dc93 033f
00000290: 7eb3 1b3d d600 023f eb23 113f e858 1e3e
000002a0: 624b ebbe 0a67 b6be 010a d7be 9d3e f03e
000002b0: 3935 d4bd d7a8 febe 9ee3 033f f6db f7bd
000002c0: c1ef bb3e d80e f9be ec2d 0b3f 02fe f43d
000002d0: 741d 1a3e ddad 0d3f a699 d1bc 18b2 553e
000002e0: d6f5 d0bc 6a9e 89be f83a c33e 8e25 0cbf
000002f0: d7fc c63e 1f53 79be c6ac ec3d 9471 8bbc
-0.47392324 0.39066565 -0.15875213 -0.073905736 0.16466779 -0.16848323 0.117003694 0.47205096
-0.1399698 0.45621422 -0.3358419 -0.21844758 0.14619298 -0.16119938 0.06799257 0.19586174
0.27811897 -0.18476261 0.13090754 -0.02604646 0.43891543 -0.44977522 -0.016226666 0.03412554
-0.33204308 0.4275766 -0.34962755 -0.26233876 -0.26179907 -0.112982616 -0.20751455 -0.3842686
-0.0444749 -0.015281302 0.2928861 0.49448675 -0.493764 -0.038336866 0.33103314 -0.27847835
0.2238318 0.50001264 0.46417975 -0.1005155 -0.55545294 -0.008662513 0.031105975 0.42536533
-0.5269543 0.35672098 -0.13985112 0.44450742 -0.10695645 0.311196 0.4995247 0.4014503
0.021300098 0.15857123 0.5430844 0.07915271 0.25547126 -0.29775456 -0.22639553 0.09936426
-0.1633136 0.26211724 0.081825174 -0.094455615 -0.38548648 -0.16209662 0.48254022 -0.02526558
-0.22178604 0.0071600145 -0.2048221 0.5285094 0.09281198 0.20754203 -0.24955039 -0.06246055
0.05561818 -0.43266803 -0.2641417 0.07709333 -0.41624045 -0.5350293 0.54813963 -0.103228286
0.0783279 0.37818375 -0.08268155 -0.29019207 -0.3325914 0.4649208 0.44326574 0.33015996
-0.26004902 0.07832021 0.4018639 -0.114135146 0.41842932 0.09581243 -0.07490048 0.083791316
0.571842 -0.4839923 -0.3773378 0.48176366 0.082462505 0.14768435 -0.43558714 -0.1647429
-0.042324074 0.20368208 0.54651594 0.29787505 -0.5094956 0.4494288 0.1898618 0.23326404
0.01224808 -0.10352873 -0.4043243 0.18575375 0.41179606 0.34548935 0.27761748 0.37724507
0.0724669 0.47650883 0.14212693 -0.3738214 -0.5540866 -0.48938504 -0.36395144 0.5234193
-0.18741621 0.32681423 -0.3595655 -0.3372913 -0.5093414 0.4501673 0.11436184 0.39066467
0.5360808 -0.051449947 -0.43537462 0.034596164 0.23133886 -0.09669688 -0.5040435 -0.48214903
-0.5508792 0.46030933 -0.020253854 0.08237238 0.23849918 -0.4143332 -0.3643868 -0.43650225
-0.0122420695 -0.31885937 0.14690942 0.5139749 0.038012974 0.50782526 0.5669543 0.15463603
-0.4595595 -0.35625488 -0.4199982 0.4692277 -0.10361714 -0.4973819 0.5151919 -0.12102501
0.36706355 -0.48644137 0.54366946 0.11962511 0.15050298 0.5534342 -0.02558596 0.20868719
-0.025507849 -0.26878673 0.38130927 -0.54744804 0.38864776 -0.24348114 0.115563914 -0.017021932

encoder.cnv1Ddaily.0.bias f4 [64]
00000000: e2e1 acbe e022 c93e f8ee bfbe 63df c23e
00000010: f6df b0be 63d0 ab3d 3d62 463e afa3 84be
00000020: 7ad6 32be 2d26 053f 0aa6 833e 8298 eb3e
00000030: 066d 0f3f 25af 773e 5864 d1bc f2e2 833e
00000040: 2fe0 b23e b459 633e 246b 653e cc91 d3be
00000050: 7d0c ed3d 4d7b ebbe 03b8 68be 81a5 3fbd
00000060: 6089 bc3e a233 c1be 3d32 c83e f1ea 643e
00000070: 457a 12bf 66ea 08be be69 12bf 0e3f c1be
00000080: 6bd6 abbe 7484 debe 5d82 92be 2dd3 fcbe
00000090: 9a0f 063f b9c0 873e 808e a03e 3822 cebe
000000a0: 8954 afbe 93a6 f6bc a6c4 babe f097 d2be
000000b0: ac5c b2be 4a55 09bd dce0 103f c36a 4f3e
000000c0: 15a1 093f 4b4a 263d b1a6 bdbe 7009 173f
000000d0: bd7b fe3e c01d b0be 23fb d83e 1a29 6cbe
000000e0: 39d1 92bd b82f 0d3e b960 2d3e 2d68 a0be
000000f0: 64f5 e03e de56 2e3e d1c7 00bf e011 883d
-0.33766085 0.3928442 -0.37487006 0.38061056 -0.3454587 0.08389356 0.19373412 -0.2590613
-0.17464629 0.52011377 0.25712615 0.46014792 0.5602573 0.24187906 -0.025560543 0.25759083
0.34936664 0.22202188 0.22404152 -0.41322172 0.115746476 -0.4599251 -0.22726445 -0.046788696
0.3682356 -0.37734705 0.3910083 0.22355248 -0.5721782 -0.13370666 -0.571926 -0.3774342
-0.33562025 -0.4346043 -0.28615084 -0.49379864 0.52367556 0.26514223 0.3135872 -0.40260482
-0.34244183 -0.030108726 -0.36478156 -0.41131544 -0.34836328 -0.033528604 0.5659311 0.2025557
0.53761417 0.040598195 -0.37041238 0.58998775 0.4970378 -0.34397697 0.42379102 -0.23062554
-0.07168812 0.13787735 0.16931428 -0.3132948 0.43937218 0.17025325 -0.50304896 0.066440344

encoder.cnv1Ddaily.2.weight f4 [5, 64, 1]
00000000: 351d d93d d268 933c a77b 243d a325 cfbd
00000010: a3bf 893d ab36 d1bd 14bd 713d 8e32 a3bd
00000020: a381 58bd a481 abbd 3eb9 23bd 75ec 4cbc
00000030: 201d d33d 8c9b b3bd 87ea a6bd 423a 853c
00000040: d3c4 f63d f0ea 12bd c6c2 46bd 1411 ab3d
00000050: 53b7 bdbd e0c0 303d 17b8 babc 66d7 bd3c
00000060: 9e9e 2e3d fb5c 843d c4fa 8c3c b943 ef3d
00000070: 5a1d 8e3d 6f30 04be 1cb7 813c 58c0 02be
00000080: f232 b6bd 4bbe 8d3a 9392 fcbd a822 e0bc
00000090: 15a4 723b 15ed 653c 6c89 353a 8d50 1cbd
000000a0: 6a49 9abd d783 e53d 62fa ca3d 1c9d 623b
000000b0: a7d2 08bd 039f 8d3c e758 dabd c33a cb3c
000000c0: 9dff 38bd f628 edbd 3b1a a0bd 40c3 e43d
000000d0: dea1 94bd bc3b cd3d 4db7 c43d c52d 17bd
000000e0: ae9f 45bd 85c9 3bbd 3e20 8d3d 9863 e9bd
000000f0: f681 e33d 1dca ad3d 93f4 e9bc 549a 6e3d
00000100: 464c adbd 6d9b fc3d f235 74bd 3d4e df3c
00000110: 1d28 83bd f60a a9bd 5ad9 e83d 476c 2a3d
00000120: b71e 3c3d 6682 573d 9799 e43c b076 28bd
00000130: 8dea ff3d af6f ee3d 1c3d d1bd 8247 88bd
00000140: 797a ffbd f6d0 debc 169d b93b 890d c0bd
00000150: 90f3 ee3c e3ee a73c 35e9 fd3d 0cb9 bbbd
00000160: 784e f53d e07e e23d b316 843c 51b4 a23c
00000170: dcaa 4f3d ff97 e23d 82b7 c6bc f809 9d3c
00000180: 136c 46bb 5a3b 28bc f57c f4bd e8c6 b83c
00000190: a461 aa3d dd50 f2bd 49e4 a43d 9b47 09bd
000001a0: bd04 473d 3317 a2bc 7fee d7bd 790f d2bc
000001b0: cc65 98bc a6cb 5bbd dcbc f93d 1965 2fbc
000001c0: e1bb afbd 5604 393d 6e4f bbbc 8690 d33d
000001d0: 7f57 55bd bfc8 383d 018c fdbd f558 d53c
000001e0: a255 b23d 5ee3 fb3a 871a 853c 4dbc b93c
000001f0: f7eb 8fbb 3a6b d4bc 8596 71ba c598 dbbd
00000200: 3259 dbbd fc32 b6bd 8986 353d 3734 963c
00000210: 8238 9fbd 8fde 923d 75df 75bd 27fd c83d
00000220: 5fa0 e0bd 6ef5 1dbd b04d 863d 8bd8 cd3b
00000230: 00d3 573c 0145 723d c556 a6bb 550e ba3d
00000240: d33e 88bd a526 973d 9181 c13d 69ab acbb
00000250: 26bd a13d d1e3 d03c c084 efbd 5515 07bc
00000260: c006 7d3d c001 a7bd 5b4f dfbd 2275 bfbd
00000270: 5090 c33d 13b5 e33d 2674 1cbd 75da dcbd
00000280: 3bbd 36bd aaac 033e 21ca f73c b2d2 fbbd
00000290: 9310 2bbc 153b dc3c be11 073c 3fa1 c1bd
000002a0: ac6d c5ba e5d0 733d 17ae 923c 2014 64bd
000002b0: 4624 b83d a128 963d ac3d d7bd ab7f 053e
000002c0: c8bc debc eeb3 9939 87fd 5e3b ce9f fd3d
000002d0: c7c4 dd3d 186d 20bd 5b3a aebd e50f 3c3d
000002e0: 83f6 c8bd b130 7abd 2a95 bcbd 10a4 ad3c
000002f0: 75f9 a93d dcd4 8ebd c5df b7bd 7293 183c
00000300: 111c 543d d43d a83d 11a9 c73d 779b 7cbd
00000310: d457 553d 314d 04bc 7c49 ae3c 7745 81bc
00000320: 0b0d 21bd d838 e23d 0ff2 ecbd 0c92 77bd
00000330: 903b 2b3d 4751 fb3d 190d 0e3d 0d0c 18bd
00000340: 8a55 dd3d 55d5 ac3d e911 4d3d ecec babd
00000350: 4cce f3bd 43de c93c 305a 29bc 0b1c bbbd
00000360: 59b9 153d 0e7f 78bb e46d 913d f48d 1e3d
00000370: ccce de3d 96dc d93d 5edb 3e3d 86a2 173d
00000380: 5edd e13d 5573 943d 133e 453d 0061 773b
00000390: 86e3 dcbd 89f2 4d3d f460 f13b 4027 ba3d
000003a0: c9c5 8cbd 7df7 aa3d 9c0a 33bd ba1d f03d
000003b0: 58b5 f23d ae4c 70bc ff07 913d b23d d63d
000003c0: d2a8 91bd af85 833d 8b66 30bd d636 38bc
000003d0: 3abd 2dbd a1ec 82bc 58a4 963d 771f cbbd
000003e0: 80b6 e3bc 4de6 d93d f802 dcbd f53b 5fbb
000003f0: b0c4 8fbd 6274 babc a79c 8b3d ceea 0d3d
0.10601274 0.017994318 0.040156987 -0.101146005 0.06726005 -0.10215505 0.05901821 -0.07968627
-0.052858006 -0.08374336 -0.039971583 -0.012507548 0.103082895 -0.087699026 -0.08150201 0.016263131
0.1204926 -0.035868585 -0.048525594 0.08352867 -0.09263482 0.04315269 -0.022792859 0.023173999
0.042631738 0.06463047 0.017209418 0.11682839 0.06939192 -0.12909101 0.015834384 -0.12768686
-0.08896436 0.0010814158 -0.12332644 -0.027360275 0.003702407 0.014033576 0.00069250795 -0.038162757
-0.07533534 0.11206787 0.09911038 0.0034578508 -0.03340402 0.017287737 -0.10661488 0.024808293
-0.045165647 -0.11580078 -0.07817503 0.111700535 -0.07257436 0.10021159 0.09605274 -0.036908884
-0.048247986 -0.04584648 0.06890915 -0.11395949 0.111087725 0.08485816 -0.028559005 0.058252648
-0.08461814 0.123343326 -0.05962176 0.027258987 -0.064041354 -0.08254044 0.113695815 0.041607168
0.04592773 0.052614592 0.027905269 -0.041128814 0.12495909 0.11642396 -0.10216734 -0.06654264
-0.12474532 -0.02719925 0.005664478 -0.093775816 0.029168874 0.020499652 0.12397996 -0.09166154
0.11977857 0.11059356 0.016124105 0.019861372 0.050700054 0.11064147 -0.024257425 0.019169793
-0.003027682 -0.010268057 -0.11937896 0.022555783 0.08319405 -0.1183183 0.080513544 -0.033515554
0.048588503 -0.019786453 -0.105435364 -0.025642144 -0.018603228 -0.05366101 0.12194225 -0.010705256
-0.08580757 0.04517015 -0.022865023 0.103303 -0.052085396 0.04511332 -0.12380219 0.026043395
0.087077394 0.0019217541 0.016248 0.022672797 -0.004392143 -0.025930036 -0.00092158496 -0.10722498
-0.10710372 -0.08896443 0.044317756 0.018335445 -0.0777445 0.07171356 -0.06002756 0.0981391
-0.10968088 -0.038564138 0.065577865 0.0062819174 0.013172865 0.05914784 -0.0050762617 0.09084765
-0.06652608 0.07380418 0.09448541 -0.005269457 0.07897405 0.025499256 -0.11695242 -0.008244832
0.061774015 -0.08154631 -0.10903808 -0.09348513 0.0954901 0.111185215 -0.038196705 -0.10783855
-0.044614058 0.12858835 0.03024775 -0.12296046 -0.010440963 0.026883641 0.008243976 -0.094545834
-0.0015062592 0.05952539 0.017905278 -0.055683255 0.089912936 0.07331968 -0.1050981 0.13036983
-0.027189627 0.00029316492 0.0034025626 0.12383996 0.10828548 -0.03916654 -0.08507224 0.045913596
-0.098126434 -0.061081592 -0.09208138 0.021196395 0.08299533 -0.069741935 -0.089782275 0.009312497
0.05178458 0.08214918 0.09749044 -0.0616717 0.052085713 -0.0080750445 0.021275274 -0.015780194
-0.03931908 0.11045998 -0.115696065 -0.060442016 0.04180485 0.12271362 0.03468046 -0.037120868
0.10807331 0.08439127 0.05006591 -0.091272205 -0.119045824 0.024642115 -0.010336444 -0.09136208
0.036553714 -0.0037917527 0.07101038 0.038709596 0.10879287 0.106377766 0.046595924 0.03702023
0.110285506 0.0724856 0.0481549 0.0037747025 -0.10785584 0.050280128 0.007366294 0.090895176
-0.06873662 0.08347986 -0.04371129 0.1172442 0.11850995 -0.014666719 0.07081603 0.10460986
-0.07112278 0.064219825 -0.043066543 -0.011243543 -0.04241679 -0.015981974 0.07355565 -0.09918111
-0.027796984 0.106396295 -0.10742754 -0.0034062837 -0.07019937 -0.022760574 0.068169884 0.034647755

encoder.cnv1Ddaily.2.bias f4 [5]
00000000: 5e72 033e cb34 823d b391 bdbc e056 933b
00000010: cdb2 a8bd
0.12836596 0.06357726 -0.023140764 0.0044964403 -0.082372285

encoder.cnv1Dweekly.0.weight f4 [64, 3, 5]
00000000: df1e 42be 4403 c9bd 338d 3c3e 48fa a2bd
00000010: a60b 6fbe 747e 19be ac62 48bd 1789 24be
00000020: d7de ffbc 7aa2 09bd 916f 2e3e 41f9 81bb
00000030: b0bd 21be 4128 e1bd af96 72be 882e 4cbe
00000040: f0b9 3f3e 858f 27be b3cf 193d d11d 303e
00000050: ccbd 74be 4812 0fbe 5fb3 1e3c f835 dabb
00000060: fc3d 0bbd 7927 f03d ae6a 5dbd b59a 26be
00000070: fdc5 babc 6576 5d3e 31b5 703e ba3b 41bd
00000080: 8d48 c1bc a795 4bbd f0b4 21be 199d fdbc
00000090: 0e81 6abe d8fa 0e3e feeb 713e 1f61 04bd
000000a0: 2be9 23be 747c 3d3e 2538 f6bd 2483 443e
000000b0: aee7 633d 1c10 d13d 10a2 533e 3a96 4a3e
000000c0: 05f6 3bbe 96fe 003e 68cf e1bd 0a28 2d3e
000000d0: 40e8 75be a9e7 40be 2253 d33d c1b7 05be
000000e0: 2c1a cbbc 8c75 b03d e41e 06be da6f dabd
000000f0: 6f5d 233c c19f b03d f8ec 643e ddc9 35be
00000100: 3e74 35be b09e 333e 8825 fc3d fbdf 29be
00000110: aa8a 38be 88d8 90bc a50f 2abe 6baf 943b
00000120: cc19 0fbe edc4 813b 3af1 62bd 3583 7cbe
00000130: c1dc 4abe ee54 1e3e 2014 63be 5a44 683d
00000140: 0bf4 2ebe 0e6f ba3c 4262 c7bd 2dec e3bc
00000150: 820b 1fbe ab85 2ebc da5a 823c 797f 09bd
00000160: d81c 00be 8592 803e 2c9f 383e ffac 1ebe
00000170: ed97 3fbd 9f5e 37be d887 463d f502 433d
00000180: a376 243c 9f48 29bd 249b 42bd b1c6 95bd
00000190: 1eec 41be 407f 0cbd 3c54 5e3e 926a 76be
000001a0: d62e 053b 60ff 50be dcb4 53be f474 473d
000001b0: 0dd7 2e3e 53f8 4d3e 2572 c4bc 8b7f 9b3d
000001c0: 5d8c 5e3e 1a4a bb3d 8276 3ebd 0061 8bbd
000001d0: 17e5 40be 6e6d c0bd f856 5fbe 964f 0abe
000001e0: 9b5f 7dbe aadc a53d ab4e a53d 1687 833d
000001f0: b99a 1a3d f379 443e 59ca 343e c949 2d3e
00000200: dc84 e43d e262 e13d 3081 79bd d907 73be
00000210: 1015 293e b3d1 9c3d ef11 31be 5cf7 3d3e
00000220: cce6 57be 345a 06be c1c9 6ebe 2ae5 b7bd
00000230: 5e9f 813e d42e 32bb d04f 073e 23f9 2bbe
00000240: 7541 cabd 3e6b aa3b 71f5 07be 8662 a9bc
00000250: 5726 763d 3276 88bd 3613 823e c687 12be
00000260: 0981 45be f64a 4b3e 02a2 2bbe 5a74 7d3e
00000270: ee4e 0e3c 0396 833e ee79 35be 2f4b 15be
00000280: 7dd1 073e 6b54 043e 0ff3 f9bd 9348 583e
00000290: 2194 3b3e f0fa e33d bc28 763e 83a9 673e
000002a0: 50a8 8bbc 78a2 173e d654 0cbd 61c3 6e3e
000002b0: 4f50 463e d961 933d 49a5 c3bd b8d3 7d3d
000002c0: ae49 d13d 728f 253e eb30 59be 8ca8 73bd
000002d0: 3ebf 67be f507 bebd c679 1dbe dd58 7fbe
000002e0: 1e0c 9e3d b791 4fbe f77f 793e fb43 df3d
000002f0: e592 33be e68c 58be f9ba 103e aaa7 7f3d
00000300: 5779 88be 4ee2 0c3e 0d41 913d 1877 8c3d
00000310: 7e89 193e a840 b73d 4ff6 cebd a67f 753e
00000320: 7924 843e c6d4 6cbe 68ad 023c 65a7 393e
00000330: c78d 2ebe 2115 e23c 9a67 3fbe 6c4c 6c3d
00000340: 59fe 763d 1bf4 13be f77e 6dbe 1476 2ebc
00000350: dacf e9bd c65c 4d3d 4661 203e b32b 503d
00000360: a31e 2c3e d0cd 0d3e 8ffc b13b 8c65 2abe
00000370: 91ec 9fbc 4aee e73d 4c5d 0e3e aea6 dd3d
00000380: 1542 9cbd b343 24be e704 f53d 6865 6abe
00000390: 0ccf 7fbd aaa8 a3bc 160e 973c 4af0 283e
000003a0: 3de5 003e 9a5e 04be 98c5 173e c3bb 2a3e
000003b0: badb 43be 1c9c 713e dcf0 ddbd 8d3d 1a3e
000003c0: 573b 673d 172f 5a3e 83bc 0bbe a20e e7bd
000003d0: 844a 15be ee50 683c c5fb 673d a1bd 123e
000003e0: af3f a7bd e5f6 723e d8ef 473e bc71 3cbe
000003f0: abe4 313e 537e 9e3d f7b4 01be a365 f13d
-0.18957089 -0.09815076 0.18413238 -0.079578936 -0.23344287 -0.14989644 -0.048922226 -0.1606792
-0.031234188 -0.033602215 0.17034747 -0.003966481 -0.15795016 -0.10994006 -0.23690294 -0.19939625
0.18723273 -0.16363342 0.037551593 0.17198874 -0.23900527 -0.13971817 0.00968632 -0.0066592656
-0.03399466 0.11726279 -0.054056816 -0.16269954 -0.022799486 0.21627195 0.23506619 -0.0471761
-0.023594165 -0.049703266 -0.15791678 -0.030958699 -0.22900793 0.13962877 0.2362518 -0.032319184
-0.16006915 0.18504506 -0.120224275 0.19190651 0.05564087 0.10208151 0.2066729 0.1978387
-0.18355568 0.12597117 -0.11025888 0.16909805 -0.24014378 -0.18838371 0.10318591 -0.13058378
-0.024792753 0.0861617 -0.13097721 -0.10665865 0.009971007 0.08624221 0.22356021 -0.17752786
-0.17720124 0.17541003 0.12311846 -0.16589348 -0.18021646 -0.017681375 -0.1660753 0.004537513
-0.13974684 0.003960243 -0.055405833 -0.24659427 -0.19810773 0.15462086 -0.22175646 0.05670581
-0.17085283 0.022758033 -0.09735538 -0.027822578 -0.15531734 -0.010651986 0.015912462 -0.033568833
-0.12511003 0.25111786 0.18029469 -0.1549568 -0.046775747 -0.17907189 0.048469394 0.047610242
0.010038051 -0.041329022 -0.047511235 -0.07313288 -0.18937728 -0.034301043 0.2171182 -0.24064091
0.0020322106 -0.20409918 -0.20674461 0.04869552 0.17074223 0.2011426 -0.02398021 0.07592686
0.21733232 0.09144993 -0.046499737 -0.06805611 -0.18837391 -0.09395872 -0.2181052 -0.13506922
-0.24743502 0.08098729 0.08071645 0.0642225 0.03774521 0.19187145 0.17655315 0.16922678
0.111581534 0.110051885 -0.06091422 -0.23733462 0.16511941 0.076571845 -0.17291997 0.18551391
-0.21084136 -0.13120347 -0.2331915 -0.089792565 0.253169 -0.0027188556 0.1321404 -0.16794257
-0.09875766 0.0052007725 -0.13277222 -0.020676862 0.060095157 -0.06663169 0.25405282 -0.14309606
-0.19287504 0.19852814 -0.1676102 0.24751416 0.0086858105 0.25700387 -0.17722294 -0.14579462
0.13263507 0.12922828 -0.12204563 0.21121435 0.18318225 0.11131847 0.24038976 0.22623257
-0.017048031 0.1480807 -0.034260593 0.23316719 0.19366573 0.07196397 -0.0955301 0.06196949
0.102191314 0.16168001 -0.21210067 -0.05948691 -0.22631547 -0.092788614 -0.15378484 -0.24936242
0.07717155 -0.2027043 0.24365221 0.10901638 -0.17536505 -0.21147498 0.14133824 0.062415756
-0.26655075 0.13758203 0.070924856 0.06858653 0.14993855 0.08947879 -0.101055734 0.23974475
0.25809076 -0.23128042 0.007975914 0.18130262 -0.17046271 0.027597966 -0.18691865 0.05769007
0.06030116 -0.14448588 -0.23192964 -0.010648269 -0.11416598 0.050137304 0.15662107 0.050822925
0.16808562 0.13848042 0.0054317187 -0.166403 -0.019521983 0.11324747 0.13902777 0.10822807
-0.07629792 -0.1604145 0.11963826 -0.22890246 -0.062453315 -0.019977886 0.018439334 0.16497913
0.12587447 -0.12926713 0.1482147 0.16673188 -0.19126788 0.23594707 -0.10836956 0.15062542
0.056453075 0.21307026 -0.1364613 -0.11282088 -0.14579207 0.014179451 0.05663659 0.1433015
-0.081664436 0.23726995 0.19525087 -0.18402761 0.17372386 0.07738938 -0.12666689 0.11786964

encoder.cnv1Dweekly.0.bias f4 [64]
00000000: 93f8 453c 9289 253e 82e8 853b df9f f2bd
00000010: e559 473c 42c4 bb3c 1244 453e 9516 323d
00000020: a2ae 053e c4a5 30be 4e79 b5bd afad 2fbe
00000030: ad28 3b3e f01c 5e3e 4893 c03d db2d 52be
00000040: b2a5 8bbd bc3a 73be bb33 553e 1f97 08be
00000050: b5d9 883d f6b8 52be 7b36 2cbe c588 53be
00000060: 8804 79be 98c5 f5bd 8746 5b3e 9fb9 90bd
00000070: ad06 efbd af3f 16be 8db4 45be d993 283e
00000080: 2a46 d53d c13b 50be 0c56 013e 89a4 78be
00000090: dce4 d4bd a226 0cbd b77c 83be 7b7d 9dbc
000000a0: 3513 b73d 38c1 31bd fc21 003e d5b9 2bbe
000000b0: a7a0 5abe 46f8 16bd b37d 693e a609 6d3e
000000c0: 2557 3fbd 7471 9e3d ddb5 973d c424 54be
000000d0: ac61 fe3d 505c f43d 2779 fabd 0e65 08bc
000000e0: 2e7a 0bbe fca6 5c3e 9ad5 adbd ac56 303e
000000f0: b224 91bd 5a1e 20be 73e3 963c 5159 5d3d
0.0120831905 0.1616576 0.004086555 -0.11846899 0.012167429 0.022920731 0.19264248 0.043478567
0.13054898 -0.17250735 -0.08861028 -0.17156099 0.18277235 0.21690726 0.09403092 -0.20525305
-0.06818713 -0.23752874 0.20820515 -0.13338898 0.06682149 -0.2057837 -0.16817658 -0.20657642
-0.24318135 -0.12000579 0.21413623 -0.070666544 -0.11671195 -0.14672731 -0.19307156 0.1646265
0.10413773 -0.20335294 0.1263048 -0.24281515 -0.10395214 -0.03421653 -0.25681087 -0.019224873
0.0893921 -0.04339716 0.12512964 -0.16770108 -0.21350347 -0.036857866 0.22801857 0.23148212
-0.046713967 0.07736483 0.074077345 -0.2071715 0.12420973 0.1193167 -0.12230139 -0.008324875
-0.13620827 0.21548074 -0.08488007 0.17220563 -0.07087077 -0.15636578 0.018419003 0.054040257

encoder.cnv1Dweekly.2.weight f4 [5, 64, 5]
00000000: d03c 55bd 1440 9e3c abae 4bbd f977 04bd
00000010: fc75 993c 5ee7 69bd 381c 1a3d e531 f23c
00000020: 5bde f33c 50e3 213d 7847 65bd dd50 50bd
00000030: eed5 293d bac2 b73c 8f2f 62bd 879f 7e3b
00000040: 0d79 e73a 3b9b ce3c c559 803c e3cc 01bd
00000050: 46e0 893c 7013 0abd 7f6f 133a b8ac 613c
00000060: cf08 83bd 0be8 1fbb 25bb 6bbd 87e7 fabc
00000070: ab7e 17bc ce5a 073d ae60 60bd c7f6 e13c
00000080: 4d4c 7ebc ce18 53bd 8774 97bc bd88 36bd
00000090: 8fd7 fe3c 17e4 cabb 397a c7bc bd03 c23c
000000a0: 7d5c 5abc f83a db3c 3607 633d 2d01 40bd
000000b0: 1820 58bd 35e1 48bd f5e5 dcbc 2592 f83b
000000c0: 4dfc 81bc 6169 e9bc a356 69bd d408 0e3d
000000d0: 22bc 153d 8f6a 263b e66f 403d e3bd 7b3c
000000e0: 1ca2 ac3c 406b 103d 21f1 a13c 50a6 febc
000000f0: 95cf 56bd 6a4e 3fbc 979c 3abd 6af2 9a3c
00000100: a53e f13c 76b6 4e3d ca65 203b 0138 d8bc
00000110: 8e4c 263b 3235 a3bb 6bad 143c 11a7 13bd
00000120: 6f94 a3bc c4e2 14bd 7b93 0bbd e27c 88bb
00000130: fe2d 3bbd c680 c13c c0ed b7bc 812f f7bc
00000140: ebe5 343d 0286 50bc aad3 11bd 31e3 2e3c
00000150: 90d0 133d f1d4 37bb 1419 50bc e7d2 273c
00000160: 98b7 0f3d c01c f2bb e0a8 0c3c 7850 843c
00000170: dc62 34bd b101 813c 326f 123d 8d2c 5cbc
00000180: 7d88 d23c b6db 153d 046a afbc 5e4d 273d
00000190: f899 c5bc a614 9dbb c6de 25bc c4c7 033d
000001a0: 86ba e33c cf68 f43b 8940 52bc c673 3fbd
000001b0: bd74 b53c 3157 073c e348 20bd 573a 9f3c
000001c0: 0a36 3cbd be29 0eba c30d 5a3d 22db 0dbd
000001d0: 75b3 613c 06b3 413c 475e d4bc bb3e 76bd
000001e0: 1644 d0bc 18a8 143d 68d0 18bd 2e6a f53c
000001f0: f7f1 03bd 4e89 14bd 27a7 8b3b 98dd ab3b
00000200: b3f3 48bc 2308 a33c c302 d63c eda1 71bd
00000210: f7a3 1a3c d543 11bc 3427 53bd 8e9d 5dbd
00000220: b290 0ebd 8349 36bc fac0 93bc 8f8e 3b3d
00000230: 44b3 213d b6c1 523b b3cc bc3c 85e1 283d
00000240: 56ad e2bc 69e0 223d ad44 03bd 181e 993c
00000250: 6d2a 98bc 0139 e03c 821e 0f3d 6375 a23c
00000260: b3f1 04bc 91a6 5d3d 9b24 6cbc b448 373c
00000270: b677 1dbd 32ac 243d a07a 2fbd 1b43 2c3d
00000280: 78cd 553d d1f4 283d edb6 243d b484 293d
00000290: 29cd 20bc fc9e 85bc 8ed8 d2bc 6a1b 1abc
000002a0: 18fa c83c f8f1 29bd 5ffc 16bd da49 843c
000002b0: ab21 4e3a a95a ca3c 7020 693c b759 d4bc
000002c0: 410a 09bd 7be9 c9bc f717 963c b837 a2bb
000002d0: f541 02bd cfd4 18bd 2738 32bb 5071 423d
000002e0: 4249 f4bc 97f6 95bc e143 f33c b120 463c
000002f0: 6648 e33c 12a1 11bd 3b28 7fbd b6f8 02bd
00000300: ecbf cb3c a2ef 24bd 86a5 1a3d 8342 41bd
00000310: bbd5 4dbd aae4 133c 8efb 34bd e182 5fbd
00000320: 7051 a93c 73f2 553d 85ed 14bc 0ed3 a93c
00000330: 7135 7a3c f936 14bd 8513 093a fac6 39bd
00000340: 6caa 69bd 79d3 20bd 0768 0d3d 7813 ee3b
00000350: 8811 053b d538 69bc fae8 3f3d e0fe 343d
00000360: adb6 76bd 7ac9 bfbc ff46 7e3c 1748 75bd
00000370: 83fb 8dbd be4e bd3c 0d6d edbc 202d 58bd
00000380: c032 51bd 6979 9cbc 2d29 25bd 9ec4 163d
00000390: 0986 6ebd bae9 3e3d 6244 d4bc e0a7 793c
000003a0: b67c 7d3c f56e ae3a 9e3c 2f3c 2a40 653a
000003b0: 7516 e3bc 2820 1b3d 8fbd 47bc 46b5 55bd
000003c0: ccd3 193d a4a1 ec3c c3d4 0f3d 0ede bebc
000003d0: a9fb 5ebd 09be bc3c 87a5 54bd 26cb b83c
000003e0: 8360 5fbc 408b 00bd 08db 2c3d de44 4abd
000003f0: 641b 533d 738e 56bd e6a3 50bd e222 763c
-0.05205995 0.019317664 -0.049727123 -0.032340977 0.018733017 -0.057105415 0.037624568 0.029564807
0.029769113 0.039523423 -0.05597636 -0.050858367 0.041463785 0.02243172 -0.055221137 0.003885241
0.0017659977 0.025220504 0.015667805 -0.031689536 0.016830575 -0.033709943 0.0005624219 0.0137740895
-0.063981645 -0.0024399783 -0.05755152 -0.030627979 -0.009246509 0.033045582 -0.0547797 0.027583493
-0.015521121 -0.051537327 -0.018488182 -0.044563998 0.031108646 -0.006191741 -0.024350272 0.023683423
-0.013327715 0.026761517 0.0554268 -0.04687612 -0.052764982 -0.0490429 -0.02696512 0.007585781
-0.015867377 -0.028492631 -0.05696739 0.034676388 0.03655637 0.0025393104 0.046981715 0.015365097
0.021073394 0.03525853 0.0197683 -0.031085163 -0.05244406 -0.01167641 -0.045559492 0.01891442
0.029448817 0.050466977 0.0024474734 -0.026393892 0.002537522 -0.0049807066 0.009074549 -0.036048
-0.01996824 -0.036349073 -0.034076195 -0.004165278 -0.04569816 0.023620974 -0.022452235 -0.030174019
0.04416458 -0.012727262 -0.03560225 0.010674284 0.036087573 -0.0028050507 -0.012701292 0.010243154
0.035087198 -0.007388681 0.008585185 0.016151652 -0.044039592 0.015747877 0.035750575 -0.013438356
0.025699848 0.036586486 -0.021412857 0.040845267 -0.02412127 -0.0047937213 -0.010123914 0.032172933
0.027798902 0.007458783 -0.012832769 -0.04674127 0.022150392 0.008260534 -0.03913201 0.019436998
-0.045949973 -0.000542309 0.05323578 -0.03463281 0.013775696 0.011822468 -0.025923861 -0.06011842
-0.02542309 0.03629312 -0.037308127 0.029957857 -0.032213178 -0.036263756 0.0042618695 0.005244922
-0.012265134 0.01990134 0.026124364 -0.058992315 0.009438506 -0.00886627 -0.05155106 -0.054105334
-0.03480596 -0.011125925 -0.018036354 0.04579025 0.0394776 0.0032158918 0.023046827 0.041230697
-0.027670544 0.039764795 -0.032047916 0.018691108 -0.018574918 0.027370932 0.034941204 0.019831365
-0.008114266 0.05411393 -0.014413024 0.011186767 -0.038444243 0.04020328 -0.042841554 0.042056184
0.052197903 0.0412491 0.040213514 0.04138632 -0.009814539 -0.016311161 -0.025738027 -0.00940595
0.024533316 -0.041490525 -0.036861774 0.016148496 0.0007863293 0.024701433 0.014228925 -0.025921686
-0.033457045 -0.024647465 0.018321974 -0.00495049 -0.031801183 -0.037312325 -0.0027194114 0.047471344
-0.029820088 -0.01830606 0.029695453 0.012092755 0.027744483 -0.035554 -0.062294226 -0.03197547
0.024871789 -0.040267594 0.03775551 -0.04718257 -0.050252657 0.009026686 -0.044185214 -0.054568175
0.020668715 0.05223317 -0.009089832 0.020730522 0.0152715305 -0.03618524 0.0005229044 -0.045355774
-0.057047293 -0.039264176 0.034523036 0.0072655044 0.002030464 -0.014234741 0.046853043 0.04418838
-0.060232807 -0.023411501 0.0155198565 -0.059883203 -0.06932738 0.023108836 -0.028982664 -0.05277741
-0.05107379 -0.019100862 -0.04032247 0.036808603 -0.058233295 0.046609618 -0.025911514 0.015237778
0.015471628 0.0013308214 0.010695605 0.0008745218 -0.02772067 0.037872463 -0.01219119 -0.05217483
0.0375555 0.02888567 0.035115015 -0.023299243 -0.05443922 0.023039835 -0.05191567 0.022557806
-0.01363385 -0.0313828 0.042201072 -0.049382083 0.051539794 -0.052381944 -0.050937556 0.015022965

encoder.cnv1Dweekly.2.bias f4 [5]
00000000: a803 b53c 8a7c 2cbd d747 20ba af2f 70bc
00000010: e927 3abd
0.02209647 -0.042110957 -0.00061142206 -0.014659806 -0.045448218

encoder.cnv1Dmonthly.0.weight f4 [64, 3, 11]
00000000: 4f1f 20bd 1468 05be d138 08bd 6a89 54bd
00000010: c6df 1abe f44c c2bd fc78 b5bd 2044 d2bd
00000020: 5af5 f2bd dae6 c73c 80b7 21be e41b ad3d
00000030: 3a29 a3bd 72e1 afbc 66e6 f5bb a831 07be
00000040: e408 323e 98c4 0dbd 7d86 bb3d 5867 063d
00000050: af2e df3d bb28 a03d f6dc 24be 62aa 8dbd
00000060: d174 52bd cb00 813d beee 8f3d 18e7 a63d
00000070: 3abc 4dbb 9a19 71bd 7ce9 babd 0211 2ebd
00000080: 23e6 a1bd d2a6 ecbd 54c1 0abe 1d58 f53d
00000090: 39f7 8fba 6940 2d3e 0e20 e43d 4a0b b3bd
000000a0: 5325 e5bd e96d bebc d6f3 213e 56b8 a23d
000000b0: c0c6 2ebe e8e8 4cbd e037 983d a996 afbd
000000c0: 9072 bbbd 342a 783d eae1 83bc e84b 28be
000000d0: 40cc e1bd d0fb 14be 2d13 a4bd 1f9e 563c
000000e0: af32 073e 1f47 8e3d f49d 523d e423 5f3d
000000f0: d12b 4abd 2768 cfbd 27c3 83bd 42f8 0d3e
00000100: 6c38 e63d 5dc5 f43d 7c3d a63d 11b4 31be
00000110: f6fa d13d 1c29 573d f95a 2a3e ea94 cdbd
00000120: f817 0abe 9350 96bd 07ef a8ba 410b 4e3d
00000130: cacb 853d f0bd 293e b38b 02bd d20c 8f3d
00000140: a3ac 903c 6bae 283e a996 1f37 b980 913b
00000150: 70ee 83bd 7f7b 253e ad0e 09bc 94d2 36bd
00000160: a96f 163e 13bb 33bb 9020 bb3d 25c2 013e
00000170: be32 c3bd e52c 13bb 7915 a63c 99cd bcbd
00000180: 0d89 bc3d 767b 0c3e c078 00be 6a26 173e
00000190: ccef 173b 93b1 21be c9af 86bd 50b1 fdbd
000001a0: a006 c53d 00cd d2bc c94a 04bc cdaf 16be
000001b0: 9797 28be c14e 093e 7469 ec3d c572 0cbe
000001c0: 5a64 6d3d aa25 1bbe fa09 15bd e0c0 683d
000001d0: e499 ffbc 33bc 2dbd 8e6c 7b3c c7c7 703d
000001e0: 7355 5e3d 89e3 a8bd 1edc 433d 8162 91bd
000001f0: c8bf 093e 1dba 963b 55d3 153a c332 833c
00000200: e599 2abe ab82 b4bd 9280 0ebd df29 bcbc
00000210: b8ce b5bb 938f a13d 2e00 c93d 8b34 fabb
00000220: 2353 563c 58e8 20be 462d 4abd 236d 0f3e
00000230: e337 ab3d f893 0a3d f73c 243e 70c2 2f3e
00000240: 9072 f4bc dda5 df3d c270 86bd c8d5 44bd
00000250: 1673 853d 56b9 05be 64d5 18be 0128 0ebe
00000260: a4f9 b5bd 65cd e63d f9f1 58bc d056 25be
00000270: ca1c 17be 7817 b1bd 3e95 b5bc 3017 c23c
00000280: bd3d 2cbe d4ae 1ebe 3fd4 243e 336c a83d
00000290: b815 073d 6a8c d3bd 9381 17be 0a5b a6bd
000002a0: d79b 353d c3e9 963d 5fab 1abe e50a 04be
000002b0: 4dde 89bd 9499 033e 2607 163e 4448 dd3c
000002c0: 8b7a c63d 44d7 aa3d 3305 cbbd cab7 e23c
000002d0: 680b 2dbe f31e 27be 8290 b2bd 1ef1 14bd
000002e0: 6209 e43d 1c9f 183d 70ab 0c3e ec95 12bd
000002f0: 8719 b13d e3ba 043e 99ac c43d bc1e b3bd
00000300: f06d 94bd 96ee d1bd 21f0 8e3d 6789 9dbd
00000310: d9a1 04bc 2742 233e a72e c7bd b2b2 08bd
00000320: 9419 d8bd 18a2 b9bc 5b4f 223d 3062 f93c
00000330: 99e4 18be c2d9 083e ced1 08be f958 543c
00000340: ced2 9dbd fb95 3bbb aabf c13c 7e24 a43d
00000350: a436 0e3e 7aec cfbd 37c6 a9bd e2c4 773d
00000360: df32 68bd 0fa5 acbb 0f42 073d 7e64 aabd
00000370: b180 903c 5acd 273e ba0b d5bd 7ed8 79bd
00000380: 4f27 0ebe 59e6 573d ebed ccbd 7853 063d
00000390: 72cb 303e b870 babd b5f1 18bd d837 093e
000003a0: 5ade f3bd ca6e 223d ddc1 cd3d 58ae 613c
000003b0: a9fe 12be 4fd2 c8bd c5ff 533b 31d6 80bd
000003c0: 39f6 96bd 2256 0dbc dc60 bdbc 37f2 b03d
000003d0: 3e91 613d b08f 1f3e 72a1 2dbe 08a8 2bbd
000003e0: e2ee 813c 2d40 76bd 382e ca3d 5949 0cbe
000003f0: 316f 94bd 1c4d 073e 552e 08be 6100 87bb
-0.03909236 -0.13027984 -0.03325731 -0.05188886 -0.15124425 -0.09487334 -0.088609666 -0.102669
-0.11863203 0.02440207 -0.15792656 0.08452585 -0.07966848 -0.021469805 -0.0075042723 -0.13202536
0.17386204 -0.034611315 0.09156511 0.0328134 0.10897576 0.07820269 -0.16099915 -0.069172636
-0.051380936 0.06298979 0.07027958 0.081495464 -0.003139271 -0.058862306 -0.09126565 -0.04249669
-0.07905223 -0.11555256 -0.13550311 0.11979697 -0.0010983712 0.16919102 0.111389264 -0.087423876
-0.1118876 -0.023245769 0.15815672 0.079453155 -0.17068005 -0.050026804 0.07432532 -0.08573658
-0.091527104 0.060587123 -0.016098935 -0.16435206 -0.11025286 -0.14549184 -0.0801147 0.013099222
0.13202928 0.06947159 0.051420167 0.054477587 -0.049358193 -0.10127287 -0.06433707 0.13864234
0.1124123 0.119517066 0.08117196 -0.17353846 0.10252945 0.05252944 0.16636266 -0.10038169
-0.13485706 -0.07339587 -0.0012888619 0.0503037 0.0653301 0.16576362 -0.03187151 0.06984867
0.017660445 0.16472785 9.512217e-06 0.0044403938 -0.06441963 0.16160391 -0.008365315 -0.044634417
0.14691032 -0.0027424737 0.0913707 0.12671717 -0.09531163 -0.002245718 0.02027391 -0.09218902
0.09205828 0.13718972 -0.12546062 0.14760748 0.0023183702 -0.15790395 -0.06576497 -0.12387335
0.09620404 -0.025732517 -0.008074471 -0.147155 -0.16464077 0.13408948 0.11543551 -0.13715656
0.05795703 -0.15151086 -0.036386468 0.056824565 -0.03120131 -0.04241581 0.015345706 0.058784273
0.05428071 -0.08246524 0.047817342 -0.07098866 0.13452065 0.004599823 0.000571539 0.016015416
-0.16660269 -0.088139854 -0.034790583 -0.022969184 -0.0055483244 0.07888713 0.098144874 -0.007635658
0.013081345 -0.15713632 -0.049359582 0.14006476 0.08360269 0.03383252 0.16038881 0.17164016
-0.029839784 0.10920308 -0.065644756 -0.04805544 0.065160915 -0.13058981 -0.14925152 -0.13882448
-0.08885506 0.11269645 -0.0132412845 -0.16146398 -0.14757076 -0.086470544 -0.02216589 0.023692697
-0.16820426 -0.15496379 0.1609659 0.08223762 0.032979697 -0.10329516 -0.14795522 -0.08122833
0.044338074 0.07368805 -0.15104435 -0.12894781 -0.06731854 0.12851554 0.14651164 0.027011998
0.09691342 0.0834184 -0.09913101 0.027675528 -0.16898882 -0.163204 -0.08718969 -0.03636276
0.11134602 0.037261114 0.13737273 -0.035787508 0.08647447 0.12961917 0.09603233 -0.087460965
-0.072475314 -0.10250585 0.06979395 -0.07692223 -0.008095228 0.15943204 -0.09725695 -0.033373542
-0.10551754 -0.0226603 0.03962646 0.030442327 -0.14930953 0.13364318 -0.13361284 0.012960666
-0.077062234 -0.002862333 0.023650963 0.08014773 0.13888031 -0.10152526 -0.082897596 0.060490496
-0.05668914 -0.0052687 0.033021983 -0.083199486 0.01763949 0.16386929 -0.10402627 -0.06099748
-0.13882183 0.05270991 -0.10006317 0.032794446 0.17265108 -0.09103531 -0.037339885 0.13400209
-0.119076446 0.039656438 0.10046742 0.013774477 -0.14354958 -0.09805738 0.0032348495 -0.06290854
-0.07371182 -0.008626493 -0.023117475 0.08639949 0.055070154 0.15582156 -0.16956118 -0.041908294
0.015860979 -0.060119797 0.09872097 -0.13699855 -0.072477706 0.13213009 -0.13298924 -0.004119918

encoder.cnv1Dmonthly.0.bias f4 [64]
00000000: 6b8b 20be 46ad 01be 8ac7 bfbd f5e5 da3d
00000010: 52c8 073e 2189 833d 50a9 88bb 7cc1 6dbd
00000020: 54ef da3b 641f 4d3b 7b1d e0bd 68d0 eebd
00000030: 82b9 073e a7b6 28bd 24c5 a43d 0a27 a5bd
00000040: 4cf2 c93d bf78 adbd 9185 bbbc 4eb1 cebd
00000050: f2ec 1abe a269 993a 2710 86bd 5d1e b93d
00000060: 3c6e bfbd 6ea2 4abd d005 1f3e 113e 6a3c
00000070: 7493 94bd 80e4 30bd d76f 21be e3e4 aabd
00000080: 4fa1 1b3d 0c49 87bd ef92 903d 9289 f83d
00000090: d620 a03d 3a4a ec3d c2a8 193e 6ddd 2bbe
000000a0: e318 9c3d 45f8 d4bd db68 9b3d 76cb 123e
000000b0: 44d6 c53d e483 04bc 898c 4ebc eafd fdbd
000000c0: 45f0 92bd c613 763d 2b83 b6bd 566d 0d3e
000000d0: 222a 833c 8813 b4bd cadb c9bd f12c fb3d
000000e0: af49 1c3d c557 26be c23f 243e 4380 bdbd
000000f0: 6239 5a3d 85d6 cc3b d19f 5eba 4381 dbbd
-0.15678184 -0.12663755 -0.09364231 0.10688392 0.1326001 0.0642264 -0.0041705742 -0.05804585
0.006681362 0.0031299228 -0.10943123 -0.11660844 0.1325436 -0.041189816 0.08045414 -0.08064087
0.098606676 -0.08470296 -0.022890838 -0.10092412 -0.1512945 0.0011704455 -0.065460496 0.090389945
-0.093471974 -0.04947131 0.15529561 0.014297024 -0.07254687 -0.043186665 -0.1576532 -0.08344438
0.037995633 -0.066057295 0.07059275 0.121356145 0.07818763 0.11537595 0.15005782 -0.16783686
0.07621934 -0.10398916 0.07588359 0.14335427 0.096600085 -0.008088086 -0.012606748 -0.12401946
-0.07174734 0.06007745 -0.08911737 0.1381124 0.016011301 -0.08792788 -0.098563746 0.12264431
0.038156208 -0.16244419 0.16039947 -0.092529796 0.05327738 0.0062511587 -0.00084924424 -0.10718014

encoder.cnv1Dmonthly.2.weight f4 [5, 64, 10]
00000000: 7524 083d 33aa c6bc f01c 143c 07c9 22bd
00000010: 21a3 d43b 648f e73c 840a 41bc 8989 95bc
00000020: c258 d5bc 1beb d2bb e0be 0ebd a5f9 04bd
00000030: 5ed2 153d 76e0 6f3b b1a2 e73c 6c68 95bc
00000040: bb4a 00bd 7724 073d 8c05 e93c eb0a acba
00000050: 21b7 e43c cc94 683b f2c7 fa3c b692 ea3a
00000060: e8fb f03c f0c5 f83c fa0c 3a3c e8a3 26bd
00000070: a81d 9fbc 06aa a43c 1e7c a0bc 873d 37bb
00000080: e959 5e3a 27f0 fc3c 7104 8e3c c7c6 e8bb
00000090: eba1 853b 594a 033d 7ac9 a03c 34c5 073d
000000a0: 08be 5a3b d5b8 1b3d ddd4 88bc 5926 1b3d
000000b0: cec4 203d 85b0 d3bc 9715 9b3c bbf3 32bc
000000c0: aa92 4e3b ea38 c0bc d6a1 cc3c d710 613c
000000d0: b48a c73b 9393 cf3c bdce f0bc e7d7 ff3b
000000e0: 5b1a e8bb 2164 303c 9501 ff3a d995 543c
000000f0: 9de8 de3b a264 dfbb 1c48 883c 8fb9 8a3b
00000100: 57d3 bbbc fe29 c9bc d1fd 153c 99da 0d3d
00000110: be26 063d 1a17 133d 2d00 acbc b9d4 a7bb
00000120: c20e 883c acfa fabc 150d 4cbc 984d 9bbc
00000130: 178f 333b 53f1 fdbc 5582 0abd ab65 ce3c
00000140: 1948 edbc 14bf f0bc 2315 cb3c d7f1 903b
00000150: 04af d23c f6cb 20bd 635f a93c 2a97 f03c
00000160: 5be5 153d 7e25 ba3c 9b3f c13c 9328 26bc
00000170: 08be 973c 56c0 823c 867f 3ebc abf5 9b3c
00000180: f8a8 53bc 97a0 41bc a7ee 0a3a 5f04 de3c
00000190: 9416 11bd 26af 17bd 4f79 ef3c 27c2 15bd
000001a0: 27bd 7e3b 9558 fcbb c808 cebc 9eec f63c
000001b0: 6062 fe3c 4f78 81bc 6969 133c 5456 fc3b
000001c0: b79c bebc a945 e33c 82ef 393c cecc 25bd
000001d0: ea7f d23b 8cd7 0e3d 1e8d 963c fbb0 933c
000001e0: c568 973c 1ad7 163d 9943 313c c001 0e3d
000001f0: 15ce a7bc 6fa1 36bc c4de 4a3c 0a87 e3bc
00000200: 48e7 683b 6186 f83c 8a45 1abd 1566 9cbb
00000210: 6502 2cbd 5b14 b8bc dd6d 6dbc 6346 2abd
00000220: 2f8a b73c 0d91 d8bc 17e3 163c a06b eb3c
00000230: 116f 813c 1cf0 e6bc b824 a1bc b412 b03c
00000240: 65a8 cd3c eb0a 8d3c 0f55 d63b e0ab 95bc
00000250: a051 2b3b 1742 c2bc 0d5b e43c e129 28bc
00000260: 3f69 ed3c 3bce 2ebb d075 73bc c507 cf3c
00000270: 5b54 a03c f539 31bd 4538 debc 3704 d7bc
00000280: ba64 893a d11e 11bd 21df 0bbd 8c2d 9d3c
00000290: 5b74 9ebc 747e 14bd 7081 f1bc c1d8 283b
000002a0: 9692 ac3c f285 4bba 189a 083d dd5c 853b
000002b0: da39 fabb ec37 f63b 0f78 e0bc c90b 0ab9
000002c0: 03b1 fa3c 431e 773c 4b4a bdbc ccde c83b
000002d0: da02 f73c c1df b23c 8c90 6fbb a54b 983a
000002e0: 7af4 cfbb 0ff3 753c 8d06 f63a e8e3 d8bc
000002f0: 270a 46bc e079 9d3b 83da e6bb f014 0bbd
00000300: 5f8d 943c 01e3 783c b0b7 d93c 3370 b13c
00000310: 1430 07bd 4774 2d3c baa8 f9bc 911f d4ba
00000320: dc4d 02bd 6291 10bd 2bea e4bc 33c7 d4bb
00000330: 9191 f4ba 7b70 a43b 3a07 d63c 2b13 c1bb
00000340: f20b a63c 8381 d43c 14a8 913c 69d1 f83c
00000350: 6931 ae3b 56eb 04bd 73aa 863c ff81 9e3b
00000360: 4b7a a63c 992a 0c3d a167 47bc a8a8 0e3d
00000370: b1aa 0a3d 22d0 6fbc 7abc d4bc 1d44 003d
00000380: 9d8a c1bc e366 053d 323b d0bc 34a7 c7bc
00000390: ac4d d4bc 3db1 dc3c d58c 853c cc26 ce3c
000003a0: 311c ec3b 3778 323c c9d1 28bd dc4c 88bc
000003b0: 7f57 5dbc acb1 98bc d8c8 5fb8 a3ba 5a3c
000003c0: 0b39 01bd 7000 f5bc eaf5 b8bc 1e99 4d3b
000003d0: c9b1 6aba 3565 0fbc 0837 1d3c d0d1 f4bc
000003e0: bfa6 233a 16a2 c53c 446d 5c3b 704c 583c
000003f0: e164 8d3c f03b 873c b08e 2bbd 355a 32bc
0.033237893 -0.02425108 0.009040102 -0.039742496 0.006489173 0.028266616 -0.011782292 -0.018254058
-0.0260433 -0.006436718 -0.03485 -0.032464642 0.036577575 0.0036602295 0.02827582 -0.018238269
-0.03132127 0.03299376 0.028445028 -0.0013125812 0.027919354 0.003548908 0.03061292 0.0017896506
0.029416993 0.030367821 0.011355633 -0.040683657 -0.01942332 0.020100605 -0.019590434 -0.0027960257
0.00084820256 0.030876232 0.017336102 -0.007103774 0.00407814 0.032053325 0.019627322 0.033147052
0.0033377428 0.038018066 -0.016703064 0.037878368 0.039250188 -0.025841007 0.018931193 -0.010922368
0.0031520524 -0.023464639 0.024979513 0.013736925 0.0060895327 0.025338924 -0.029395455 0.00780772
-0.00708322 0.01076606 0.0019455428 0.01297518 0.006802632 -0.0068174163 0.016635947 0.004233546
-0.022927923 -0.024556156 0.009154753 0.0346323 0.03275179 0.035910703 -0.020996178 -0.005121794
0.0166086 -0.030637108 -0.012454291 -0.018957898 0.002739852 -0.030998861 -0.0338157 0.025194963
-0.028965043 -0.029387988 0.024790352 0.004423361 0.02571822 -0.039257012 0.020675367 0.029368956
0.036595684 0.022722956 0.0235899 -0.01014151 0.018523231 0.015960854 -0.011627084 0.019038042
-0.012918703 -0.011818073 0.0005299844 0.027101694 -0.035421923 -0.03703227 0.02923265 -0.03656211
0.0038870068 -0.0077009895 -0.025150672 0.030142125 0.031052768 -0.015804438 0.0089973 0.007700721
-0.023268087 0.027743177 0.011348607 -0.04047852 0.00642394 0.03487353 0.018377837 0.018028727
0.018482575 0.03682623 0.010819339 0.034669638 -0.02048401 -0.011146887 0.012382213 -0.027774353
0.0035538245 0.030337514 -0.037663974 -0.0047729113 -0.04199447 -0.022470644 -0.0144915255 -0.041571032
0.022404758 -0.026436353 0.009209416 0.028737843 0.01580003 -0.028190665 -0.01967083 0.021493293
0.02510471 0.01721712 0.0065409015 -0.018270433 0.0026141182 -0.023713155 0.027875448 -0.010263891
0.02898085 -0.0026673216 -0.014859632 0.02527226 0.019571474 -0.043268163 -0.02712644 -0.026247127
0.0010482289 -0.03542978 -0.03414834 0.019186758 -0.019342592 -0.036253408 -0.029480666 0.002576396
0.021065991 -0.0007763795 0.03335008 0.004069908 -0.007636291 0.0075139906 -0.027400998 -0.00013165096
0.030601984 0.015082899 -0.023106715 0.006130075 0.030152727 0.02183521 -0.0036554663 0.0011619224
-0.0063462825 0.015011563 0.0018770263 -0.026475862 -0.012087381 0.0048057884 -0.0070450916 -0.033955514
0.018133817 0.015190841 0.026576847 0.021659946 -0.033004835 0.010586805 -0.030475963 -0.0016183724
-0.031812534 -0.035294898 -0.027943691 -0.006493473 -0.0018659105 0.0050182915 0.026126493 -0.0058921776
0.020269368 0.025940662 0.017780341 0.030373292 0.0053159487 -0.032450996 0.016438698 0.004837274
0.020321986 0.03422031 -0.012170703 0.034828812 0.03385419 -0.014637025 -0.025968779 0.031314958
-0.023625666 0.032568824 -0.025418852 -0.02437172 -0.025915943 0.026939983 0.016302506 0.025164984
0.007205509 0.010892919 -0.04121569 -0.016638212 -0.01350963 -0.018639408 -5.3354393e-05 0.013350162
-0.03154854 -0.029907435 -0.022578198 0.0031371783 -0.00089528837 -0.008752157 0.00959564 -0.029885203
0.00062428036 0.02412514 0.0033634463 0.013201818 0.017260017 0.016508073 -0.041884124 -0.010885765

encoder.cnv1Dmonthly.2.bias f4 [5]
00000000: dbb4 03bd 797b 34bb 4504 afbb afe0 c3bc
00000010: cad8 233c
-0.0321549 -0.0027539416 -0.005341085 -0.023910848 0.010000417

encoder.cnnFusion.weight f4 [32, 335]
00000000: da48 e4bc 0e77 bc3c 11f5 1dbd 11ba 38bc
00000010: 6e43 533c b062 debb 170a 20bd e0dc 39bd
00000020: 3604 4fbd 8d7c 183d fdfb 01bd 9f8f e8bc
00000030: 2fe2 323d e5ca 3ebc 541a 51bd ef17 60ba
00000040: 8939 aabc c636 aebc 07d1 13bd c33d 83bc
00000050: 024a 943c 37e7 1b3d 4263 21bd 0a6a e0bc
00000060: 7629 47bd 0902 01bd c446 fdbc 8974 8cbc
00000070: 49ed e13c 4b2f a5bc 2b07 083d 5ccc 373b
00000080: a62a 1e3d 502d 233c 46a8 fdbc 948f 8dbb
00000090: 4d98 a73c 2b5f 763b 2321 01bd 5792 0f3c
000000a0: fb9d b3bc 80a5 193d 12d1 3a3d 6fb8 b43b
000000b0: f649 fbbc db06 d1bc 42fa 2e3d 8286 0d3d
000000c0: a1fb 193d 6cc0 4f3c 3651 87bc 9f39 29bd
000000d0: c2bb 263d 362e 36bd ea00 3fbd 969d f63c
000000e0: 765e bd3a c30c 06bd 4820 b53c 0806 d33c
000000f0: 8635 a3bc 0dbe d93b a80b 2fbd cccc 413c
00000100: b3a6 173b 1f95 363d f65d 493d 5cdb e03b
00000110: 85c8 cd3c f12c 3fbd f559 0e3d cbd4 383d
00000120: 6d91 91bc 0e47 96bb 4687 dbbb 5ed1 3e3d
00000130: 2ebb 16bd ff1a 423d 1ec3 59bd 2023 8c3b
00000140: 8a02 4cbd 4738 ee3b b6fb 94bc ab05 b13c
00000150: 6206 4cbd 5109 5fbd 8d06 4b3d 2dec feba
00000160: c6c3 04ba ff40 3a3d 9790 103c fcc5 203d
00000170: 5594 7fbb 1a69 4dbc ac19 04bd 7979 2abd
00000180: 608e 31bd bcd2 533c e299 573d 4aa1 e33b
00000190: e6af 443d 7463 eebc 3c0f 4dbd 3918 0f3d
000001a0: 0a8b 503d c62a 7f3a 897d c8bb 34d9 41bc
000001b0: 4b38 2c3d 3dc7 53bd 1810 d23c af4a 323d
000001c0: fa64 94bc 7547 ccba e758 433d 0b47 05bd
000001d0: 0b82 04bc c67e 393d 4847 403b a9cb 41bd
000001e0: 0556 0fbd 4975 09bd 719f a9bc 5204 c13c
000001f0: 0794 9b3c bbb5 eb3c b94f 99bc 5849 0bbd
00000200: 43c0 3cbc 0cf1 adbc 4486 08bd 2015 223d
00000210: 90de b23c b49d 7f3b 9caa 953c 51a9 5f3d
00000220: ff3d adbc a37a 2a3b cf4f 0ebd 9ae2 b8bc
00000230: cabc bdbb d593 21bd 5a8b 833c 54f1 603c
00000240: 5bfa b03c 45f0 c9bc 32b0 d23c 76f8 243b
00000250: 0ecd 443d e1a5 fe3c 3770 41bd b952 49bd
00000260: 2fcf 933c b817 38bd 7ebd 33bd 662a 43bb
00000270: adbc f53c 6904 3e3c ed9c 003d 23a8 02bd
00000280: ca06 99bc 669b 0c3d bcf3 0c3d b121 a8bb
00000290: 7204 2fbb c058 b9bc b68a 9b3c c62f aa3c
000002a0: 4e8e 40bd 1653 eabc 79c1 5cba fb92 c4bc
000002b0: 2dba a93c 47ca 3a3d aeb8 20bd 9085 acbc
000002c0: d341 33ba ddaf 4bbd 98cb cfbb 5816 01bd
000002d0: 63cc 253d dd60 febb cf39 30bd 1b17 743b
000002e0: e940 513d 14d0 b6b9 c645 43bd 9400 373d
000002f0: 3525 8f3c 2af8 6fbc dccf b13b ba2a 323d
00000300: f34c 4abd 0d36 2cbd 36b1 74bc 3be3 003d
00000310: 4801 08bd cac2 ac3c 2b42 2e3d 46e2 bb3c
00000320: 3e9e 33bd d3f3 22bc 3842 32bc 6a48 893c
00000330: 9087 263d e491 2d3d 63ae 5abd 1afe 4e3d
00000340: 274d 1bbd e3cb 523c c6af 493c 0f3c 31bd
00000350: d1c7 76bc bf19 373d 8cc4 7fbc f0e2 7aba
00000360: 1775 56bd 355e 15bd fa96 53bd d500 e3bc
00000370: 0137 cabc 5a37 583d 0675 853c d485 8b3b
00000380: 2666 3d3d 037e c3bc 6c20 3abd 04bf e73c
00000390: 9b0a 1c3d 2d98 60bd 0514 37bd abab 423d
000003a0: a375 2dbc ba41 35bd 0e67 2d3d 79e6 d8bc
000003b0: 6e88 cdbc 9a4f cc3c 29c1 153d d174 b1bc
000003c0: 67d8 eb3b 4f75 1abd 68bb 26bc 98f4 24bd
000003d0: 2891 51bd d948 803c 1821 b1bc 47cc a63c
000003e0: d72e 063d 5e3a 10bd da32 51bd 998d 863c
000003f0: a422 4ebc 8e55 d1bc 9473 fe3c a5a4 0ebb
-0.02786677 0.023005988 -0.03856379 -0.01127483 0.012894494 -0.006786667 -0.039072122 -0.04537666
-0.050541125 0.037228156 -0.031734455 -0.028388796 0.043672737 -0.0116450535 -0.0510505 -0.0008548488
-0.020779388 -0.021266352 -0.036088016 -0.016020661 0.018101696 0.0380623 -0.0394013 -0.027394313
-0.048623525 -0.03149608 -0.030917533 -0.017145412 0.027578967 -0.020164153 0.03320996 0.0028045392
0.03861489 0.009959534 -0.030964028 -0.0043200944 0.020458365 0.0037593346 -0.031525742 0.0087629175
-0.021925917 0.03751135 0.04560954 0.0055151503 -0.030674916 -0.025515964 0.042719133 0.034552105
0.037593488 0.012680154 -0.016518217 -0.041314717 0.040706404 -0.044477664 -0.04663173 0.03010444
0.0014447707 -0.032727014 0.02211012 0.025759712 -0.019922983 0.0066449703 -0.042735726 0.011828613
0.0023140132 0.044575807 0.049161874 0.006862087 0.02512003 -0.04667372 0.03475376 0.04512481
-0.01776954 -0.004586107 -0.0066994755 0.046586387 -0.036799602 0.047389027 -0.053164594 0.004276648
-0.04980711 0.0072698924 -0.018186431 0.021609148 -0.049810775 -0.054452244 0.049566794 -0.0019449048
-0.0005064573 0.04547214 0.008823535 0.039251313 -0.0038998325 -0.012537265 -0.032251045 -0.04161975
-0.04334867 0.012928661 0.05263699 0.0069467174 0.048019312 -0.029100157 -0.050063357 0.03493521
0.050913848 0.0009733852 -0.0061184806 -0.01183157 0.042045873 -0.05170368 0.02564244 0.043528255
-0.018114556 -0.0015585261 0.047692206 -0.032538455 -0.008087645 0.045286916 0.0029339362 -0.047313366
-0.034994144 -0.033559117 -0.02070591 0.02356163 0.018991483 0.02877318 -0.018714773 -0.034005493
-0.011520448 -0.021233104 -0.03333117 0.039570928 0.021834642 0.003900391 0.01826983 0.054604832
-0.021147726 0.0026013039 -0.03474408 -0.02256899 -0.0057903277 -0.039447624 0.016057659 0.013729412
0.021603754 -0.024650702 0.025718782 0.0025172508 0.048047118 0.031084957 -0.047226157 -0.049151156
0.018043129 -0.044944495 -0.043881886 -0.002977991 0.029997194 0.011597731 0.031399656 -0.03189863
-0.018679995 0.034327887 0.03441213 -0.0051309695 -0.002670553 -0.022625327 0.018987041 0.020774733
-0.047010712 -0.028604072 -0.00084211637 -0.023995867 0.020718658 0.045603063 -0.039238624 -0.021059781
-0.00068381167 -0.049728263 -0.006341409 -0.03151545 0.04047812 -0.007763012 -0.04302388 0.0037245217
0.051087294 -0.00034868775 -0.047673963 0.044678286 0.017473796 -0.014646569 0.00542639 0.04349778
-0.04938979 -0.042043734 -0.0149348285 0.031466704 -0.033204347 0.021088976 0.04254357 0.022935044
-0.043852083 -0.009945828 -0.010880046 0.016758163 0.040656626 0.04237546 -0.053388964 0.0505353
-0.037915375 0.012865993 0.012309974 -0.043270167 -0.015062288 0.044702288 -0.015610825 -0.00095705595
-0.05235776 -0.036466796 -0.051657654 -0.027710358 -0.024684431 0.052787162 0.016291153 0.004257897
0.046239994 -0.023863798 -0.045441076 0.028289326 0.03809605 -0.054832626 -0.044696826 0.047526997
-0.010587129 -0.044252135 0.04233461 -0.026477085 -0.025089469 0.0249403 0.036561165 -0.021662148
0.007197428 -0.03770953 -0.010176517 -0.040272325 -0.051163822 0.015659736 -0.021622226 0.020361079
0.032759514 -0.035211913 -0.051073886 0.01642494 -0.012581501 -0.025553491 0.031060971 -0.0021765616

encoder.cnnFusion.bias f4 [32]
00000000: 3e14 8c3d bfa7 ccbb fca8 843d 0aef 7c3b
00000010: ccb9 f8b6 13cd 4f3d 6376 233d 5721 1bbc
00000020: 4d3c 0c3d 7792 35bc f316 7d3c 9435 0f3c
00000030: 639b 4f3d 3781 ecbc 59c6 08bd ac31 023d
00000040: 6be6 2f3d fd40 1ebd dbc4 05bd d586 bc3c
00000050: 1142 0f3d 49b7 fe3c 0dbd 84bc e0d6 ec3c
00000060: ab55 0dba 136a af3c 4482 f6bc c047 40bd
00000070: 77e1 4c3d 6131 33bd 0ed0 2c3d 427a 2a3d
0.068397984 -0.006245583 0.06477544 0.0038594627 -7.4126056e-06 0.050732683 0.039907824 -0.009468398
0.034237195 -0.011082283 0.015447366 0.008740801 0.050685298 -0.028870208 -0.033392284 0.031785652
0.042944353 -0.038636196 -0.03265844 0.023013512 0.034975115 0.031093257 -0.016203428 0.028911054
-0.00053914887 0.021412885 -0.030091412 -0.046943426 0.050019708 -0.043748263 0.042190604 0.0416205

encoder.rnn.0.weight_ih_l0 f4 [15, 3]
00000000: 50e6 873e a7d9 fbbd a7ad 883d 3564 f33d
00000010: 3658 cf3d 7040 883e 0051 61be 4a60 b1bb
00000020: fe14 64be e81f 8cbe 2d2c 82be 36b9 d43e
00000030: efb3 3ebe ef0b b93e 8294 3abe 78ff 7ebe
00000040: a8cd 74be 009e 893d 7cc6 33be b8e8 75be
00000050: aae5 3cbe bdb6 8fbc 6e05 99be edc0 abbe
00000060: f9cc 69be b58e bdbc 8bac abbe 4b11 d2be
00000070: 6c9b a23e 3127 893e 538c 8cbe 25f5 7d3e
00000080: 1677 333e 6b85 ebbd 925f 83be e969 b73e
00000090: 0ff4 483e 753f a6be 2801 023e f15b d23d
000000a0: 6ca2 9a3e b593 75be 507f 81be f131 853e
000000b0: 4efd 433e
0.26542902 -0.12297373 0.066737466 0.11884347 0.10124247 0.26611662 -0.22003555 -0.00541309
-0.22273633 -0.27368093 -0.25424328 0.41547555 -0.18623327 0.36141917 -0.18220714 -0.24902141
-0.23906577 0.06719589 -0.17556185 -0.24014556 -0.18446985 -0.017543191 -0.29886955 -0.33545628
-0.22832097 -0.023139337 -0.33530077 -0.41028818 0.31759202 0.26787713 -0.2745081 0.24800546
0.17525896 -0.11500057 -0.25658852 0.3582299 0.19624351 -0.3247029 0.12695754 0.10271443
0.30202043 -0.23982127 -0.25292444 0.26014665 0.19139597
