checkpoints_0/hoynet_15.pth (torch, 166254 bytes, 58 tensors)

encoder.cnv1Ddaily.0.weight f4 [64, 3, 1]
0	0xbef2ce47	-0.47423002
1	0x3ec7b5c2	0.39005858
2	0xbe22e45a	-0.15907422
3	0xbd996b74	-0.07491198
4	0x3e279ab9	0.16367616
5	0xbe2d91ae	-0.16950104
6	0x3def2bb9	0.11678261
7	0x3ef18f9a	0.47179872
8	0xbe0f92d4	-0.14020854
9	0x3ee94dbf	0.45567128
10	0xbeac3c95	-0.3363997
11	0xbe603875	-0.21896537
12	0x3e1b0410	0.15138268
13	0xbe1fc323	-0.15601783
14	0x3d95e530	0.07319105
15	0x3e488fbc	0.1958608
16	0x3e8e63c9	0.27810505
17	0xbe3d32a3	-0.18476348
18	0x3e064bd3	0.13114862
19	0xbcd359a0	-0.025799572
20	0x3ee0da97	0.4391677
21	0xbee4cac9	-0.44685963
22	0xbc5a0a07	-0.013308055
23	0x3d17b53f	0.037038084
24	0xbeaa176f	-0.33221003
25	0x3edae0aa	0.4274953
26	0xbeb310ce	-0.34973758
27	0xbe8687a5	-0.26275364
28	0xbe864503	-0.26224527
29	0xbde8309b	-0.11337396
30	0xbe54d610	-0.20784783
31	0xbec4ec4e	-0.38461536
32	0xbd377568	-0.0447897
33	0xbc6b718d	-0.014370334
34	0x3e966f44	0.29381764
35	0x3efda3e8	0.49539113
36	0xbf005731	-0.50133044
37	0xbd3c74f8	-0.046009988
38	0x3ea5a891	0.32355168
39	0xbe8efc67	-0.27926943
40	0x3e646256	0.22303137
41	0x3eff98ae	0.49921173
42	0x3eed9c26	0.46408194
43	0xbdce06b0	-0.10059869
44	0xbf0e3891	-0.55555063
45	0xbc096692	-0.008386271
46	0x3d008470	0.031376302
47	0x3ed9eda6	0.42564124
48	0xbf075329	-0.5286127
49	0x3eb5c7b4	0.35503924
50	0xbe10e74e	-0.14150736
51	0x3ee33b9e	0.44381422
52	0xbddc8fb9	-0.107696004
53	0x3e9ef99e	0.31049818
54	0x3effb114	0.49939787
55	0x3ecd7784	0.40130246
56	0x3cad87f5	0.021182993
57	0x3e22b571	0.15889527
58	0x3f0b1d36	0.5434145
59	0x3da2ca80	0.0794878
60	0x3e82f75e	0.2557935
61	0xbe984b21	-0.2974482
62	0xbe677a80	-0.22605324
63	0x3dcb588a	0.09928997
64	0xbe2750bc	-0.16339391
65	0x3e862ada	0.26204568
66	0x3da50781	0.08058072
67	0xbdc3ff06	-0.09570126
68	0xbec6014d	-0.38672867
69	0xbe2578df	-0.1615939
70	0x3ef75433	0.48306426
71	0xbccafebd	-0.024779672
72	0xbe62ae04	-0.22136694
73	0x3bf98827	0.0076151076
74	0xbe5156a6	-0.2044321
75	0x3f0736a4	0.5281775
76	0x3dbd6ce5	0.092492856
77	0x3e542f85	0.20721252
78	0xbe8041af	-0.25050113
79	0xbd81ebc1	-0.063437946
80	0x3d5ffbd2	0.054683514
81	0xbedcff9f	-0.43163773
82	0xbe86b0e5	-0.26306835
83	0x3d9fe75a	0.07807799
84	0xbed51d78	-0.41624045
85	0xbf08f7ae	-0.5350293
86	0x3f0c52e1	0.54813963
87	0xbdd393cc	-0.103309244
88	0x3da036db	0.07822963
89	0x3ec196b1	0.3781028
90	0xbda92b8e	-0.082602605
91	0xbe9489b6	-0.29011315
92	0xbeaa3f14	-0.3325125
93	0x3eedfa50	0.46480036
94	0x3ee2e480	0.44314957
95	0x3ea8f859	0.33001974
96	0xbe84ae34	-0.25914156
97	0x3da23a6f	0.079213016
98	0x3ece3929	0.40277985
99	0xbde84bc8	-0.11342579
100	0x3ed6977b	0.41912445
101	0x3dc5b2a5	0.09653214
102	0xbd98a68d	-0.07453642
103	0x3dac4ec2	0.08413459
104	0x3f127b72	0.5721961
105	0xbef7cdd7	-0.4839923
106	0xbec1326c	-0.3773378
107	0x3ef6a9ba	0.48176366
108	0x3da4ba96	0.08043401
109	0x3e152531	0.14564969
110	0xbee00c42	-0.43759352
111	0xbe295fb1	-0.1654041
112	0xbd3028f0	-0.04300779
113	0x3e4fde39	0.20299615
114	0x3f0bfed2	0.546857
115	0x3e98af9a	0.29821473
116	0xbf025689	-0.5091329
117	0x3ee60d25	0.44931903
118	0x3e42482d	0.18972845
119	0x3e6ec304	0.2331658
120	0x3c4815af	0.012212201
121	0xbdd419ca	-0.103564814
122	0xbecf0849	-0.4043601
123	0x3e3da439	0.18519677
124	0x3ed2891e	0.41120237
125	0x3eb09de5	0.34495464
126	0x3e8e3f8a	0.2778285
127	0x3ec140c1	0.37744716
128	0x3d94dee5	0.07269076
129	0x3ef3c608	0.47612023
130	0x3e111cde	0.14171168
131	0xbebf9981	-0.37421802
132	0xbf0e1de1	-0.5551434
133	0xbefb1983	-0.490429
134	0xbebae44c	-0.36502302
135	0x3f0608fa	0.5235745
136	0xbe3fc4ba	-0.18727389
137	0x3ea769fb	0.32698044
138	0xbeb7ac21	-0.3587351
139	0xbeac44e6	-0.33646315
140	0xbf022dc5	-0.5085109
141	0x3ee61626	0.44938773
142	0x3de8878a	0.11353977
143	0x3ec79e8b	0.38988146
144	0x3f093d85	0.53609496
145	0xbd52a27c	-0.05142449
146	0xbedeea07	-0.43537924
147	0x3d0de799	0.034644697
148	0x3e6ce72e	0.23135063
149	0xbdc5eb21	-0.09663988
150	0xbf01ad90	-0.5065546
151	0xbef82665	-0.48466793
152	0xbf0daa95	-0.5533841
153	0x3eebc419	0.46048048
154	0xbca468f1	-0.020069571
155	0x3da9188c	0.08256635
156	0x3e71b265	0.23603208
157	0xbed5781a	-0.41693193
158	0xbebbc463	-0.3667327
159	0xbedde872	-0.43341404
160	0xbc15f180	-0.009151816
161	0xbea1acd5	-0.31577173
162	0x3e15b5a7	0.14620076
163	0x3f036413	0.51324576
164	0x3d18bb7d	0.037288178
165	0x3f022d0d	0.5084999
166	0x3f1152b9	0.5676685
167	0x3e1f05c7	0.15529548
168	0xbeeaffa5	-0.45898166
169	0xbeb620fd	-0.35572043
170	0xbed6b8db	-0.4193791
171	0x3ef03b95	0.46920457
172	0xbdd44716	-0.10365121
173	0xbefeab55	-0.4974009
174	0x3f03fa44	0.5155375
175	0xbdf71408	-0.120643675
176	0x3ebc1e38	0.36741805
177	0xbef8b7e1	-0.48577788
178	0x3f0b5983	0.5443346
179	0x3df65a92	0.12028994
180	0x3e1a9321	0.15095188
181	0x3f0dcb88	0.5538869
182	0xbccdc7a3	-0.025119608
183	0x3e531342	0.20612815
184	0xbce5f45c	-0.028070621
185	0xbe8aedd3	-0.2713457
186	0x3ec2c83d	0.38043395
187	0xbf0c5ff2	-0.548339
188	0x3ec6897b	0.38776764
189	0xbe7b27fd	-0.24526973
190	0x3de8f8fa	0.113756135
191	0xbc9a010d	-0.01879933

encoder.cnv1Ddaily.0.bias f4 [64]
0	0xbead3ad9	-0.3383396
1	0x3ec8bfdd	0.3920888
2	0xbebf5343	-0.3736821
3	0x3ec25606	0.37956256
4	0xbeae561e	-0.34050077
5	0x3daaf33b	0.08347174
6	0x3e455d2b	0.19273822
7	0xbe8638a6	-0.26215094
8	0xbe32b1c2	-0.17450622
9	0x3f04bb50	0.51848316
10	0x3e8318c8	0.25604844
11	0x3eec3470	0.46133757
12	0x3f0f4dd1	0.55978113
13	0x3e760250	0.2402432
14	0xbccc9d4d	-0.02497735
15	0x3e845a76	0.25850266
16	0x3eb376f9	0.35051706
17	0x3e5e2263	0.21692805
18	0x3e628a32	0.2212303
19	0xbed3ce7a	-0.41368467
20	0x3dec82b0	0.11548364
21	0xbeeb9404	-0.46011364
22	0xbe6763c4	-0.22596651
23	0xbd25a639	-0.040441725
24	0x3ebc5527	0.36783716
25	0xbec1328b	-0.37733874
26	0x3ec7f0a9	0.39050797
27	0x3e679b7d	0.22617908
28	0xbf127a45	-0.5721782
29	0xbe0b69ab	-0.13614528
30	0xbf126ee8	-0.5720048
31	0xbec0355e	-0.37540716
32	0xbeac0702	-0.33599097
33	0xbedf0fa6	-0.43566626
34	0xbe920746	-0.28521174
35	0xbefcd32d	-0.49379864
36	0x3f063035	0.5241731
37	0x3e8807c7	0.26568434
38	0x3e9fb037	0.3118913
39	0xbecfb3bd	-0.40566817
40	0xbeaf4edf	-0.3423986
41	0xbd0d0497	-0.034428205
42	0xbebb603d	-0.3659686
43	0xbed2ae0a	-0.41148406
44	0xbeb1ca6a	-0.34724742
45	0xbd104372	-0.03522057
46	0x3f10914e	0.5647172
47	0x3e4b1cb6	0.19835171
48	0x3f0a2c47	0.5397381
49	0x3d11c67a	0.035589673
50	0xbebd15a5	-0.36930576
51	0x3f172d81	0.5905381
52	0x3efe560e	0.4967503
53	0xbeb1fc10	-0.3476262
54	0x3ed970ab	0.4246877
55	0xbe6683b2	-0.22511175
56	0xbd9ad940	-0.075609684
57	0x3e0bd0c2	0.13653854
58	0x3e314158	0.17310083
59	0xbea0335c	-0.31289184
60	0x3ee17346	0.4403326
61	0x3e3097c5	0.17245395
62	0xbf010d94	-0.50411344
63	0x3d88de14	0.06682983

encoder.cnv1Ddaily.2.weight f4 [5, 64, 1]
0	0x3dda81ad	0.10669265
1	0x3cb09d02	0.021559242
2	0x3d2a3e53	0.041563343
3	0xbdc7669d	-0.09736369
4	0x3d8e2c52	0.06942047
5	0xbdd06481	-0.101754196
6	0x3d74bd2d	0.059750725
7	0xbda12551	-0.07868446
8	0xbd576054	-0.0525821
9	0xbda3a264	-0.07989958
10	0xbd18220d	-0.03714185
11	0xbc328841	-0.010896743
12	0x3ddb683c	0.107132405
13	0xbdb085b3	-0.08619251
14	0xbda83ae1	-0.08214355
15	0x3c9258a2	0.017864529
16	0x3dff3c9d	0.12462733
17	0xbd1040e8	-0.03521815
18	0xbd4611b7	-0.048356738
19	0x3dac6068	0.084168255
20	0xbdb7839c	-0.08960649
21	0x3d3ec347	0.04657295
22	0xbcac272c	-0.021014772
23	0x3cbbc075	0.02291892
24	0x3d3f4c08	0.04670337
25	0x3d854802	0.06507875
26	0x3caf3caf	0.02139124
27	0x3df47a90	0.119374394
28	0x3d8e1d5a	0.06939192
29	0xbe03e0cd	-0.12878723
30	0x3c825d05	0.015913496
31	0xbe02b0b3	-0.12762718
32	0xbdb02060	-0.08599925
33	0x3b4fd78b	0.0031714167
34	0xbdfb5272	-0.122715846
35	0xbce022a8	-0.027360275
36	0x3bff16c8	0.007784698
37	0x3c8f7aab	0.017514547
38	0x3b3f293a	0.002916886
39	0xbd1a61de	-0.03769099
40	0xbd99f571	-0.07517517
41	0x3de4d3f4	0.11173239
42	0x3dcc23a3	0.09967735
43	0x3bca1d9d	0.006168081
44	0xbd0e772f	-0.03478163
45	0x3c8ae471	0.016954632
46	0xbdd42e19	-0.10360355
47	0x3ccb83db	0.024843147
48	0xbd2add49	-0.04171494
49	0xbdeced02	-0.11568643
50	0xbda2fa5c	-0.079579085
51	0x3de9fd34	0.11425248
52	0xbd8c439e	-0.068488345
53	0x3dcf6e74	0.10128489
54	0x3dc7f8f2	0.097642794
55	0xbd17efc5	-0.037093896
56	0xbd46705c	-0.048446998
57	0xbd2b9c08	-0.04189685
58	0x3d8d4ca0	0.06899381
59	0xbde27f49	-0.11059434
60	0x3de6fa10	0.112781644
61	0x3db65fab	0.08904966
62	0xbccea2af	-0.025224058
63	0x3d7ac8a5	0.061226506
64	0xbdab303a	-0.08358808
65	0x3dfa944b	0.12235316
66	0xbd7043b3	-0.058658313
67	0x3cd7cc7c	0.026342623
68	0xbd7f18fc	-0.062279686
69	0xbda8c7c0	-0.08241224
70	0x3de8dae7	0.11369877
71	0x3d29a006	0.041412376
72	0x3d3e8e28	0.04652229
73	0x3d551b00	0.052027702
74	0x3cdd4fc5	0.027015576
75	0xbd2a3313	-0.041552614
76	0x3dfe71b6	0.124240324
77	0x3dedb5c3	0.11606934
78	0xbdd0853b	-0.10181662
79	0xbd8922ca	-0.066960886
80	0xbe003f15	-0.12524064
81	0xbcde98c7	-0.02717246
82	0x3bbfc7e3	0.005852686
83	0xbdbf3c50	-0.093376756
84	0x3ce784d5	0.028261581
85	0x3cc096e7	0.023509456
86	0x3dfdf1d4	0.12399641
87	0xbdbb72e9	-0.09152777
88	0x3df420bf	0.11920308
89	0x3de30ce5	0.11086444
90	0x3c7fceb0	0.015613243
91	0x3c9bc04f	0.019012598
92	0x3d4faadc	0.050700054
93	0x3de30be5	0.11086253
94	0xbcc6200e	-0.024185207
95	0x3c9e1758	0.01929824
96	0xba003f27	-0.0004892223
97	0xbc0de1ca	-0.008659789
98	0xbdf3ba33	-0.11900749
99	0x3cb8c6e8	0.022555783
100	0x3da8e01b	0.0824587
101	0xbdf472c5	-0.11935953
102	0x3da38edb	0.07986232
103	0xbd081644	-0.03322436
104	0x3d46e52b	0.048558395
105	0xbca0dd38	-0.019636735
106	0xbdd735d4	-0.10508314
107	0xbcbf4b5c	-0.023351364
108	0xbc8bced8	-0.017066404
109	0xbd5b52b7	-0.05354568
110	0x3df81b2e	0.12114559
111	0xbc2befaf	-0.010494157
112	0xbdb1e355	-0.08685938
113	0x3d39d770	0.045371473
114	0xbcaea972	-0.021321032
115	0x3dd208fc	0.1025562
116	0xbd57aeb2	-0.052656837
117	0x3d400771	0.046882097
118	0xbdfe68c4	-0.12422326
119	0x3cd61f31	0.02613792
120	0x3db25641	0.08707858
121	0x3abdc2a9	0.0014477569
122	0x3c86b943	0.016445762
123	0x3cd31463	0.025766557
124	0xbb9f1da3	-0.004855828
125	0xbcd97b32	-0.026548002
126	0x3b020ac5	0.0019842845
127	0xbddd351a	-0.10801144
128	0xbddb4cd8	-0.10708016
129	0xbdb634ee	-0.08896814
130	0x3d360d52	0.044446297
131	0x3c95e697	0.01829843
132	0xbda17130	-0.07882917
133	0x3d925335	0.07144777
134	0xbd76fdc7	-0.060300615
135	0x3dc7dab0	0.09758508
136	0xbde0f94b	-0.10985049
137	0xbd1cf0e1	-0.038315658
138	0x3d878da9	0.066188164
139	0x3bc66816	0.0060548885
140	0x3c56d48e	0.0131122
141	0x3d714302	0.058901794
142	0xbb961801	-0.004580498
143	0x3db9912a	0.09060891
144	0xbd880d91	-0.066432126
145	0x3d9697f5	0.07353202
146	0x3dc10f36	0.094267294
147	0xbba2376d	-0.004950455
148	0x3da2f8e9	0.07957632
149	0x3cc92cf2	0.024557564
150	0xbdf10d09	-0.117700644
151	0xbc03613a	-0.008018786
152	0x3d7de77a	0.06198833
153	0xbda65217	-0.08121126
154	0xbddf473c	-0.10902259
155	0xbdbe346c	-0.092873424
156	0x3dc39050	0.0954901
157	0x3de46d1b	0.11153623
158	0xbd1cc6d1	-0.038275544
159	0xbddc2b28	-0.10750419
160	0xbd38c88b	-0.045113128
161	0x3e039817	0.12850986
162	0x3cfa7c55	0.030576864
163	0xbdfbd2b2	-0.12296046
164	0xbc2c0ce5	-0.010501121
165	0x3cdc473d	0.026889438
166	0x3c047a25	0.008085762
167	0xbdc0ef05	-0.09420589
168	0xbad8255e	-0.0016490628
169	0x3d745821	0.05965436
170	0x3c95648a	0.018236417
171	0xbd65e962	-0.056130774
172	0x3db8bd4e	0.09020482
173	0x3d968194	0.07348934
174	0xbdd631c7	-0.10458713
175	0x3e055069	0.13018955
176	0xbcdecf05	-0.027198324
177	0x38c154f0	9.218778e-05
178	0x3b74eb11	0.0037371556
179	0x3dfd5820	0.12370324
180	0x3dde2e9c	0.10848734
181	0xbd230c19	-0.03980646
182	0xbdaeac14	-0.08528915
183	0x3d3d3275	0.046190698
184	0xbdc7843c	-0.097420186
185	0xbd79bf6c	-0.06097357
186	0xbdbcfaaa	-0.09227498
187	0x3ca81147	0.020516051
188	0x3da98a52	0.08278336
189	0xbd8eebda	-0.06978579
190	0xbdb9c6f3	-0.0907115
191	0x3c20ddb5	0.009818484
192	0x3d4dc8f9	0.05024049
193	0x3da520e6	0.080629155
194	0x3dc993b2	0.09842624
195	0xbd80e531	-0.06293715
196	0x3d61edc5	0.055158395
197	0xbc15069e	-0.009095816
198	0x3ca616f2	0.020274613
199	0xbc8bc961	-0.017063798
200	0xbd241e1c	-0.040067777
201	0x3de1febe	0.11034916
202	0xbdecd9d0	-0.11564982
203	0xbd7c6f10	-0.061629355
204	0x3d273975	0.04082628
205	0x3df8fe59	0.12157888
206	0x3d0bc4c6	0.034123205
207	0xbd1ce32f	-0.038302597
208	0x3ddcb19a	0.10776062
209	0x3daac226	0.08337812
210	0x3d4941bf	0.049134966
211	0xbdb9cea1	-0.090726145
212	0xbdf3b585	-0.118998565
213	0x3cd9edb8	0.026602611
214	0xbc464d0a	-0.0121033285
215	0xbdbb9baa	-0.0916055
216	0x3d1510c5	0.036392946
217	0xbb5bb32c	-0.0033523543
218	0x3d90673f	0.07050943
219	0x3d1eb8fb	0.03875063
220	0x3ddececc	0.10879287
221	0x3dda89e9	0.106708355
222	0x3d3e887a	0.046516873
223	0x3d183a91	0.03716523
224	0x3de55102	0.11197092
225	0x3d970f22	0.07375933
226	0x3d4770ab	0.048691433
227	0x3b776100	0.0037747025
228	0xbddef909	-0.108873434
229	0x3d45ef2a	0.048323788
230	0x3bba0235	0.0056765326
231	0x3dbb163b	0.091350995
232	0xbd8d3d5d	-0.0689647
233	0x3daa0d85	0.0830336
234	0xbd30f4d9	-0.043202255
235	0x3df35129	0.118807144
236	0x3df008b4	0.1172041
237	0xbc7686cf	-0.015046789
238	0x3d911a50	0.07085097
239	0x3dd47500	0.103738785
240	0xbd965a47	-0.07341438
241	0x3d81ab61	0.06331516
242	0xbd35d784	-0.044394985
243	0xbc57869f	-0.013154655
244	0xbd2e7161	-0.042588595
245	0xbc9887d2	-0.018619452
246	0x3d942c9f	0.07235073
247	0xbdcb5a29	-0.09929306
248	0xbce800c7	-0.028320683
249	0x3dd96302	0.10614587
250	0xbdddd56d	-0.10831723
251	0xbad567e9	-0.0016281578
252	0xbd925c5a	-0.07146521
253	0xbcc0a03e	-0.02351391
254	0x3d8fadaf	0.070155494
255	0x3d0e0e6f	0.034681734

encoder.cnv1Ddaily.2.bias f4 [5]
0	0x3e070894	0.13186866
1	0x3d80057e	0.062510476
2	0xbcbd8760	-0.02313584
3	0x3b1e94c7	0.0024197565
4	0xbda97209	-0.082737036

encoder.cnv1Dweekly.0.weight f4 [64, 3, 5]
0	0xbe431d7d	-0.19054218
1	0xbdcafa67	-0.09911042
2	0x3e3b9471	0.18318345
3	0xbda4e62a	-0.08051713
4	0xbe6fff70	-0.23437285
5	0xbe1a959d	-0.15096135
6	0xbd4cb325	-0.049975533
7	0xbe259a14	-0.16172057
8	0xbd042907	-0.03226569
9	0xbd0dd427	-0.034626152
10	0x3e2d8bca	0.16947857
11	0xbb9e1726	-0.004824537
12	0xbe229bd9	-0.15879764
13	0xbde2dfbb	-0.110778295
14	0xbe737089	-0.23773398
15	0xbe4c75d0	-0.19966817
16	0x3e3f7030	0.1869514
17	0xbe27dafb	-0.16392128
18	0x3d189713	0.03725345
19	0x3e2fccb1	0.17167927
20	0xbe7502eb	-0.23926894
21	0xbe0f59af	-0.13999055
22	0x3c1a1f15	0.009406825
23	0xbbe3b814	-0.006949434
24	0xbd0c7822	-0.034294255
25	0x3def90a5	0.11697511
26	0xbd5ea080	-0.054352283
27	0xbe26ea2d	-0.16300268
28	0xbcbd59a7	-0.023114039
29	0x3e5d212a	0.21594682
30	0x3e71fa34	0.23630601
31	0xbd3c1494	-0.045918062
32	0xbcb6e399	-0.022325324
33	0xbd4658c6	-0.048424505
34	0xbe2061de	-0.15662333
35	0xbcf32ea8	-0.029685333
36	0xbe692e24	-0.22771508
37	0x3e104fad	0.14092894
38	0x3e7343c8	0.23756325
39	0xbcfde3c7	-0.030992402
40	0xbe22a99b	-0.15885012
41	0x3e3ebf83	0.18627743
42	0xbdf3ac15	-0.118980564
43	0x3e45cc00	0.19316101
44	0x3d691a08	0.05690959
45	0x3dd14796	0.10218732
46	0x3e53f284	0.20697981
47	0x3e4a8daa	0.19780603
48	0xbe3bf916	-0.18356737
49	0x3e017548	0.12642395
50	0xbde16e67	-0.11007386
51	0x3e2d44bf	0.16920756
52	0xbe75cf02	-0.24004748
53	0xbe40c673	-0.18825702
54	0x3dd35f6e	0.10320936
55	0xbe05af30	-0.1305511
56	0xbccb832e	-0.024842825
57	0x3db057ee	0.08610521
58	0xbe061e13	-0.1309741
59	0xbdd9e16b	-0.10638698
60	0x3c29d6bf	0.010366141
61	0x3db170a3	0.08664062
62	0x3e6556b6	0.22396359
63	0xbe355ed9	-0.17711963
64	0xbe3508ff	-0.17679213
65	0x3e340163	0.17578654
66	0x3dfced79	0.12349982
67	0xbe297a8a	-0.16550651
68	0xbe382428	-0.17982543
69	0xbc8da475	-0.017290333
70	0xbe29a273	-0.16565876
71	0x3ba27541	0.0049578254
72	0xbe0eaa6a	-0.13932195
73	0x3b8fc72e	0.0043877577
74	0xbd613069	-0.05497781
75	0xbe7d35dd	-0.24727578
76	0xbe4b8ec5	-0.19878681
77	0x3e1da332	0.15394285
78	0xbe63c542	-0.22243217
79	0x3d657e3f	0.0560286
80	0xbe2fa821	-0.1715398
81	0x3cb4d294	0.022073068
82	0xbdc8c886	-0.09803872
83	0xbce9834f	-0.028504996
84	0xbe1fbec5	-0.15600117
85	0xbc3988ab	-0.011324088
86	0x3c79b94e	0.015241934
87	0xbd0c3d28	-0.03423801
88	0xbe00cc07	-0.1257783
89	0x3e803aba	0.25044805
90	0x3e376c0a	0.17912307
91	0xbe1fe06c	-0.15612954
92	0xbd446524	-0.047948018
93	0xbe3891c4	-0.18024355
94	0x3d41b8b4	0.047295287
95	0x3d3dfc44	0.046383157
96	0x3c1056e3	0.008809778
97	0xbd2e4fc9	-0.042556558
98	0xbd47a2a2	-0.048739083
99	0xbd984b78	-0.074362695
100	0xbe431048	-0.1904918
101	0xbd110f9c	-0.035415277
102	0x3e5d3056	0.2160047
103	0xbe778e63	-0.2417541
104	0x3a70470d	0.0009165861
105	0xbe528848	-0.205598
106	0xbe553be9	-0.20823635
107	0x3d415b11	0.04720599
108	0x3e2d51e1	0.16925766
109	0x3e4c7525	0.19966562
110	0xbcd17757	-0.025569601
111	0x3d984167	0.074343495
112	0x3e5cedb3	0.2157505
113	0x3db810dc	0.08987591
114	0xbd44e0af	-0.048065837
115	0xbd8e4091	-0.06945909
116	0xbe425389	-0.18977179
117	0xbdc348a9	-0.09535343
118	0xbe60c307	-0.21949397
119	0xbe0bba25	-0.13645227
120	0xbe7d3871	-0.24728562
121	0x3da62a3a	0.08113523
122	0x3da59b0b	0.08086213
123	0x3d83d2ed	0.06436715
124	0x3d1b2f13	0.03788669
125	0x3e449d6c	0.19200677
126	0x3e34ed5b	0.17668669
127	0x3e2d6c23	0.16935782
128	0x3de4c894	0.1117107
129	0x3de1a4fe	0.11017798
130	0xbd78d41b	-0.060749155
131	0xbe72dd18	-0.23717153
132	0x3e293f8a	0.16528144
133	0x3d9d25bc	0.07673213
134	0xbe30e8a2	-0.17276242
135	0x3e37b9ff	0.17942046
136	0xbe5e2293	-0.21692877
137	0xbe0c94e5	-0.13728674
138	0xbe75036f	-0.23927091
139	0xbdc45758	-0.09586972
140	0x3e7d019c	0.24707645
141	0xbc103268	-0.00880108
142	0x3e0115fd	0.12606044
143	0xbe323156	-0.17401633
144	0xbdd6b0f7	-0.10482972
145	0xba6a4f2b	-0.00089381885
146	0xbe0e31c8	-0.13886178
147	0xbcdb3eb1	-0.026763292
148	0x3d5d3b5e	0.054011695
149	0xbd94eab7	-0.07271331
150	0x3e8143da	0.2524708
151	0xbe142978	-0.14468944
152	0xbe47255b	-0.19447844
153	0x3e49a488	0.1969167
154	0xbe2d4970	-0.16922545
155	0x3e7bbdef	0.24584173
156	0x3be56588	0.007000629
157	0x3e82b80b	0.2553104
158	0xbe37382a	-0.17892519
159	0xbe1709e0	-0.14749861
160	0x3e0648ba	0.1311368
161	0x3e02c8fc	0.12771982
162	0xbdfd0ea4	-0.12356308
163	0x3e56b8d0	0.20968938
164	0x3e3a03a7	0.18165456
165	0x3de4471c	0.111463755
166	0x3e765973	0.2405756
167	0x3e67e4d2	0.22645882
168	0xbc897bb1	-0.016782613
169	0x3e17f1fb	0.14838402
170	0xbd0b97ce	-0.03408032
171	0x3e6efd01	0.23338701
172	0x3e46943b	0.19392483
173	0x3d93fdf5	0.07226173
174	0xbdc2f4f1	-0.09519375
175	0x3d7e6784	0.06211044
176	0x3dd1a860	0.10237193
177	0x3e25c933	0.16190033
178	0xbe58ed24	-0.21184212
179	0xbd72715a	-0.05919013
180	0xbe692057	-0.22766243
181	0xbdc0c452	-0.09412445
182	0xbe1ed4ab	-0.15510814
183	0xbe805872	-0.25067478
184	0x3d9b6073	0.075867556
185	0xbe510fbc	-0.20416158
186	0x3e7804da	0.242206
187	0x3ddc551a	0.10758419
188	0xbe35077c	-0.17678636
189	0xbe59ff19	-0.21288718
190	0x3e0f78a5	0.14010866
191	0x3d7aaa45	0.061197538
192	0xbe891791	-0.26775792
193	0x3e0ba859	0.13638438
194	0x3d8ed198	0.069735706
195	0x3d8d44ad	0.068978645
196	0x3e19fdc9	0.15038218
197	0x3db84901	0.089982994
198	0xbdcdcc60	-0.10048747
199	0x3e762583	0.24037747
200	0x3e845366	0.25844878
201	0xbe6c683f	-0.23086642
202	0x3c0a7a40	0.008451998
203	0x3e3a3564	0.1818443
204	0xbe2dee00	-0.16985321
205	0x3ce5d003	0.02805329
206	0xbe3ee21b	-0.1864094
207	0x3d6ea3c5	0.05826165
208	0x3d799839	0.060936186
209	0xbe133c0c	-0.14378375
210	0xbe6d253d	-0.23158737
211	0xbc295b64	-0.010336731
212	0xbde93d8e	-0.11388694
213	0x3d4e5f13	0.05038364
214	0x3e2098d4	0.156833
215	0x3d518145	0.05114867
216	0x3e2c6bd6	0.16838011
217	0x3e0e1292	0.13874272
218	0x3bb97d66	0.0056607006
219	0xbe2a32cd	-0.16620941
220	0xbc9d2702	-0.01918364
221	0x3de88f1a	0.113554195
222	0x3e0ea555	0.13930257
223	0x3dde2557	0.10846966
224	0xbd9bd571	-0.0760907
225	0xbe251baa	-0.16123834
226	0x3df3565d	0.11881707
227	0xbe6b3ca0	-0.22972345
228	0xbd8195ab	-0.06327375
229	0xbcaa5fb8	-0.020797595
230	0x3c908954	0.017643608
231	0x3e282016	0.1641849
232	0x3e001510	0.12508035
233	0xbe052ea4	-0.13006073
234	0x3e16f5a4	0.14742142
235	0x3e29dd41	0.16588308
236	0xbe44ba0f	-0.192116
237	0x3e70be0a	0.23509994
238	0xbddfad68	-0.109217465
239	0x3e195f9a	0.14977875
240	0x3d65471a	0.05597601
241	0x3e59b56e	0.21260616
242	0xbe0c32e6	-0.13691291
243	0xbde7f475	-0.11325923
244	0xbe15b9ce	-0.1462166
245	0x3c601db7	0.01367896
246	0x3d65fc86	0.05614903
247	0x3e12412b	0.14282672
248	0xbda8317b	-0.08212563
249	0x3e7281b1	0.23682286
250	0x3e477b9e	0.1948075
251	0xbe3ce28c	-0.18445796
252	0x3e31774c	0.17330664
253	0x3d9daaf9	0.07698626
254	0xbe021ad8	-0.12705553
255	0x3df322f2	0.118719

encoder.cnv1Dweekly.0.bias f4 [64]
0	0x3c0f1cab	0.008734862
1	0x3e28649a	0.16444626
2	0x3c1c43a1	0.009537608
3	0xbdf1f8c0	-0.118150234
4	0x3c44e276	0.012016883
5	0x3cb1ec2b	0.021719059
6	0x3e424b76	0.18974099
7	0x3d1ce14c	0.038300797
8	0x3e022917	0.12710987
9	0xbe2b9724	-0.16756874
10	0xbdca759e	-0.09885715
11	0xbe27dccc	-0.16392821
12	0x3e36fb7b	0.1786937
13	0x3e5f0110	0.21777749
14	0x3dbbde3c	0.09173247
15	0xbe4ab182	-0.19794276
16	0xbd978f22	-0.07400347
17	0xbe741af6	-0.2383841
18	0x3e581166	0.21100387
19	0xbe031dc2	-0.1280432
20	0x3d8e757c	0.06956002
21	0xbe59410c	-0.2121622
22	0xbe2cfe09	-0.16893782
23	0xbe4f0bb1	-0.20219304
24	0xbe6ff059	-0.23431529
25	0xbdf5ad4d	-0.11995945
26	0x3e56a5c9	0.2096168
27	0xbd80c0b0	-0.06286752
28	0xbdf23e8a	-0.11828335
29	0xbe13cd07	-0.1443368
30	0xbe4c2dc9	-0.1993934
31	0x3e269e85	0.16271408
32	0x3dd0f61a	0.1020319
33	0xbe45db72	-0.19321993
34	0x3e03abdf	0.12858532
35	0xbe7a46f3	-0.24441127
36	0xbdc95be2	-0.098319784
37	0xbcc227f0	-0.023700684
38	0xbe7a42f0	-0.24439597
39	0xbcbc9d85	-0.02302433
40	0x3dc4ab74	0.096030146
41	0xbd33a29b	-0.043856245
42	0x3dfbbf7c	0.12292382
43	0xbe2dc825	-0.1697088
44	0xbe4bd1a4	-0.1990419
45	0xbd181238	-0.03712675
46	0x3e6940ef	0.22778676
47	0x3e6a8be4	0.22904927
48	0xbd39886d	-0.04529612
49	0x3d964bcc	0.07338676
50	0x3d985fdd	0.074401595
51	0xbe56abef	-0.20964025
52	0x3df59df8	0.11993021
53	0x3df59ee5	0.11993197
54	0xbdfa7d4c	-0.1223093
55	0xbc26c078	-0.010177724
56	0xbe0ca09d	-0.13733144
57	0x3e5a1126	0.21295604
58	0xbdbb71ba	-0.09152551
59	0x3e2b9ec2	0.1675978
60	0xbd750e69	-0.059828196
61	0xbe140920	-0.14456606
62	0x3cdaab5a	0.026693035
63	0x3d40ff60	0.047118545

encoder.cnv1Dweekly.2.weight f4 [5, 64, 5]
0	0xbd59501c	-0.053054914
1	0x3c9624a8	0.018328026
2	0xbd4fb6dc	-0.050711498
3	0xbd087b17	-0.033320513
4	0x3c9178f6	0.017757874
5	0xbd5b8846	-0.053596757
6	0x3d287bf8	0.04113385
7	0x3d077974	0.03307481
8	0x3d085115	0.03328045
9	0x3d304717	0.043036547
10	0xbd6b88ff	-0.057503697
11	0xbd5665bc	-0.052343115
12	0x3d23f026	0.040023945
13	0x3cac586a	0.021038253
14	0xbd67b5c4	-0.05656983
15	0x3b87e3d8	0.004147034
16	0x3b0dd8b9	0.002164407
17	0x3cd1c7a0	0.025607884
18	0x3c809d06	0.015699875
19	0xbd00ff90	-0.031493723
20	0x3c84c3fc	0.016206734
21	0xbd0c9d53	-0.034329724
22	0xb85f129f	-5.3184685e-05
23	0x3c57a594	0.0131620355
24	0xbd84482d	-0.06459079
25	0xbb5023da	-0.003175965
26	0xbd6eb986	-0.058282398
27	0xbd006c82	-0.03135348
28	0xbc234c38	-0.009966902
29	0x3d046c5b	0.0323299
30	0xbd5502ec	-0.05200474
31	0x3cf8b7e0	0.030361116
32	0xbc50c134	-0.012741376
33	0xbd47b3f3	-0.048755597
34	0xbc80a724	-0.015704699
35	0xbd345511	-0.04402644
36	0x3d01a46e	0.031650953
37	0xbbb8f568	-0.005644489
38	0xbcc2f4cc	-0.023798369
39	0x3cc69290	0.024239808
40	0xbc6961b6	-0.0142444875
41	0x3cd4012d	0.025879467
42	0x3d5f9036	0.05458089
43	0xbd43510f	-0.047684725
44	0xbd5b47ff	-0.053535458
45	0xbd5f61d5	-0.05453666
46	0xbd04f0d4	-0.032456234
47	0x3b09762f	0.0020974984
48	0xbcaef051	-0.021354826
49	0xbd0b2c90	-0.033978045
50	0xbd6ccdc1	-0.05781341
51	0x3d0aba66	0.03386917
52	0x3d129740	0.035788774
53	0x3aedaa07	0.0018132337
54	0x3d3da211	0.046297137
55	0x3c6d8702	0.01449752
56	0x3ca5dd0c	0.020247005
57	0x3d0d34f6	0.034474336
58	0x3c9be029	0.019027786
59	0xbd022c5e	-0.031780593
60	0xbd4f94a2	-0.050678857
61	0xbc2254e0	-0.009907931
62	0xbd3359ef	-0.04378694
63	0x3ca97fd9	0.020690845
64	0x3cffd2c4	0.03122843
65	0x3d575469	0.052570734
66	0x3b9601c9	0.0045778495
67	0xbcc68d77	-0.024237378
68	0x3b9aba02	0.004721881
69	0xbb3581ef	-0.0027695855
70	0x3c0ea9c4	0.0087074675
71	0xbd1503fa	-0.036380745
72	0xbca600b0	-0.020264
73	0xbd15f24b	-0.03660802
74	0xbd0c7a0d	-0.034296084
75	0x39d2224d	0.00040079877
76	0xbd2844d6	-0.041081272
77	0x3ce7b713	0.028285539
78	0xbc915726	-0.01774175
79	0xbcd026bd	-0.025409097
80	0x3d321be6	0.043483637
81	0xbc5b061a	-0.013368154
82	0xbd14494b	-0.03620271
83	0x3c25bd18	0.010115884
84	0x3d11b402	0.03557206
85	0xbbbbde2c	-0.005733272
86	0xbc80099d	-0.015629584
87	0x3befb164	0.007314848
88	0x3d03b927	0.032158997
89	0xbc290a52	-0.010317402
90	0x3c285638	0.010274462
91	0x3c926599	0.017870711
92	0xbd2d387b	-0.042290192
93	0x3c8f9766	0.017528247
94	0x3d19dba8	0.037562996
95	0xbc6d5368	-0.014485218
96	0x3cc9fb05	0.024655828
97	0x3d1195cf	0.03554326
98	0xbcb7f410	-0.022455245
99	0x3d2307d2	0.03980238
100	0xbcc344a6	-0.023836445
101	0xbb939a18	-0.0045044534
102	0xbc210df7	-0.00982999
103	0x3d0500d6	0.0324715
104	0x3ce635d1	0.028101834
105	0x3c249873	0.010046112
106	0xbc27357c	-0.010205623
107	0xbd3482c8	-0.044070035
108	0x3ccbaea0	0.024863541
109	0x3c347f83	0.011016729
110	0xbd20e422	-0.039280064
111	0x3c9e0942	0.019291524
112	0xbd3cc5d7	-0.046087112
113	0xba344979	-0.00068774034
114	0x3d5977c9	0.05309275
115	0xbd0df0ae	-0.03465336
116	0x3c6217fb	0.013799663
117	0x3c42daeb	0.011893014
118	0xbcd3679d	-0.025806243
119	0xbd75904a	-0.059952058
120	0xbcb8258a	-0.022478838
121	0x3d20ea8b	0.039286178
122	0xbd0c5ebf	-0.034270044
123	0x3d075b69	0.03304616
124	0xbcee2d70	-0.0290744
125	0xbd0ba09b	-0.034088712
126	0x3bd783f3	0.006577009
127	0x3bf2dc88	0.0074115433
128	0xbc251fb8	-0.010078363
129	0x3cb3c421	0.021944107
130	0x3ce4813d	0.027893657
131	0xbd6a5ec1	-0.05721927
132	0x3c37beb2	0.011214899
133	0xbbe83407	-0.0070862803
134	0xbd4bd978	-0.04976794
135	0xbd624880	-0.055244923
136	0xbd1310f5	-0.035904843
137	0xbc479929	-0.012182512
138	0xbc9c0bf2	-0.019048665
139	0x3d3796b1	0.044821445
140	0x3d10e7ec	0.035377428
141	0xba6672e0	-0.00087909214
142	0x3c9b4b25	0.01895673
143	0x3d18254d	0.037144948
144	0xbd020e7b	-0.03175209
145	0x3d3abe16	0.045591436
146	0xbcd675d5	-0.026179234
147	0x3cc98f65	0.024604509
148	0xbc4ea760	-0.0126131475
149	0x3d08ae2f	0.03336924
150	0x3cfdd31f	0.03098446
151	0x3c820ec3	0.01587618
152	0xbc45bc22	-0.01206878
153	0x3d4d748b	0.050159972
154	0xbc9674da	-0.018366266
155	0x3c20fdb8	0.009826116
156	0xbd22e415	-0.039768297
157	0x3d1f6764	0.03891696
158	0xbd3496c0	-0.04408908
159	0x3d2750c5	0.040848512
160	0x3d4f6e78	0.05064246
161	0x3d22b9e8	0.039728075
162	0x3d1ea1bd	0.038728464
163	0x3d239684	0.039938465
164	0xbc37e880	-0.011224866
165	0xbc6c4cbd	-0.014422593
166	0xbcc2fbac	-0.023801647
167	0xbbf31c44	-0.007419141
168	0x3cd9a97a	0.02657007
169	0xbd216384	-0.039401546
170	0xbd1992dc	-0.03749357
171	0x3c7eb814	0.015546817
172	0x39635584	0.00021680264
173	0x3cc5f6af	0.02416548
174	0x3c60eb8f	0.013728037
175	0xbcf4b8c1	-0.029873254
176	0xbd1934ad	-0.03740375
177	0xbcea34ef	-0.028589694
178	0x3c6baa7d	0.014383909
179	0xbc11915d	-0.008884755
180	0xbd0394de	-0.032124393
181	0xbd19f815	-0.037590105
182	0xbb413f60	-0.0029487237
183	0x3d41b46a	0.047291197
184	0xbcf55a5a	-0.02995031
185	0xbc99d2d9	-0.018777298
186	0x3cefd03c	0.029274099
187	0x3c401526	0.011723792
188	0x3ce0a8d2	0.02742425
189	0xbd12b8f5	-0.03582092
190	0xbd7c8a33	-0.061655235
191	0xbd002b0c	-0.031291053
192	0x3cd1bd9e	0.025603112
193	0xbd21bf83	-0.03948928
194	0x3d1e0772	0.03858132
195	0xbd477452	-0.048694916
196	0xbd5401b3	-0.051759433
197	0x3bf69692	0.0075252736
198	0xbd3b1ca9	-0.04568163
199	0xbd659ee3	-0.05605973
200	0x3ca18eee	0.019721474
201	0x3d523260	0.051317573
202	0xbc236a74	-0.009974111
203	0x3ca2dc05	0.019880304
204	0x3c6cd761	0.014455647
205	0xbd269c18	-0.040676206
206	0xbb81de77	-0.0039632875
207	0xbd4c21e0	-0.049836993
208	0xbd7c00b4	-0.061524108
209	0xbd33261a	-0.04373751
210	0x3d075545	0.033040304
211	0x3bbeb1a2	0.0058195153
212	0x3a233667	0.0006226063
213	0xbc7fa5a7	-0.015603459
214	0x3d3a78cf	0.04552537
215	0x3d27f4c1	0.0410049
216	0xbd81dd92	-0.06341089
217	0xbcd9c7c9	-0.026584523
218	0x3c4a5e7d	0.012351629
219	0xbd811ed3	-0.063047074
220	0xbd852a01	-0.06502152
221	0x3ce100de	0.027466234
222	0xbcc94a95	-0.024571696
223	0xbd45d9b6	-0.04830333
224	0xbd3ea302	-0.046542175
225	0xbcb2c4f3	-0.021822428
226	0xbd304939	-0.04303858
227	0x3d0baa2e	0.034097843
228	0xbd799b4a	-0.06093911
229	0x3d33d97a	0.043908574
230	0xbcbad6fc	-0.02280759
231	0x3c9647e4	0.018344827
232	0x3c9836ac	0.018580757
233	0x3b9196c5	0.004443022
234	0x3c624343	0.013809982
235	0x3b588535	0.0033038382
236	0xbccf1028	-0.025276259
237	0x3d253480	0.04033327
238	0xbc1f26f4	-0.009713877
239	0xbd4b7c8c	-0.049679324
240	0x3d0c156f	0.03420013
241	0x3cd12fc9	0.025535481
242	0x3d022257	0.03177103
243	0xbcda38e3	-0.026638454
244	0xbd6ca529	-0.057774696
245	0x3cc44df2	0.023962948
246	0xbd50d8d7	-0.050988045
247	0x3cc06f0e	0.023490455
248	0xbc5007c7	-0.012697167
249	0xbcf9605b	-0.030441454
250	0x3d3a1479	0.04542968
251	0xbd3d0e23	-0.04615606
252	0x3d605171	0.05476517
253	0xbd495b47	-0.049159314
254	0xbd4374a7	-0.04771867
255	0x3c3e4438	0.011612944

encoder.cnv1Dweekly.2.bias f4 [5]
0	0x3cce9a45	0.025220046
1	0xbd37055c	-0.044682845
2	0x39d4dd01	0.00040600452
3	0xbc842750	-0.016132027
4	0xbd3a3147	-0.04545715

encoder.cnv1Dmonthly.0.weight f4 [64, 3, 11]
0	0xbd194cbe	-0.037426703
1	0xbe03b319	-0.12861289
2	0xbd0164a3	-0.031590115
3	0xbd4db4fc	-0.05022143
4	0xbe192a9c	-0.1495766
5	0xbdbee2c6	-0.09320597
6	0xbdb20efd	-0.08694265
7	0xbdceda3f	-0.10100221
8	0xbdef8b26	-0.11696462
9	0x3cd58f70	0.026069373
10	0xbe200263	-0.1562591
11	0x3db07076	0.086152
12	0xbd9fd302	-0.078039184
13	0xbca288a0	-0.019840539
14	0xbbc080c2	-0.005874724
15	0xbe058661	-0.13039543
16	0x3e33b352	0.17548874
17	0xbd0717f8	-0.032981843
18	0x3dbedbd7	0.09319275
19	0x3d0d1485	0.034443397
20	0x3de2854e	0.11060582
21	0x3da37f7b	0.07983299
22	0xbe231e9b	-0.15929644
23	0xbd8a2d5f	-0.06746935
24	0xbd4b7ab8	-0.04967758
25	0x3d847dcf	0.064693086
26	0x3d936bb6	0.071982786
27	0x3daa63df	0.0831983
28	0xbabc4da9	-0.0014366406
29	0xbd6a2066	-0.057159804
30	0xbdb76cd0	-0.08956301
31	0xbd2717df	-0.04079425
32	0xbd9e69ab	-0.07734998
33	0xbdec81d6	-0.11548202
34	0xbe0aaed2	-0.13543251
35	0x3df57d14	0.119867474
36	0xba86b773	-0.0010278061
37	0x3e2d52e8	0.16926157
38	0x3de44505	0.11145977
39	0xbdb2e629	-0.08735306
40	0xbde50033	-0.111816786
41	0xbcbdd91c	-0.023174815
42	0x3e220668	0.15822756
43	0x3da2dd85	0.07952408
44	0xbe2eb440	-0.17060947
45	0xbd4c9ef4	-0.049956277
46	0x3d985cd3	0.0743958
47	0xbdaf71ad	-0.08566604
48	0xbdbb4d94	-0.09145656
49	0x3d787420	0.06065762
50	0xbc834d7c	-0.016028158
51	0xbe28395a	-0.16428128
52	0xbde1a70f	-0.11018192
53	0xbe14e940	-0.14542103
54	0xbda3ee00	-0.08004379
55	0x3c57c68d	0.013169897
56	0x3e074532	0.1320999
57	0x3d8e6c21	0.06954218
58	0x3d52e7f8	0.051490754
59	0x3d5f6dff	0.05454826
60	0xbd49e176	-0.049287282
61	0xbdcf4303	-0.10120203
62	0xbd839e03	-0.06426623
63	0x3e0e0ad6	0.13871321
64	0x3de65da0	0.11248326
65	0x3df4ea92	0.11958803
66	0x3da698cb	0.08134612
67	0xbe3182d1	-0.17335059
68	0x3dd2648a	0.102730826
69	0x3d5809d5	0.05274375
70	0x3e2a9680	0.16658974
71	0xbdcd1776	-0.100142404
72	0xbe09d60b	-0.13460557
73	0xbd95c64c	-0.07313213
74	0xba84b53e	-0.0010124815
75	0x3d4f39e5	0.050592322
76	0x3d866939	0.065630384
77	0x3e29fdd2	0.16600731
78	0xbd017de7	-0.03161421
79	0x3d8f9adb	0.07011958
80	0x3c930027	0.017944409
81	0x3e28fc33	0.16502456
82	0x39a7187f	0.00031870973
83	0x3b9c0970	0.004761867
84	0xbd833f53	-0.064085625
85	0x3e25d666	0.16195068
86	0xbc032d77	-0.008006445
87	0xbd354e21	-0.044263963
88	0x3e168cef	0.147022
89	0xbb2b831f	-0.0026170684
90	0x3dbb6985	0.09150986
91	0x3e01ea15	0.12686951
92	0xbdc2dc2e	-0.09514652
93	0xbb078661	-0.0020679461
94	0x3ca7a46f	0.02046415
95	0xbdbc6341	-0.09198619
96	0x3dbcfa19	0.0922739
97	0x3e0cb742	0.13741782
98	0xbe0039d7	-0.12522064
99	0x3e160cfb	0.14653389
100	0x3aa427d2	0.0012524074
101	0xbe22c6f4	-0.15896207
102	0xbd88d701	-0.06681634
103	0xbdffd500	-0.124917984
104	0x3dc2e60f	0.095165364
105	0xbcdb414c	-0.026764534
106	0xbc15185e	-0.009100048
107	0xbe17bb0f	-0.14817451
108	0xbe29a198	-0.1656555
109	0x3e0845cf	0.1330788
110	0x3dea1d9b	0.11431428
111	0xbe0d970c	-0.13827151
112	0x3d68dd75	0.056851823
113	0xbe1c45ff	-0.15261076
114	0xbd19831f	-0.037478562
115	0x3d644d5b	0.055737834
116	0xbd043906	-0.032280944
117	0xbd322145	-0.04348876
118	0x3c69f1e3	0.014278862
119	0x3d6c6ddc	0.057721958
120	0x3d5a0048	0.053222924
121	0xbdaaf8ad	-0.083482124
122	0x3d3fb952	0.046807595
123	0xbd937014	-0.071991116
124	0x3e08baa9	0.13352455
125	0x3b6c9164	0.0036097402
126	0xb9d85cad	-0.0004126778
127	0x3c765fa7	0.015037454
128	0xbe2b98a1	-0.16757442
129	0xbdb67d61	-0.08910633
130	0xbd1271bd	-0.035753
131	0xbcc40409	-0.023927705
132	0xbbcc6a2f	-0.006238244
133	0x3da025c2	0.07819702
134	0x3dc796b5	0.09745542
135	0xbc0861f3	-0.008324134
136	0x3c4b0956	0.012392363
137	0xbe219d5e	-0.15782687
138	0xbd4d04c1	-0.05005336
139	0x3e0eb596	0.13936457
140	0x3da9c465	0.082894124
141	0x3d07a400	0.033115387
142	0x3e237f08	0.15966427
143	0x3e2efef2	0.17089441
144	0xbcfa8ee3	-0.030585712
145	0x3dde1f3c	0.10845801
146	0xbd87f715	-0.06638924
147	0xbd47e3a4	-0.04880108
148	0x3d83ea85	0.064412154
149	0xbe067ea9	-0.13134255
150	0xbe199ca4	-0.1500116
151	0xbe0ef161	-0.13959266
152	0xbdb79144	-0.08963254
153	0x3de532b2	0.1119131
154	0xbc633c2f	-0.013869329
155	0xbe25fb54	-0.16209155
156	0xbe17c130	-0.14819789
157	0xbdb2604e	-0.08709775
158	0xbcbabb45	-0.022794375
159	0x3cbcec2f	0.02306184
160	0xbe2ce42a	-0.16883913
161	0xbe1f572f	-0.15560602
162	0x3e242968	0.1603142
163	0x3da71224	0.08157757
164	0x3d045aca	0.032313146
165	0xbdd6742f	-0.10471379
166	0xbe18f4fb	-0.14937203
167	0xbda940a1	-0.0826428
168	0x3d2fd165	0.042924304
169	0x3d94069e	0.07227825
170	0xbe1c1baa	-0.15244928
171	0xbe057e69	-0.13036503
172	0xbd8cd125	-0.06875829
173	0x3e021b1c	0.12705654
174	0x3e148370	0.14503264
175	0x3cd0fe88	0.025511995
176	0x3dc36c46	0.09542136
177	0x3da7ca23	0.081928514
178	0xbdce1165	-0.100619115
179	0x3cd68781	0.02618766
180	0xbe2e9014	-0.17047149
181	0xbe28a3ab	-0.16468684
182	0xbdb5a2be	-0.08868931
183	0xbd1b2fd0	-0.037887394
184	0x3de0e0d2	0.10980381
185	0x3d123a4d	0.03570013
186	0x3e0b0db2	0.13579443
187	0xbd180fff	-0.03712463
188	0x3dae5cbe	0.08513783
189	0x3e035cd0	0.12828374
190	0x3dc1f1a6	0.09469919
191	0xbdb5d6f9	-0.088788934
192	0xbd972697	-0.07380407
193	0xbdd4af47	-0.10384994
194	0x3d8c2314	0.06842628
195	0xbda06163	-0.07831075
196	0xbc1baf3f	-0.009502231
197	0x3e21cd57	0.15800987
198	0xbdcac149	-0.099001475
199	0xbd0fd460	-0.035114646
200	0xbddba859	-0.10725469
201	0xbcc7d542	-0.024393681
202	0x3d1b39f2	0.037897058
203	0x3ceb3df0	0.028716058
204	0xbe1aa8a8	-0.151034
205	0x3e0715ca	0.13191906
206	0xbe0a955c	-0.13533539
207	0x3c3824f2	0.011239277
208	0xbda1588b	-0.07878216
209	0xbb96b24b	-0.004598891
210	0x3cb38f22	0.021918837
211	0x3da09997	0.07841795
212	0x3e0c7290	0.13715577
213	0xbdd37386	-0.10324769
214	0xbdad4b50	-0.0846163
215	0x3d70badb	0.05877195
216	0xbd6f3bfd	-0.05840682
217	0xbbe4e295	-0.0069850185
218	0x3d003ba9	0.031306896
219	0xbdade725	-0.08491353
220	0x3c8230aa	0.015892345
221	0x3e26043b	0.16212551
222	0xbdd89b93	-0.105765484
223	0xbd807a21	-0.06273294
224	0xbe0fed54	-0.14055377
225	0x3d50d073	0.050980043
226	0xbdd07820	-0.10179162
227	0x3cfe7f96	0.031066697
228	0x3e2f06cc	0.17092437
229	0xbdbdf926	-0.09276037
230	0xbd2001a6	-0.039064072
231	0x3e094bbc	0.13407797
232	0xbdf3b367	-0.11899453
233	0x3d22c99a	0.039743043
234	0x3dcdf1f5	0.10055915
235	0x3c634a3b	0.013872678
236	0xbe12e3d8	-0.14344728
237	0xbdc89bf0	-0.09795368
238	0x3b5ad104	0.0033388743
239	0xbd809f73	-0.062804125
240	0xbd96beb3	-0.07360592
241	0xbc0b979f	-0.008520036
242	0xbcbd1878	-0.023082957
243	0x3db10784	0.086440116
244	0x3d61c2f6	0.05511757
245	0x3e1f9d0a	0.1558725
246	0xbe2d916f	-0.1695001
247	0xbd2b662d	-0.04184549
248	0x3c8273c3	0.01592434
249	0xbd75fb9c	-0.060054407
250	0x3dca504c	0.09878597
251	0xbe0c3774	-0.13693029
252	0xbd944b4d	-0.07240925
253	0x3e076c5d	0.13224931
254	0xbe080db1	-0.13286473
255	0xbb82c7ce	-0.0039911037

encoder.cnv1Dmonthly.0.bias f4 [64]
0	0xbe24ae5e	-0.16082141
1	0xbe01bd28	-0.12669814
2	0xbdac9b6f	-0.08428084
3	0x3dd2b6b8	0.10288757
4	0x3e060b71	0.13090302
5	0x3d7cdaf5	0.06173225
6	0xbac05abc	-0.0014675478
7	0xbd7f98cb	-0.062401574
8	0x3c0e7aa3	0.008696231
9	0x3c108f5c	0.008823242
10	0xbde20846	-0.11036734
11	0xbdffdfb7	-0.12493842
12	0x3e04fc5a	0.1298689
13	0xbd309052	-0.043106385
14	0x3db8357a	0.08994575
15	0xbd92f9f8	-0.07176584
16	0x3ddeaa05	0.108722724
17	0xbdc2082e	-0.094742164
18	0xbd093a45	-0.033502836
19	0xbde5a73c	-0.11213538
20	0xbe1b004e	-0.15136835
21	0x39db823a	0.0004186796
22	0xbd85de2a	-0.06536515
23	0x3dce71d9	0.100803085
24	0xbdb3c6d1	-0.087781556
25	0xbd393184	-0.045213237
26	0x3e1eb0dd	0.15497155
27	0x3cbedd01	0.023298742
28	0xbd8a073f	-0.06739663
29	0xbd30984f	-0.043114003
30	0xbe1cfae5	-0.15330084
31	0xbdbe99f0	-0.09306705
32	0x3d41128e	0.047136836
33	0xbd869e91	-0.06573213
34	0x3d8f3fb1	0.0699457
35	0x3e05b8be	0.13058755
36	0x3da7805e	0.08178781
37	0x3de5d3cd	0.112220384
38	0x3e19c0cf	0.15014957
39	0xbe2f2c46	-0.17106733
40	0x3d93207c	0.0718393
41	0xbdcd6a98	-0.10030097
42	0x3db01134	0.08597031
43	0x3e10dcfc	0.14146799
44	0x3dc87e64	0.09789732
45	0xbc61ee0f	-0.013789668
46	0xbb861f22	-0.004093067
47	0xbdfdd24e	-0.12393628
48	0xbd977b0f	-0.073965184
49	0x3d84c430	0.06482732
50	0xbdbbd8d4	-0.09172216
51	0x3e1a4870	0.15066695
52	0x3c543521	0.01295212
53	0xbdbe9b1e	-0.0930693
54	0xbdce4e93	-0.100735806
55	0x3e083f24	0.13305336
56	0x3d0e0136	0.034669124
57	0xbe24c390	-0.16090226
58	0x3e2de559	0.1698202
59	0xbdbd71f8	-0.092502534
60	0x3d7074bb	0.058705073
61	0x3c3d97c1	0.0115718255
62	0x3b980687	0.00463945
63	0xbde22a8b	-0.11043271

encoder.cnv1Dmonthly.2.weight f4 [5, 64, 10]
0	0x3d0bc70c	0.034125373
1	0xbcbf6a0a	-0.023365993
2	0x3c22934b	0.009922813
3	0xbd1f2de5	-0.038862128
4	0x3bf1693e	0.007367282
5	0x3ceebc36	0.02914248
6	0xbc32ba0b	-0.010908614
7	0xbc8e65cc	-0.017382525
8	0xbcce3975	-0.025173882
9	0xbbb67f28	-0.0055693574
10	0xbd0f0fce	-0.034927182
11	0xbd054a93	-0.032541823
12	0x3d15816f	0.03650039
13	0x3b6ad1af	0.0035830548
14	0x3ce700dc	0.028198652
15	0xbc960a43	-0.01831544
16	0xbd009ba7	-0.03139844
17	0x3d06d38b	0.032916587
18	0x3ce863b9	0.028367864
19	0xbab62837	-0.0013897483
20	0x3cf0ffaa	0.029418785
21	0x3ba4709e	0.005018308
22	0x3d03491e	0.03205215
23	0x3b519eb5	0.0031985466
24	0x3cfc4652	0.03079525
25	0x3d01e7fe	0.031715386
26	0x3c4fa042	0.012672486
27	0xbd215f42	-0.039397486
28	0xbc94d52f	-0.01816806
29	0x3caeb1e3	0.021325057
30	0xbc9c39dd	-0.01907056
31	0xbb154ac1	-0.0022780153
32	0x3ab2d300	0.0013643205
33	0x3d009336	0.03139039
34	0x3c923672	0.017848227
35	0xbbd81052	-0.0065937424
36	0x3b964655	0.004586021
37	0x3d055c92	0.032558985
38	0x3ca4e933	0.02013073
39	0x3d09d2a8	0.033648163
40	0x3b077926	0.0020671575
41	0x3d1685ab	0.03674857
42	0xbc933928	-0.01797159
43	0x3d15f51a	0.0366107
44	0x3d1b9466	0.03798332
45	0xbcde0faa	-0.027107079
46	0x3c90b7b9	0.01766573
47	0xbc47ad31	-0.012187288
48	0x3af76644	0.0018875082
49	0xbcca945f	-0.024728952
50	0x3cc8306e	0.024437156
51	0x3c582edc	0.013194766
52	0x3bb5c8bb	0.0055476106
53	0x3ccb2317	0.024797006
54	0xbcf53f3d	-0.02993738
55	0x3bee178c	0.0072659906
56	0xbbf9d923	-0.0076247617
57	0x3c27856d	0.010224682
58	0x3ab80a23	0.0014041107
59	0x3c4bb65d	0.0124336155
60	0x3c033530	0.008008286
61	0xbbb7f9ef	-0.005614511
62	0x3c921d04	0.017836101
63	0x3bb1f610	0.0054309443
64	0xbcb20a05	-0.021733293
65	0xbcbf666f	-0.023364274
66	0x3c29798b	0.0103439195
67	0x3d12b6a6	0.03581872
68	0x3d0afff8	0.033935517
69	0x3d17ed7a	0.03709171
70	0xbca44620	-0.02005297
71	0xbb88ff3a	-0.004180816
72	0x3c8fbf73	0.017547345
73	0xbcf34eaa	-0.029700596
74	0xbc3cbe0a	-0.011519918
75	0xbc93aaa0	-0.018025696
76	0x3b7083fb	0.003669976
77	0xbcf656f9	-0.030070769
78	0xbd06b741	-0.03288961
79	0x3cd5f7c2	0.026119117
80	0xbce497ec	-0.027904473
81	0xbce81417	-0.028329892
82	0x3cd3baf0	0.025845975
83	0x3bb37424	0.0054764915
84	0x3cdb4a60	0.026768863
85	0xbd1c80e2	-0.03820885
86	0x3cb1f043	0.021721011
87	0x3cf922ca	0.030412097
88	0x3d1a288a	0.037636317
89	0x3cc2a6a2	0.023761097
90	0x3cc8c04e	0.02450576
91	0xbc17afae	-0.009258194
92	0x3c9eb63d	0.019374007
93	0x3c89746c	0.016779147
94	0xbc319f7b	-0.010841246
95	0x3ca22196	0.019791406
96	0xbc47d949	-0.012197801
97	0xbc36594b	-0.011129688
98	0x3a9b718e	0.0011859403
99	0x3ce31fb3	0.027725076
100	0xbd119647	-0.035543706
101	0xbd183098	-0.037155718
102	0x3cee7311	0.029107602
103	0xbd1646ef	-0.03668874
104	0x3b7656e2	0.0037588407
105	0xbc004c46	-0.007830685
106	0xbccf1bef	-0.025281874
107	0x3cf5d656	0.03000943
108	0x3cfd4918	0.030918643
109	0xbc82948c	-0.015939973
110	0x3c296b36	0.0103405025
111	0x3c13c383	0.009018782
112	0xbcb40623	-0.021975582
113	0x3ceda5fb	0.02900981
114	0x3c4e44d7	0.012589655
115	0xbd20d26f	-0.039263185
116	0x3bf97a50	0.0076134577
117	0x3d139b86	0.03603699
118	0x3c9fdeda	0.019515444
119	0x3c9ccc0c	0.019140266
120	0x3c89e742	0.016833905
121	0x3d1016ea	0.035178103
122	0x3c164493	0.009171623
123	0x3d074267	0.03302231
124	0xbcb54c27	-0.022131039
125	0xbc519cf3	-0.012793767
126	0x3c2fe42f	0.010735556
127	0xbcf103db	-0.029420784
128	0x3afa00af	0.001907369
129	0x3ceb09c0	0.028691173
130	0xbd172960	-0.036904693
131	0xbb83962a	-0.0040157037
132	0xbd28ea7d	-0.04123925
133	0xbcb1e871	-0.021717282
134	0xbc611df2	-0.01374005
135	0xbd27342e	-0.040821247
136	0x3cbdab04	0.023152836
137	0xbcd273b4	-0.025689937
138	0x3c231738	0.009954266
139	0x3cf182aa	0.02948125
140	0x3c85e140	0.01634276
141	0xbce2c211	-0.027680429
142	0xbc9d3b55	-0.01919333
143	0x3cb3b762	0.02193803
144	0x3cd10845	0.025516639
145	0x3c9025db	0.017596176
146	0x3be1ac4e	0.0068869954
147	0xbc931b6c	-0.017957412
148	0x3b3dac60	0.0028941855
149	0xbcc03c00	-0.02346611
150	0x3cf23d6f	0.02957031
151	0xbc0cfdab	-0.008605401
152	0x3cfab284	0.030602701
153	0xba8ddc92	-0.0010823181
154	0xbc5a18df	-0.013311594
155	0x3cdb68a7	0.0267833
156	0x3cac679f	0.021045504
157	0xbd2b573c	-0.04183124
158	0xbcd2c085	-0.025726566
159	0xbccbda51	-0.024884375
160	0x3ad959f3	0.0016582593
161	0xbd0ebdac	-0.034848854
162	0xbd099caf	-0.03359669
163	0x3ca1752a	0.019709188
164	0xbc9a6a26	-0.018849444
165	0xbd129816	-0.03578957
166	0xbcedf272	-0.029046271
167	0x3b436443	0.00298144
168	0x3cafa673	0.021441674
169	0xb9e17905	-0.0004300551
170	0x3d0e1ef5	0.03469749
171	0x3bb08002	0.0053863535
172	0xbbd01c00	-0.006350994
173	0x3c0fa7d6	0.008768043
174	0xbcd673b9	-0.026178228
175	0x3a8ae8f9	0.0010597996
176	0x3d0218e6	0.031762026
177	0x3c84cdf0	0.01621148
178	0xbcb44d7d	-0.022009606
179	0x3bebca21	0.0071957265
180	0x3cea586d	0.028606618
181	0x3ca50d1d	0.020147854
182	0xbbb450e8	-0.005502809
183	0xba55904a	-0.0008146806
184	0xbc0aad1a	-0.008464122
185	0x3c5132b7	0.012768439
186	0xba071973	-0.00051536335
187	0xbcedb2e5	-0.029015968
188	0xbc71e781	-0.0147646675
189	0x3b00d737	0.0019659528
190	0xbbab7e3b	-0.0052335537
191	0xbd03c9bf	-0.032174822
192	0x3ca2e36a	0.01988383
193	0x3c8a86d8	0.016910002
194	0x3ce78adf	0.028264461
195	0x3cbf00f0	0.023315877
196	0xbd00889d	-0.031380285
197	0x3c479085	0.012180452
198	0xbcecdbdb	-0.028913429
199	0xb8b5d60d	-8.6706226e-05
200	0xbd0284aa	-0.0318648
201	0xbd10c834	-0.03534718
202	0xbce557d9	-0.02799599
203	0xbbd67de7	-0.0065457704
204	0xbafb6cbb	-0.0019182184
205	0x3ba2b9a7	0.004965979
206	0x3cd59986	0.026074182
207	0xbbc2ca0c	-0.005944496
208	0x3ca59e33	0.020217037
209	0x3cd413c3	0.02588833
210	0x3c9aa39f	0.018876849
211	0x3d00e3ea	0.031467356
212	0x3bd1f668	0.0064075477
213	0xbd007552	-0.031361885
214	0x3c8f913e	0.017525312
215	0x3bc207d4	0.0059213433
216	0x3caf5659	0.021403478
217	0x3d1095e4	0.035299197
218	0xbc35c59c	-0.011094477
219	0x3d130e69	0.035902414
220	0x3cf534e0	0.02993244
221	0xbc97f3ac	-0.018548809
222	0xbcf4de46	-0.029891144
223	0x3ce0567d	0.02738499
224	0xbce1daa8	-0.027570084
225	0x3cea7185	0.028618583
226	0xbcf0b70c	-0.029384159
227	0xbce851f2	-0.028359387
228	0xbcf54394	-0.02993945
229	0x3cbbb0ab	0.02291139
230	0x3c88e719	0.016711758
231	0x3cd1389d	0.02553969
232	0x3bf74142	0.007545621
233	0x3c377930	0.011198327
234	0xbd27b5fa	-0.04094503
235	0xbc865df6	-0.016402226
236	0xbc5a0acf	-0.013308241
237	0xbc9753e5	-0.018472621
238	0x38a52a9d	7.8757505e-05
239	0x3c5c5323	0.013447556
240	0xbcefff5d	-0.029296571
241	0xbce2f0f5	-0.027702788
242	0xbca749a0	-0.02042085
243	0x3babeff9	0.005247113
244	0x3a98fe6c	0.0011672503
245	0xbbdcc41d	-0.0067372457
246	0x3c3d717b	0.0115627
247	0xbce519c6	-0.027966391
248	0x3b2382ca	0.0024949783
249	0x3cd48fa9	0.025947409
250	0x3ba406a9	0.0050056768
251	0x3c727e5f	0.014800637
252	0x3c9a22f4	0.018815495
253	0x3c939f07	0.018020166
254	0xbd258a9e	-0.0404154
255	0xbc1b002a	-0.009460488

encoder.cnv1Dmonthly.2.bias f4 [5]
0	0xbd1191ef	-0.035539564
1	0xba6f41ce	-0.0009126932
2	0xbb20a560	-0.0024512634
3	0xbca72525	-0.020403454
4	0x3c35675b	0.011072005
