checkpoints_0/hoynet_20.pth (torch, 166254 bytes, 58 tensors)

encoder.cnv1Ddaily.0.weight f4 [64, 3, 1]
-0.4745212 0.38955435 -0.15921889 -0.07509905 0.16351178 -0.16970307 0.118246965 0.47325325
-0.13877997 0.45404446 -0.3380318 -0.22056612 0.16021046 -0.14720778 0.08203779 0.19632821
0.27854097 -0.18428272 0.13091934 -0.026002474 0.4389343 -0.44431895 -0.010766251 0.039576624
-0.33477396 0.42498556 -0.35230726 -0.26414385 -0.26371104 -0.11470506 -0.20676148 -0.38345444
-0.04375652 -0.014023248 0.2941722 0.49574515 -0.5090456 -0.053830046 0.3159196 -0.27950135
0.22281794 0.49895346 0.46286026 -0.10179364 -0.55678093 -0.0080918325 0.0316365 0.42595604
-0.5314128 0.35216027 -0.14426428 0.4449837 -0.106585555 0.3116777 0.49999267 0.4018561
0.02180085 0.15847929 0.54297847 0.079098515 0.25737306 -0.2958302 -0.2244973 0.10062227
-0.16206186 0.26338404 0.07948792 -0.0967984 -0.38781452 -0.16197076 0.48269656 -0.025160555
-0.21981005 0.009240761 -0.20292903 0.52741724 0.091746524 0.20645933 -0.25216323 -0.06515394
0.05305344 -0.4313124 -0.2627658 0.078410126 -0.4157236 -0.5353461 0.5486524 -0.10231388
0.079230696 0.3790788 -0.082602605 -0.29011315 -0.3325125 0.464788 0.44316116 0.32997805
-0.2573604 0.080982156 0.40456256 -0.11193266 0.420599 0.098032944 -0.073260464 0.085400194
0.5734473 -0.4839923 -0.3773378 0.48176366 0.07646608 0.1416574 -0.4415125 -0.1657381
-0.043353718 0.20262696 0.5472707 0.2986064 -0.50868475 0.45017886 0.19056697 0.23402566
0.010692723 -0.1050841 -0.40587813 0.18553402 0.41148415 0.3453194 0.27794105 0.3775283
0.07282588 0.47715762 0.14274375 -0.3732063 -0.5575554 -0.49281698 -0.3674603 0.5238219
-0.18705602 0.32724655 -0.35801202 -0.33575362 -0.50778043 0.45003954 0.11414333 0.39053783
0.53571606 -0.05177143 -0.43578696 0.03552343 0.23222028 -0.095768996 -0.50825536 -0.48635545
-0.5550933 0.46068585 -0.01988996 0.0828223 0.2336556 -0.41947874 -0.36895233 -0.4287346
-0.0044731386 -0.3110916 0.14578466 0.512809 0.036851317 0.50801283 0.5672172 0.1548054
-0.45744523 -0.3541893 -0.41782907 0.46805286 -0.1048343 -0.4985298 0.51475334 -0.121406294
0.36664644 -0.48501652 0.5450966 0.121051595 0.15131813 0.5542207 -0.024711473 0.20306417
-0.03117142 -0.27438918 0.38016686 -0.5486059 0.38748613 -0.24839433 0.11057853 -0.021882825
00000000: 71f4 f2be ab73 c73e 470a 23be 88cd 99bd
00000010: a26f 273e a4c6 2dbe 772b f23d 404e f23e
00000020: 561c 0ebe 8478 e83e 8112 adbe 16dc 61be
00000030: 360e 243e a3bd 16be 6e03 a83d 430a 493e
00000040: ec9c 8e3e 9cb4 3cbe b80f 063e 2403 d5bc
00000050: ffbb e03e c67d e3be ee64 30bc 191b 223d
00000060: 7e67 abbe b597 d93e 9e61 b4be dd3d 87be
00000070: 2205 87be 7dea eabd 48b9 53be 2454 c4be
00000080: 093a 33bd c4c1 65bc bd9d 963e 4fd2 fd3e
00000090: d050 02bf e57c 5cbd 37c0 a13e cd1a 8fbe
000000a0: 632a 643e d476 ff3e 05fc ec3e 2f79 d0bd
000000b0: 3289 0ebf 9b93 04bc 4695 013d e916 da3e
000000c0: ab0a 08bf 5a4e b43e 04ba 13be e7d4 e33e
000000d0: 8749 dabd 3894 9f3e 0aff ff3e 15c0 cd3e
000000e0: b297 b23c 6548 223e a300 0b3f 67fe a13d
000000f0: 67c6 833e 0e77 97be 9fe2 65be 0c13 ce3d
00000100: 8bf3 25be 46da 863e 90ca a23d 3d3e c6bd
00000110: a08f c6be aadb 25be 0124 f73e 821d cebc
00000120: e315 61be 9066 173c a1cc 4fbe d104 073f
00000130: 9ae5 bb3d 136a 533e 8a1b 81be 6e6f 85bd
00000140: 904e 593d fbd4 dcbe 3d89 86be 7d95 a03d
00000150: b9d9 d4be 710c 09bf 7c74 0c3f f189 d1bd
00000160: b443 a23d 9e16 c23e 8e2b a9bd b689 94be
00000170: 143f aabe b1f8 ed3e 05e6 e23e e2f2 a83e
00000180: bec4 83be f9d9 a53d d322 cf3e f33c e5bd
00000190: c158 d73e 7fc5 c83d 9509 96bd 4ce6 ae3d
000001a0: 71cd 123f d7cd f7be 6c32 c1be baa9 f63e
000001b0: 409a 9c3d a30e 113e ed0d e2be 40b7 29be
000001c0: ab93 31bd 717d 4f3e ef19 0c3f f0e2 983e
000001d0: 2a39 02bf d87d e63e fd23 433e 6ca4 6f3e
000001e0: 8830 2f3c 5536 d7bd 42cf cfbe a1fc 3d3e
000001f0: 0dae d23e b4cd b03e 4a4e 8e3e 644b c13e
00000200: bc25 953d 014e f43e 6b2b 123e e514 bfbe
00000210: f3bb 0ebf 8252 fcbe c223 bcbe 3119 063f
00000220: 9d8b 3fbe dc8c a73e 5a4d b7be e6e7 abbe
00000230: e6fd 01bf 956b e63e fac3 e93d 93f4 c73e
00000240: b024 093f 470e 54bd 781f dfbe 0481 113d
00000250: 27cb 6d3e 8922 c4bd 061d 02bf 9503 f9be
00000260: 981a 0ebf 04df eb3e 45f0 a2bc bd9e a93d
00000270: 6a43 6f3e ebc5 d6be 52e7 bcbe 1a83 dbbe
00000280: 6893 92bb 6647 9fbe 9348 153e 7347 033f
00000290: 68f1 163d 210d 023f 2535 113f 4f85 1e3e
000002a0: 4336 eabe 4d58 b5be b1ed d5be a0a4 ef3e
000002b0: 5eb3 d6bd 4c3f ffbe e0c6 033f dda3 f8bd
000002c0: 15b9 bb3e 1654 f8be 738b 0b3f e6e9 f73d
000002d0: 24f3 1a3e 68e1 0d3f b76f cabc 0ef0 4f3e
000002e0: 355b ffbc bd7c 8cbe 3ba5 c23e 7071 0cbf
000002f0: 9564 c63e 155b 7ebe ff76 e23d 9c43 b3bc

encoder.cnv1Ddaily.0.bias f4 [64]
-0.33893898 0.39180174 -0.3688976 0.37887746 -0.33144182 0.08009279 0.19423865 -0.2647284
-0.17195782 0.5152866 0.25713524 0.46308222 0.559447 0.23855776 -0.024802007 0.2585185
0.3490747 0.20530209 0.21352771 -0.41556436 0.116212904 -0.45914504 -0.2248378 -0.033791877
0.36830276 -0.37801275 0.38960734 0.22807042 -0.5717783 -0.13628386 -0.5720048 -0.37266636
-0.3353508 -0.4362055 -0.2825598 -0.49379864 0.5262028 0.2646838 0.3099187 -0.40816376
-0.34086922 -0.041639987 -0.36793405 -0.4083748 -0.3450474 -0.038061906 0.56324726 0.18912819
0.5437202 0.031242395 -0.36963 0.59071034 0.49517012 -0.35305035 0.42459986 -0.21883483
-0.0785107 0.13446447 0.17815782 -0.31258526 0.4406647 0.17393103 -0.50373316 0.065876395
00000000: 6989 adbe 3d9a c83e 25e0 bcbe 3afc c13e
00000010: beb2 a9be b007 a43d 7fe6 463e 7b8a 87be
00000020: b615 30be d3e9 033f 3ba7 833e 1d19 ed3e
00000030: eb37 0f3f 7c48 743e 942d cbbc 895c 843e
00000040: ebb9 b23e b63a 523e 02a7 5a3e dac4 d4be
00000050: 0801 ee3d 0f15 ebbe e13b 66be 5a69 0abd
00000060: 2e92 bc3e e38a c1be 9d7a c73e 4b8b 693e
00000070: 1060 12bf ff8d 0bbe e86e 12bf 20ce bebe
00000080: 1ab3 abbe 5456 dfbe aeab 90be 2dd3 fcbe
00000090: 3ab5 063f a384 873e aaad 9e3e d7fa d0be
000000a0: 6986 aebe b18e 2abd da61 bcbe 8016 d1be
000000b0: 0eaa b0be cde6 1bbd f930 103f d2aa 413e
000000c0: 3f31 0b3f 0df0 ff3c 2540 bdbe cb38 173f
000000d0: f086 fd3e 04c3 b4be 2765 d93e 3d16 60be
000000e0: 38ca a0bd 0eb1 093e 016f 363e 2d0b a0be
000000f0: ce9e e13e fa1a 323e a8f4 00bf 34ea 863d

encoder.cnv1Ddaily.2.weight f4 [5, 64, 1]
0.10687609 0.023907954 0.043728042 -0.094687626 0.07919177 -0.10204997 0.06001109 -0.07687172
-0.05115811 -0.07681877 -0.034811776 -0.009544254 0.1102576 -0.084901854 -0.08334136 0.019245598
0.12789454 -0.035167024 -0.048852783 0.08520505 -0.087156914 0.052626763 -0.017738901 0.022513269
0.049903225 0.065857925 0.024696669 0.12155732 0.069393575 -0.1282039 0.015913496 -0.12742028
-0.081103764 0.0064568296 -0.121722855 -0.027360275 0.010825247 0.019750869 0.004526868 -0.036873084
-0.07412089 0.11118997 0.100617744 0.010703454 -0.037435647 0.016466513 -0.10112811 0.024253298
-0.039527092 -0.11632101 -0.08223119 0.11612109 -0.065271035 0.10215745 0.09893405 -0.03728561
-0.048928726 -0.03871727 0.06849237 -0.10513318 0.114125796 0.09233077 -0.019325798 0.063636
-0.08307884 0.12246056 -0.057944372 0.026643496 -0.056034993 -0.08219816 0.113969274 0.041356813
0.046969235 0.05221466 0.026340991 -0.041261707 0.124846525 0.11636148 -0.10304881 -0.06666622
-0.12473105 -0.026938517 0.0059911143 -0.09342886 0.027656127 0.027671648 0.12333225 -0.09189205
0.119514704 0.11067084 0.016255552 0.018288305 0.050720982 0.110582426 -0.024185207 0.018911695
0.0025782278 -0.00705172 -0.11910648 0.022555783 0.08302482 -0.11929161 0.08009608 -0.033402897
0.048713148 -0.019966856 -0.10519362 -0.020496614 -0.018029543 -0.053928353 0.120681666 -0.010414673
-0.08679039 0.04546451 -0.022354819 0.102789104 -0.052337218 0.04695523 -0.12394404 0.025710912
0.08563963 0.0018835118 0.016562868 0.029496431 -0.00457072 -0.025848396 0.006003741 -0.108548954
-0.107407816 -0.090208516 0.044620264 0.016927965 -0.083538756 0.071193144 -0.06070416 0.096172124
-0.11132749 -0.0392254 0.06586322 0.005315197 0.011648246 0.05821163 -0.0039640483 0.089863606
-0.06760897 0.07319673 0.09415818 -0.004398194 0.07917179 0.022552956 -0.11939706 -0.007466707
0.060949113 -0.08062074 -0.110338725 -0.09311884 0.095486395 0.1121861 -0.038275544 -0.106852375
-0.046232566 0.12825097 0.031159326 -0.12296046 -0.01198393 0.025742367 0.007222078 -0.093606524
-0.0027993715 0.060136 0.018813876 -0.057181604 0.09102332 0.074021704 -0.10502765 0.1301758
-0.028331202 6.507857e-05 0.0046068016 0.12276377 0.107441604 -0.040470254 -0.08601138 0.046811584
-0.09679624 -0.062047325 -0.09235316 0.019039825 0.082020104 -0.07126866 -0.09269492 0.009428857
0.049327016 0.076543435 0.100473054 -0.06666983 0.059898205 -0.009902515 0.0192435 -0.019573463
-0.04277376 0.10894478 -0.11618294 -0.06328732 0.037588697 0.12005767 0.034263894 -0.03993463
0.10578516 0.08244022 0.048565768 -0.088943295 -0.11963651 0.028852917 -0.016004132 -0.09075578
0.034752194 -0.0016998566 0.06811771 0.038322333 0.1088146 0.10829016 0.046516873 0.038527895
0.11435251 0.07602947 0.050457653 0.0037747025 -0.11227713 0.043640535 0.0030372196 0.093044356
-0.070924826 0.08363381 -0.04144981 0.12101365 0.11662013 -0.014351729 0.07016061 0.10333287
-0.07857193 0.06291164 -0.04493706 -0.016370026 -0.044232797 -0.02239286 0.070670895 -0.09823108
-0.028069587 0.104406744 -0.108840935 0.0008319624 -0.07326729 -0.026408972 0.07234542 0.034052983
00000000: dae1 da3d 9dda c33c 2d1c 333d 96eb c1bd
00000010: 4b2f a23d 93ff d0bd 30ce 753d ec6e 9dbd
00000020: 2b8b 51bd 2953 9dbd cb96 0ebd 815f 1cbc
00000030: bdce e13d 06e1 adbd e0ae aabd f2a8 9d3c
00000040: c9f6 023e 4c0b 10bd db19 48bd fc7f ae3d
00000050: 537f b2bd 298f 573d 2c51 91bc bf6d b83c
00000060: 5367 4c3d 85e0 863d ab50 ca3c 0bf3 f83d
00000070: 381e 8e3d e247 03be 055d 823c 767a 02be
00000080: bb19 a6bd d093 d33b d549 f9bd a822 e0bc
00000090: 605c 313c 93cc a13c 1f56 943b 3b08 17bd
000000a0: b1cc 97bd 91b7 e33d ad10 ce3d 8a5d 2f3c
000000b0: 1f56 19bd c8e4 863c 411c cfbd daae c63c
000000c0: 29e7 21bd b639 eebd d368 a8bd e5d0 ed3d
000000d0: d2ac 85bd ed37 d13d ef9d ca3d ccb8 18bd
000000e0: 7d69 48bd 0096 1ebd ba45 8c3d 1150 d7bd
000000f0: c9ba e93d ea17 bd3d 2351 9ebc 9753 823d
00000100: 3d25 aabd 9acc fa3d 1457 6dbd 7643 da3c
00000110: f384 65bd 8257 a8bd b968 e93d c365 293d
00000120: d062 403d 0adf 553d 10c9 d73c 0902 29bd
00000130: 89af ff3d ed4e ee3d 410b d3bd 4d88 88bd
00000140: fe72 ffbd 2aae dcbc 1c51 c43b a157 bfbd
00000150: 1a8f e23c a7af e23c 9e95 fc3d e631 bcbd
00000160: 20c4 f43d 65a7 e23d 5d2a 853c 5bd1 953c
00000170: cec0 4f3d 0a79 e23d 0e20 c6bc b3ec 9a3c
00000180: 7cf7 283b 1d12 e7bb 19ee f3bd e8c6 b83c
00000190: eb08 aa3d 294f f4bd 6a09 a43d 7ad1 08bd
000001a0: 7087 473d 8891 a3bc c16f d7bd 84e8 a7bc
000001b0: b1b2 93bc fae3 5cbd f327 f73d 4ea2 2abc
000001c0: 29bf b1bd fe38 3a3d 7421 b7bc 1883 d23d
000001d0: 8d5f 56bd 2154 403d 5fd6 fdbd b19f d23c
000001e0: d563 af3d 2be0 f63a daae 873c 80a2 f13c
000001f0: fac5 95bb 04c0 d3bc 08bb c43b ea4e debd
00000200: a1f8 dbbd 3ebf b8bd bdc3 363d 84ac 8a3c
00000210: 5e16 abbd b6cd 913d eda4 78bd e4f5 c43d
00000220: abff e3bd d0aa 20bd 4ce3 863d 1b2b ae3b
00000230: 49d8 3e3c 516f 6e3d d9e4 81bb 690a b83d
00000240: 9276 8abd 2be8 953d 01d6 c03d ba1e 90bb
00000250: d224 a23d fac0 b83c 7286 f4bd 47ab f4bb
00000260: c7a5 793d 7d1c a5bd 45f9 e1bd 17b5 bebd
00000270: 5f8e c33d d3c1 e53d d1c6 1cbd 6bd5 dabd
00000280: 5c5e 3dbd 3954 033e d841 ff3c b2d2 fbbd
00000290: 3f58 44bc a8e1 d23c 2ea7 ec3b c7b4 bfbd
000002a0: a975 37bb 2b51 763d 8f1f 9a3c 4237 6abd
000002b0: 6f6a ba3d b198 973d bd18 d7bd ce4c 053e
000002c0: d616 e8bc cb7a 8838 a7f4 963b 926b fb3d
000002d0: 580a dc3d 23c4 25bd bc26 b0bd 81bd 3f3d
000002e0: 1b3d c6bd 5625 7ebd a723 bdbd 68f9 9b3c
000002f0: 28fa a73d 4ef5 91bd d6d6 bdbd 7e7b 1a3c
00000300: 200b 4a3d cec2 9c3d d1c4 cd3d 318a 88bd
00000310: d257 753d 293e 22bc 8ba4 9d3c 8758 a0bc
00000320: 8a33 2fbd 711e df3d 52f1 edbd c89c 81bd
00000330: 9bf6 193d cce0 f53d 4c58 0c3d 7f92 23bd
00000340: e4a5 d83d 6bd6 a83d e6ec 463d e727 b6bd
00000350: fd03 f5bd f45c ec3c 191b 83bc 2bde b9bd
00000360: 5158 0e3d b9cd deba 4c81 8b3d e1f7 1c3d
00000370: 30da de3d 3bc7 dd3d 7a88 3e3d 6dcf 1d3d
00000380: a631 ea3d 57b5 9b3d afac 4e3d 0061 773b
00000390: 8df1 e5bd 6bc0 323d 170c 473b 0a8e be3d
000003a0: 0941 91bd 3448 ab3d 47c7 29bd 01d6 f73d
000003b0: 89d6 ee3d 8423 6bbc 5eb0 8f3d 2fa0 d33d
000003c0: 52ea a0bd d1d7 803d ec0f 38bd 6f1a 86bc
000003d0: 732d 35bd 3b71 b7bc e7bb 903d 602d c9bd
000003e0: 31f2 e5bc 34d3 d53d ffe7 debd 0d18 5a3a
000003f0: 290d 96bd a157 d8bc d629 943d 247b 0b3d

encoder.cnv1Ddaily.2.bias f4 [5]
0.13408162 0.06257167 -0.024296964 -0.0024610774 -0.08425161
00000000: b14c 093e 9325 803d 6d0a c7bc 074a 21bb
00000010: 1c8c acbd

encoder.cnv1Dweekly.0.weight f4 [64, 3, 5]
-0.1897234 -0.09828481 0.1840154 -0.07967893 -0.23352875 -0.15014982 -0.049157847 -0.16089512
-0.031434435 -0.033788696 0.17030828 -0.003988733 -0.15795583 -0.10993068 -0.23688069 -0.20051488
0.18609947 -0.16477701 0.036391824 0.1708116 -0.24013892 -0.14086549 0.008527823 -0.00783468
-0.035184268 0.11614749 -0.05518421 -0.16383888 -0.023956481 0.21509881 0.23720503 -0.04499617
-0.02138609 -0.0474665 -0.15564333 -0.028729493 -0.22673549 0.14192382 0.23857829 -0.029955339
-0.15799667 0.1871515 -0.11808861 0.19407251 0.057841513 0.103343956 0.20838383 0.19874145
-0.1826512 0.12762617 -0.108826116 0.17040095 -0.23899153 -0.1872583 0.10412255 -0.12951235
-0.024001716 0.08694697 -0.13016918 -0.1057505 0.010389629 0.08666835 0.22399494 -0.17708407
-0.17675483 0.17580229 0.12352125 -0.16548137 -0.17979588 -0.017259533 -0.16562472 0.004995551
-0.13928074 0.0044316705 -0.054932922 -0.24731019 -0.19881727 0.1539156 -0.2224556 0.056005936
-0.17154174 0.022074867 -0.098033376 -0.028496714 -0.15599251 -0.011387551 0.015181924 -0.03429438
-0.12583227 0.2503947 0.1787599 -0.15649748 -0.048319608 -0.18061823 0.046915725 0.045974705
0.008397283 -0.04297264 -0.049157936 -0.07478653 -0.190813 -0.03574064 0.21567614 -0.24208596
0.0005800002 -0.20515186 -0.20778476 0.047661386 0.16971809 0.20012985 -0.025109755 0.07480917
0.21621871 0.090350404 -0.047588427 -0.06902386 -0.189332 -0.094909765 -0.21904558 -0.13600095
-0.24728882 0.08112903 0.08085274 0.06435459 0.03786912 0.19199793 0.17667453 0.1693424
0.11169082 0.11015289 -0.060746912 -0.2371727 0.16527784 0.076724574 -0.17277445 0.17747808
-0.2188653 -0.13922004 -0.24120116 -0.09779769 0.24513724 -0.010732178 0.12413186 -0.17594083
-0.10675209 -0.0028366314 -0.14080177 -0.028700935 0.0520768 -0.07464592 0.25230014 -0.14488727
-0.19470492 0.19666001 -0.16950366 0.2455799 0.006709598 0.25499138 -0.17927411 -0.14786696
0.13104206 0.1275978 -0.12371299 0.20951158 0.18145603 0.111508206 0.24065486 0.22657281
-0.01663475 0.14856488 -0.034006 0.23349555 0.19406755 0.07243794 -0.094983734 0.062146958
0.10244247 0.16200499 -0.21170397 -0.059018504 -0.22642808 -0.09288358 -0.15386006 -0.24942042
0.07712867 -0.20289385 0.24347955 0.10886625 -0.17549773 -0.21159174 0.14131221 0.062407926
-0.26654202 0.13760665 0.0709637 0.069729894 0.15115824 0.090794384 -0.099637836 0.24126625
0.2591613 -0.23012492 0.009230811 0.1826628 -0.16899264 0.028855087 -0.18557878 0.059129298
0.06184129 -0.14283812 -0.23104133 -0.009815993 -0.113393255 0.05084973 0.15726939 0.051672686
0.16887815 0.13921393 0.0061032576 -0.16579679 -0.018630117 0.11408205 0.13980378 0.10894228
-0.07564799 -0.16230124 0.11776578 -0.23076455 -0.06430348 -0.021815455 0.016598199 0.16315013
0.12405588 -0.13107297 0.14642057 0.16481036 -0.19317828 0.23404835 -0.110258624 0.14874956
0.055861503 0.21249546 -0.13701928 -0.11336066 -0.14631355 0.013547557 0.056021374 0.14270383
-0.08224424 0.23670901 0.19471323 -0.18454769 0.1732218 0.076906934 -0.1271299 0.11939244
00000000: da46 42be 8c49 c9bd 886e 3c3e b52e a3bd
00000010: 2922 6fbe e0c0 19be bd59 49bd b1c1 24be
00000020: 65c1 00bd 0466 0abd 4b65 2e3e ebb3 82bb
00000030: 2cbf 21be 5623 e1bd da90 72be c653 4dbe
00000040: dc90 3e3e 4ebb 28be 980f 153d 3ce9 2e3e
00000050: fae6 75be 0b3f 10be 48b8 0b3c 085d 00bc
00000060: 611d 10bd bcde ed3d d708 62bd 61c5 27be
00000070: 6240 c4bc dd42 5c3e e0e5 723e e74d 38bd
00000080: e231 afbc 3c6c 42bd f760 1fbe 1d5a ebbc
00000090: 592d 68be 7a54 113e de4d 743e e664 f5bc
000000a0: e1c9 21be a5a4 3f3e 71d8 f1bd f2ba 463e
000000b0: 39eb 6c3d ffa5 d33d 9262 553e e182 4b3e
000000c0: eb08 3bbe 6fb0 023e 3ae0 debd 967d 2e3e
000000d0: 32ba 74be a4c0 3fbe 343e d53d e39e 04be
000000e0: 3f9f c4bc 4111 b23d 124b 05be b893 d8bd
000000f0: 4339 2a3c 2d7f b13d ee5e 653e 8755 35be
00000100: 38ff 34be 8405 343e b6f8 fc3d f373 29be
00000110: 691c 38be dd63 8dbc 8799 29be b8b1 a33b
00000120: 9c9f 0ebe 8c37 913b 5801 61bd e23e 7dbe
00000130: c196 4bbe 0d9c 1d3e 67cb 63be 7b66 653d
00000140: a3a8 2fbe 5ad6 b43c b9c5 c8bd f171 e9bc
00000150: 80bc 1fbe da92 3abc 9bbd 783c 4478 0cbd
00000160: 2dda 00be bc33 803e d60c 373e e040 20be
00000170: c8ea 45bd fcf3 38be b42a 403d f94f 3c3d
00000180: c294 093c 1404 30bd d559 49bd ae29 99bd
00000190: 7c64 43be c764 12bd 35da 5c3e 62e5 77be
000001a0: 280b 183a 5413 52be 87c5 54be 9638 433d
000001b0: 94ca 2d3e d7ee 4c3e f9b2 cdbc 8d35 993d
000001c0: 7068 5d3e a209 b93d 15ec 42bd 625c 8dbd
000001d0: 3fe0 41be 0d60 c2bd 7c4d 60be d543 0bbe
000001e0: 4839 7dbe fa26 a63d 1f96 a53d 57cc 833d
000001f0: a61c 1b3d 1b9b 443e 2bea 343e 1868 2d3e
00000200: 28be e43d d797 e13d c1d1 78bd 66dd 72be
00000210: 983e 293e c621 9d3d c9eb 30be d0bc 353e
00000220: 3a1e 60be b38f 0ebe 70fd 76be 284a c8bd
00000230: 4205 7b3e 04d6 2fbc d838 fe3d d529 34be
00000240: d7a0 dabd c7e6 39bb 572e 10be 391e ebbc
00000250: 7c4e 553d f6df 98bd 7c2d 813e 545d 14be
00000260: ba60 47be 3e61 493e 5e92 2dbe 4c79 7b3e
00000270: 30dc db3b 3b8e 823e a293 37be 706a 17be
00000280: e42f 063e ffa8 023e 3c5d fdbd 348a 563e
00000290: 9ccf 393e 6a5e e43d 3a6e 763e b402 683e
000002a0: 9945 88bc 6421 183e e049 0bbd 7519 6f3e
000002b0: a5b9 463e 585a 943d d586 c2bd cf8d 7e3d
000002c0: 5ccd d13d a3e4 253e edc8 58be 63bd 71bd
000002d0: c3dc 67be bf39 bebd 7e8d 1dbe 1168 7fbe
000002e0: a3f5 9d3d 68c3 4fbe b452 793e 45f5 de3d
000002f0: adb5 33be 81ab 58be 26b4 103e 749f 7f3d
00000300: 3278 88be c2e8 0c3e 6b55 913d 8cce 8e3d
00000310: 3ac9 1a3e 68f2 b93d ec0e ccbd 800e 773e
00000320: cab0 843e dea5 6bbe d43c 173c f50b 3b3e
00000330: 680c 2dbe 8161 ec3c 5d08 3ebe 9031 723d
00000340: 4b4d 7d3d 2844 12be 1996 6cbe 42d3 20bc
00000350: b93a e8bd ce47 503d 3a0b 213e bda6 533d
00000360: 65ee 2c3e 198e 0e3e d6fd c73b a2c6 29be
00000370: 309e 98bc daa3 e93d b928 0f3e 211d df3d
00000380: 55ed 9abd 4c32 26be 2f2f f13d 8b4d 6cbe
00000390: 8bb1 83bd 53b6 b2bc f2f8 873c d410 273e
000003a0: 0211 fe3d fe37 06be 46ef 153e 0cc4 283e
000003b0: 87d0 45be 5faa 6f3e 46cf e1bd ce51 183e
000003c0: 08cf 643d 6998 593e c84e 0cbe a229 e8bd
000003d0: 38d3 15be 93f6 5d3c ab76 653d f420 123e
000003e0: ab6f a8bd d963 723e e862 473e 12fa 3cbe
000003f0: 0e61 313e 6281 9d3d 572e 02be 0684 f43d

encoder.cnv1Dweekly.0.bias f4 [64]
0.006758062 0.16499783 0.01911304 -0.116366215 0.0106197875 0.019663801 0.18722977 0.036657292
0.124410406 -0.16738442 -0.10691249 -0.15640755 0.17790478 0.21821295 0.086720206 -0.19512458
-0.07894408 -0.23915394 0.21254922 -0.1239873 0.071051754 -0.21747772 -0.16953775 -0.19757174
-0.23019679 -0.11963339 0.20879021 -0.055815626 -0.11817776 -0.1437875 -0.20301372 0.15293393
0.09693726 -0.18816705 0.1251913 -0.24727246 -0.093783535 -0.014464041 -0.23845342 -0.02573984
0.09451049 -0.043191224 0.114995845 -0.17216925 -0.19232132 -0.03811394 0.22771405 0.2280736
-0.043860305 0.07228047 0.07689467 -0.21191567 0.11649027 0.12301388 -0.12343681 -0.010763261
-0.14000706 0.21342307 -0.095114954 0.16627395 -0.053465422 -0.14321044 0.035443485 0.04161498
00000000: bc72 dd3b 31f5 283e f392 9c3c 6951 eebd
00000010: 9efe 2d3c fb15 a13c 29b9 3f3e f525 163d
00000020: e2ca fe3d d266 2bbe f0f4 dabd 4d29 20be
00000030: ac2c 363e 3773 5f3e 5d9a b13d bdce 47be
00000040: 6fad a1bd c5e4 74be 81a6 593e 0eed fdbd
00000050: 9583 913d 7bb2 5ebe 4e9b 2dbe 3f50 4abe
00000060: b5b8 6bbe 5a02 f5bd 1acd 553e ed9e 64bd
00000070: 2e07 f2bd 083d 13be d4e2 4fbe b69a 1c3e
00000080: 0b87 c63d ddae 40be 2632 003e fe34 7dbe
00000090: 9511 c0bd 96fa 6cbc 222d 74be 5bdc d2bc
000000a0: b78e c13d 48e9 30bd f182 eb3d 234d 30be
000000b0: e1ef 44be 5d1d 1cbd df2d 693e 208c 693e
000000c0: dda6 33bd c807 943d f47a 9d3d 6c00 59be
000000d0: 7392 ee3d b3ee fb3d 70cc fcbd 6358 30bc
000000e0: 035e 0fbe 948b 5a3e a1cb c2bd b843 2a3e
000000f0: 8ffe 5abd c2a5 12be 302d 113d 7874 2a3d

encoder.cnv1Dweekly.2.weight f4 [5, 64, 5]
-0.052783594 0.018602515 -0.050434113 -0.03304049 0.018040203 -0.05159488 0.043136194 0.035076976
0.035282526 0.045038857 -0.0586594 -0.053479776 0.038909208 0.019949785 -0.057633545 0.005552409
0.003785511 0.027322207 0.017031195 -0.029935809 0.016615717 -0.03391871 0.000359854 0.01357685
-0.064174615 -0.0027646269 -0.0578678 -0.030935824 -0.00954635 0.032753006 -0.05027373 0.03209254
-0.0110095935 -0.04702359 -0.013972539 -0.043166444 0.032513756 -0.004779043 -0.022930535 0.025109591
-0.015611254 0.024527537 0.05324465 -0.049003422 -0.054835323 -0.05794965 -0.035864387 -0.0013048947
-0.024753459 -0.03737227 -0.05783899 0.03385942 0.03579592 0.0018387502 0.046339706 0.014338846
0.020105937 0.034351103 0.018923156 -0.031864427 -0.049241435 -0.008469187 -0.04234687 0.02213232
0.03267081 0.05301341 0.0050290907 -0.023775844 0.0051941625 -0.0022870533 0.0075546405 -0.03751809
-0.021384964 -0.037711903 -0.035379834 0.0040579354 -0.03740439 0.031979796 -0.014033902 -0.021681286
0.043601666 -0.013233546 -0.036051106 0.0102852415 0.03575892 -0.0076663927 -0.017561138 0.005384761
0.030230392 -0.01224513 0.01068648 0.018294835 -0.04185292 0.017979866 0.03803004 -0.020395864
0.018755881 0.029652039 -0.02833879 0.033926755 -0.022967499 -0.0036331036 -0.008956482 0.033347286
0.028979491 0.012464438 -0.0077729956 -0.041618843 0.027333226 0.013505588 -0.03943716 0.019148387
-0.046211667 -0.00080135505 0.052988615 -0.034142323 0.01432963 0.012443749 -0.025233842 -0.05935621
-0.019974677 0.041809957 -0.03172981 0.035607927 -0.026488338 -0.032860275 0.007914498 0.008630571
-0.008845862 0.023062624 0.029333571 -0.05577822 0.012656821 -0.0056432933 -0.048324093 -0.055720773
-0.03636315 -0.012623497 -0.019469071 0.04442208 0.033507396 -0.0027439536 0.01709719 0.035290077
-0.033602495 0.04938296 -0.022379782 0.028427582 -0.008755875 0.037242685 0.02970183 0.014595082
-0.01334922 0.048880436 -0.019644912 0.008537307 -0.04104107 0.03766159 -0.045325514 0.039632093
0.049427636 0.038527764 0.03754297 0.03876888 -0.012377809 -0.012679038 -0.022039587 -0.0056356452
0.028375339 -0.037572555 -0.038580168 0.014472057 -0.00084552175 0.023115588 0.012692542 -0.031548835
-0.039074272 -0.030255513 0.012722463 -0.010542222 -0.031898916 -0.037345607 -0.0026820858 0.04758292
-0.02963256 -0.018968781 0.029104946 0.0115826335 0.027310332 -0.03590461 -0.0607058 -0.030323114
0.026591523 -0.038479768 0.0396116 -0.04870491 -0.051765617 0.007522505 -0.045681264 -0.056056425
0.018611992 0.05021986 -0.011058494 0.01880848 0.013396546 -0.042470694 -0.005752445 -0.05162057
-0.06330294 -0.045512397 0.031844053 0.004639536 -0.000539904 -0.01674758 0.04440166 0.039938886
-0.06447204 -0.027641032 0.0112994565 -0.064095326 -0.061642203 0.030860148 -0.021165134 -0.04486895
-0.04307916 -0.022565452 -0.043777242 0.033363607 -0.06166924 0.04318215 -0.021837393 0.019316074
0.019553745 0.005419109 0.014787919 0.003930198 -0.024645558 0.040969 -0.009074022 -0.04903359
0.032576315 0.02391694 0.030158931 -0.028245978 -0.059378076 0.025115319 -0.049833197 0.024647556
-0.011538372 -0.029280797 0.04669434 -0.04489334 0.05602855 -0.047898725 -0.04646084 0.010380515
00000000: 9c33 58bd 4d64 983c 0094 4ebd 7755 07bd
00000010: 0cc9 933c 2755 53bd 94af 303d e0ac 0f3d
00000020: 6984 103d aa7a 383d d744 70bd 9c0d 5bbd
00000030: 435f 1f3d bb6d a33c 2711 6cbd fcf0 b53b
00000040: 5616 783b d2d2 df3c 0185 8b3c f13b f5bc
00000050: af1d 883c 58ee 0abd c9aa bc39 7071 5e3c
00000060: fb6d 83bd be2e 35bb c906 6dbd 206d fdbc
00000070: 4b68 1cbc 0428 063d d4eb 4dbd 7873 033d
00000080: 9561 34bc cf9b 40bd 14ed 64bc 4ccf 30bd
00000090: 252d 053d 8599 9cbb d1d8 bbbc a1b2 cd3c
000000a0: 58c6 7fbc f9ed c83c 1017 5a3d d0b7 48bd
000000b0: 019b 60bd 9d5c 6dbd 89e6 12bd 0009 abba
000000c0: c4c7 cabc aa13 19bd 94e8 6cbd 2db0 0a3d
000000d0: be9e 123d 3802 f13a b4ce 3d3d 7bed 6a3c
000000e0: 35b5 a43c beb3 0c3d bc04 9b3c 4684 02bd
000000f0: 63b1 49bd 58c2 0abc e973 2dbd d74e b53c
00000100: d4d1 053d 9724 593d 12cb a43b 8fc5 c2bc
00000110: cb33 aa3b 63e2 15bb eb8c f73b 92ac 19bd
00000120: 852f afbc cc77 1abd 72ea 10bd 6ef8 843b
00000130: 5835 19bd 3ffd 023d 74ee 65bc f49c b1bc
00000140: a997 323d 84d1 58bc 53aa 13bd 6e83 283c
00000150: f277 123d 5d36 fbbb 60dc 8fbc a672 b03b
00000160: baa5 f73c cc9f 48bc 5916 2f3c 0ddf 953c
00000170: f86d 2bbd 834a 933c 63c5 1b3d 3a15 a7bc
00000180: efa5 993c d5e8 f23c c026 e8bc c8f6 0a3d
00000190: 5626 bcbc 5d19 6ebb 35be 12bc 2a97 083d
000001a0: 6666 ed3c a437 4c3c 9db4 febb 8578 2abd
000001b0: eee9 df3c 8b46 5d3c dc88 21bd 14dd 9c3c
000001c0: 7248 3dbd 0712 52ba 970a 593d d2d8 0bbd
000001d0: d3c6 6a3c dee0 4b3c 34b7 cebc 7f1f 73bd
000001e0: efa1 a3bc eb40 2b3d 1ef7 01bd 9ed9 113d
000001f0: 12fe d8bc 7f98 06bd d0ab 013c 3d67 0d3c
00000200: 3cee 10bc d4ed bc3c f54c f03c b477 64bd
00000210: 8e5e 4f3c 60eb b8bb 7cef 45bd 773b 64bd
00000220: 87f1 14bd c9d2 4ebc 9a7d 9fbc edf3 353d
00000230: 0d3f 093d e7d3 33bb 680f 8c3c 548c 103d
00000240: c5a2 09bd c945 4a3d ce55 b7bc f6e0 e83c
00000250: cd74 0fbc c98b 183d 4151 f33c 3620 6f3c
00000260: b0b6 5abc da36 483d 5eee a0bc 10e0 0b3c
00000270: ae1a 28bd 0a43 1a3d 3fa7 39bd 4355 223d
00000280: a274 4a3d 4acf 1d3d a8c6 193d 1ecc 1e3d
00000290: 4bcc 4abc bdbb 4fbc 5d8c b4bc 38ab b8bb
000002a0: 6673 e83c aee5 19bd 3d06 1ebd 351c 6d3c
000002b0: 01a6 5dba e75c bd3c 61f4 4f3c 5a39 01bd
000002c0: 580c 20bd 69da f7bc e171 503c 49b9 2cbc
000002d0: 70a8 02bd b5f7 18bd efc5 2fbb 4fe6 423d
000002e0: fcbf f2bc 6b64 9bbc 7f6d ee3c 16c5 3d3c
000002f0: ebb9 df3c b610 13bd a5a6 78bd 2e68 f8bc
00000300: 77d6 d93c f69c 1dbd c63f 223d cd7e 47bd
00000310: 2f08 54bd 587f f63b 471c 3bbd 6c9b 65bd
00000320: 2d78 983c 57b3 4d3d b02e 35bc 3e14 9a3c
00000330: 307d 5b3c c0f5 2dbd 027f bcbb 1770 53bd
00000340: f9a4 81bd 356b 3abd e96e 023d 4007 983b
00000350: 5888 0dba 3932 89bc 84de 353d f596 233d
00000360: eb09 84bd 726f e2bc 5b21 393c 6944 83bd
00000370: 897c 7cbd 6cce fc3c 8162 adbc 81c8 37bd
00000380: c673 30bd 2fdb b8bc c44f 33bd 47a8 083d
00000390: e398 7cbd c4df 303d 55e4 b2bc be3c 9e3c
000003a0: 2d2f a03c c892 b13b 0749 723c e4c8 803b
000003b0: 7be5 c9bc 1ccf 273d 35ab 14bc 72d7 48bd
000003c0: be6e 053d 75ed c33c dd0f f73c 1c64 e7bc
000003d0: 6d36 73bd a4be cd3c e51d 4cbd ace9 c93c
000003e0: 710b 3dbc 48de efbc 9042 3f3d 14e2 37bd
000003f0: 317e 653d 7431 44bd b94d 3ebd 0913 2a3c

encoder.cnv1Dweekly.2.bias f4 [5]
0.026242774 -0.044053067 -0.0016140317 -0.018953046 -0.046367597
00000000: 16fb d63c fd70 34bd eb8d d3ba 6b43 9bbc
00000010: f3eb 3dbd

encoder.cnv1Dmonthly.0.weight f4 [64, 3, 11]
-0.036665708 -0.12785164 -0.03082894 -0.049460545 -0.14881608 -0.09244573 -0.08618294 -0.10024284
-0.1162052 0.02682857 -0.15550008 0.08688572 -0.07730465 -0.019106178 -0.005140726 -0.12966155
0.17622133 -0.032248616 0.093924984 0.035176367 0.11133866 0.08056581 -0.15850922 -0.06668217
-0.04889063 0.06547967 0.07276897 0.08398401 -0.000651283 -0.056374755 -0.08877814 -0.040009663
-0.07656563 -0.11548189 -0.13543247 0.11986745 -0.0010277743 0.16926156 0.11145976 -0.08735302
-0.11181668 -0.02317484 0.15822744 0.07952401 -0.17060922 -0.049956236 0.074395746 -0.085666075
-0.09145662 0.06065762 -0.016028099 -0.16428104 -0.110181965 -0.14542116 -0.08004388 0.013170021
0.13209996 0.06954219 0.051490773 0.054548282 -0.049287222 -0.10120191 -0.06426611 0.1387132
0.11248322 0.11958797 0.08130947 -0.17337154 0.10272559 0.052753404 0.1666137 -0.10010502
-0.13455465 -0.07306748 -0.00093353074 0.050685253 0.0657363 0.16602434 -0.03158123 0.07016805
0.018007845 0.1651022 0.00041009102 0.0048669716 -0.06396638 0.16208449 -0.007858963 -0.044103477
0.1469415 -0.00268191 0.09146067 0.12683511 -0.09516692 -0.0020746624 0.020471238 -0.09196508
0.092309475 0.13746728 -0.12515825 0.14655437 0.0012804315 -0.15892683 -0.06677361 -0.12486872
0.09522097 -0.026702788 -0.009032655 -0.14810133 -0.16557625 0.13316438 0.11437688 -0.13820168
0.056929745 -0.15252565 -0.037386168 0.05583668 -0.032176185 -0.04337778 0.014396419 0.057845507
0.053352937 -0.083497815 0.046799053 -0.07199269 0.1335293 0.0036205845 -0.00039551695 0.015060359
-0.167546 -0.08907199 -0.035712652 -0.023881316 -0.0063577415 0.07807478 0.097331 -0.008450382
0.01226373 -0.15795815 -0.05018809 0.13922541 0.08274994 0.03296613 0.15951052 0.17073397
-0.030749068 0.10829236 -0.06655674 -0.04897183 0.064238146 -0.13152067 -0.15019445 -0.13978027
-0.08982567 0.11171612 -0.013945878 -0.16217047 -0.14827894 -0.087181106 -0.022880238 0.022973053
-0.16893147 -0.15570311 0.16021144 0.081469856 0.032201223 -0.10490152 -0.14955428 -0.08282063
0.042749107 0.0721078 -0.15261395 -0.13053407 -0.06893906 0.12686421 0.14482747 0.02529924
0.09523018 0.08174315 -0.100799955 0.026009317 -0.17064391 -0.1648553 -0.08886606 -0.038078696
0.109600894 0.03548644 0.13557477 -0.03730351 0.084962584 0.12811215 0.09453118 -0.0889516
-0.07396417 -0.10401624 0.06824834 -0.078500584 -0.009702322 0.15780324 -0.09950147 -0.035607155
-0.10773942 -0.024869803 0.037429783 0.028255217 -0.15148962 0.13146676 -0.1357832 0.010795535
-0.07922167 -0.0050705783 0.021455156 0.07796214 0.13670827 -0.10368607 -0.08504812 0.058344696
-0.05883027 -0.007404045 0.030891683 -0.08532464 0.015371818 0.1616121 -0.10626969 -0.06322907
-0.14104347 0.05049541 -0.10227169 0.030590387 0.17045185 -0.0932286 -0.039529078 0.13485934
-0.11821033 0.040529594 0.1013482 0.014664167 -0.14265367 -0.09715773 0.004136833 -0.0620042
-0.0728036 -0.0077155638 -0.022322956 0.087203324 0.055884674 0.15664072 -0.16872667 -0.041070845
0.01670102 -0.059274573 0.0995672 -0.13614544 -0.07162213 0.13305122 -0.13206042 -0.0031847288
00000000: c82e 16bd 8aeb 02be f98c fcbc 2497 4abd
00000010: 3e63 18be 3054 bdbd ae80 b0bd 1e4c cdbd
00000020: fefc edbd 97c7 db3c 6a3b 1fbe 24f1 b13d
00000030: e651 9ebd 8f84 9cbc 8973 a8bb ffc5 04be
00000040: 5d73 343e 2017 04bd be5b c03d 1815 103d
00000050: 8605 e43d b0ff a43d 3e50 22be a990 88bd
00000060: 8b41 48bd 351a 863d e607 953d cfff ab3d
00000070: ddba 2aba 37e9 66bd 50d1 b5bd 2ce1 23bd
00000080: 71ce 9cbd c581 ecbd cfae 0abe 117d f53d
00000090: 62b6 86ba e752 2d3e 0445 e43d 24e6 b2bd
000000a0: 2500 e5bd 29d9 bdbc 6006 223e 7cdd a23d
000000b0: 2fb4 2ebe e99e 4cbd cc5c 983d b271 afbd
000000c0: 9c4d bbbd 2074 783d 5c4d 83bc 4a39 28be
000000d0: 15a7 e1bd 49e9 14be 0cee a3bd 12c7 573c
000000e0: 3645 073e 236c 8e3d fde7 523d 056e 5f3d
000000f0: 66e1 49bd f242 cfbd f39d 83bd d50a 0e3e
00000100: 9a5d e63d 8aea f43d 9485 a63d 4f88 31be
00000110: cb61 d23d f413 583d c89c 2a3e dc03 cdbd
00000120: b2c8 09be 67a4 95bd 30b8 74ba 579b 4f3d
00000130: c1a0 863d 4902 2a3e 525b 01bd 44b4 8f3d
00000140: 3085 933c 8d10 293e 7c01 d739 1e7b 9f3b
00000150: ce00 83bd 7af9 253e e1c2 00bc d9a5 34bd
00000160: d577 163e fcc2 2fbb bb4f bb3d 10e1 013e
00000170: e0e6 c2bd 0ff7 07bb 4cb3 a73c 3058 bcbd
00000180: c00c bd3d 39c4 0c3e 7c29 00be 5912 163e
00000190: 27d4 a73a b7bd 22be 9ac0 88bd 2cbb ffbd
000001a0: 3603 c33d cebf dabc b3fd 13bc e0a7 17be
000001b0: d28c 29be 3e5c 083e 6d3e ea3d be84 0dbe
000001c0: 2a2f 693d af2f 1cbe 3d22 19bd 01b5 643d
000001d0: 2dcb 03bd e6ac 31bd f5de 6b3c 69ef 6c3d
000001e0: 9c88 5a3d e700 abbd 5db0 3f3d e770 93bd
000001f0: e8bb 083e 5447 6d3b 635d cfb9 b9bf 763c
00000200: 2e91 2bbe 606b b6bd 6e47 12bd c0a2 c3bc
00000210: 9a54 d0bb ace5 9f3d 7a55 c73d 7973 0abc
00000220: d0ed 483c c8bf 21be 0792 4dbd 1b91 0e3e
00000230: cd78 a93d 7e07 073d ba56 233e e3d4 2e3e
00000240: 78e5 fbbc 63c8 dd3d e64e 88bd b096 48bd
00000250: 4a8f 833d 5bad 06be 93cc 19be 8f22 0fbe
00000260: 85f6 b7bd 6ccb e43d 407d 64bc 0410 26be
00000270: 6fd6 17be 028c b2bd 566f bbbc fc31 bc3c
00000280: 5ffc 2cbe a370 1fbe 780e 243e abd9 a63d
00000290: 6ee5 033d 9cd6 d6bd c224 19be dd9d a9bd
000002a0: b019 2f3d 41ad 933d d546 1cbe b9aa 05be
000002b0: ec2f 8dbd b1e8 013e a74d 143e 5a40 cf3c
000002c0: 0a08 c33d f468 a73d 3570 cebd 7e11 d53c
000002d0: 47bd 2ebe d4cf 28be 69ff b5bd 68f8 1bbd
000002e0: 6f76 e03d 3b5a 113d 1dd4 0a3e 91cb 18bd
000002f0: dd00 ae3d d52f 033e 9099 c13d 422c b6bd
00000300: 877a 97bd 7706 d5bd c9c5 8b3d eac4 a0bd
00000310: 7df6 1ebc 2c97 213e 6dc7 cbbd cfd8 11bd
00000320: 7ca6 dcbd c2bb cbbc f94f 193d 7c77 e73c
00000330: 1820 1bbe 399f 063e c00a 0bbe c1df 303c
00000340: f93e a2bd 1827 a6bb b9c2 af3c 9daa 9f3d
00000350: 41fd 0b3e 5d59 d4bd b52d aebd d9fa 6e3d
00000360: 02f8 70bd a29d f2bb 8e10 fd3c afbe aebd
00000370: 14da 7b3c a47d 253e eca3 d9bd 3e7e 81bd
00000380: b36d 10be 46d4 4e3d d273 d1bd b198 fa3c
00000390: ee8a 2e3e a3ee bebd 3ee9 21bd 9118 0a3e
000003a0: 4218 f2bd 5c02 263d a58f cf3d f941 703c
000003b0: ce13 12be a2fa c6bd 458e 873b 1ef8 7dbd
000003c0: 0e1a 95bd d7d2 fcbb a2de b6bc a897 b23d
000003d0: 54e7 643d 6d66 203e afc6 2cbe e739 28bd
000003e0: 94d0 883c e5c9 72bd e3e9 cb3d b669 0bbe
000003f0: a0ae 92bd 943e 083e d93a 07be e2b6 50bb

encoder.cnv1Dmonthly.0.bias f4 [64]
-0.16306908 -0.1266987 -0.07872813 0.101597704 0.12917481 0.060025044 -0.0005816224 -0.06510976
0.0075513604 0.009430062 -0.11021093 -0.12810476 0.13092329 -0.045358997 0.0955558 -0.06727044
0.113820836 -0.10087636 -0.048047666 -0.11754247 -0.15128267 -0.002153436 -0.06474254 0.107173145
-0.08643017 -0.04574613 0.15400991 0.027119827 -0.067186356 -0.043104503 -0.15205544 -0.0972546
0.057994153 -0.06827839 0.06954746 0.14133334 0.07997497 0.108923666 0.15192941 -0.17320892
0.06972762 -0.100705475 0.091562174 0.14263733 0.09503561 -0.014990434 -0.0006701663 -0.12696707
-0.07675566 0.06439246 -0.0944477 0.16133052 0.010753977 -0.09613654 -0.10380957 0.14067249
0.03330647 -0.15955271 0.17781837 -0.09246415 0.06089383 0.012037018 0.005763502 -0.111242756
00000000: 95fb 26be 4ebd 01be 373c a1bd 7512 d03d
00000010: 6746 043e d2dc 753d 0578 18ba 4458 85bd
00000020: 6771 f73b 8c80 1a3c 45b6 e1bd e52d 03be
00000030: c110 063e 5bca 39bd c2b2 c33d 16c5 89bd
00000040: e61a e93d 4498 cebd a1cd 44bd 1bba f0bd
00000050: d8e9 1abe a920 0dbb bd97 84bd 987d db3d
00000060: 4d02 b1bd 4b60 3bbd c6b4 1d3e 662a de3c
00000070: 0099 89bd 598e 30bd 6cb4 1bbe 6b2d c7bd
00000080: 478b 6d3d 8ad5 8bbd e66e 8e3d b0b9 103e
00000090: ebc9 a33d 5f13 df3d 6293 1b3e ae5d 31be
000000a0: 5bcd 8e3d ac3e cebd f384 bb3d 850f 123e
000000b0: 08a2 c23d 709a 75bc 19ae 2fba a803 02be
000000c0: 1232 9dbd 32e0 833d cc6d c1bd d433 253e
000000d0: 7331 303c 3ce3 c4bd 1d9a d4bd 730c 103e
000000e0: 5d6c 083d c961 23be 0516 363e d85d bdbd
000000f0: cf6b 793d ea36 453c c2db bc3b 3ed3 e3bd

encoder.cnv1Dmonthly.2.weight f4 [5, 64, 10]
0.03509153 -0.022403909 0.010880869 -0.03790803 0.0083174985 0.03008888 -0.009965968 -0.016443575
-0.024238536 -0.004637543 -0.03492823 -0.03254287 0.036499348 0.0035820291 0.028197624 -0.018316464
-0.031399485 0.032915547 0.028366849 -0.0013907613 0.03014953 0.005727896 0.032740407 0.0038651903
0.03144 0.032338016 0.01327276 -0.03881974 -0.017613 0.021857318 -0.01976252 -0.0029730664
0.00066620467 0.03068923 0.017144026 -0.007301008 0.0038757047 0.031845663 0.019414384 0.032928824
0.00013788728 0.034818035 -0.019903427 0.034677558 0.03604892 -0.029042743 0.015728762 -0.014125519
-5.2041352e-05 -0.026669836 0.023021512 0.011776394 0.004126547 0.023373272 -0.031363703 0.0058372268
-0.009055925 0.00879114 -3.18446e-05 0.010995301 0.008183825 -0.005443183 0.018003257 0.0055939863
-0.021574335 -0.023209343 0.010494883 0.03596576 0.034078643 0.037230954 -0.019058224 -0.0031896916
0.018534858 -0.028716616 -0.01053939 -0.017048612 0.0046437196 -0.029100293 -0.031922415 0.027083132
-0.027773933 -0.028203115 0.025969012 0.0055958536 0.026884587 -0.03809675 0.02182954 0.030517094
0.037737835 0.02385913 0.024969056 -0.008818399 0.019790167 0.017171662 -0.010472493 0.020136276
-0.011876977 -0.010833076 0.0014582115 0.027972838 -0.034726843 -0.036341883 0.029918516 -0.035880767
0.00456399 -0.007028347 -0.024482304 0.030806262 0.031712845 -0.015148393 0.010705659 0.009365558
-0.021647587 0.029318606 0.012879211 -0.03899305 0.007864128 0.036268048 0.019726953 0.019332044
0.014418585 0.03276194 0.0067546237 0.030604467 -0.024549767 -0.015213391 0.00831513 -0.03184203
-0.0005148335 0.026268141 -0.035980545 -0.0030942587 -0.04032037 -0.020800885 -0.012826144 -0.039909605
0.024062151 -0.024782944 0.010859042 0.03038396 0.01662463 -0.027420593 -0.018955888 0.022152927
0.02570875 0.017765287 0.0070328596 -0.01783495 0.0029931571 -0.023390828 0.030359244 -0.007841106
0.031342067 -0.0003682371 -0.012623074 0.027446155 0.021682514 -0.04122026 -0.025141776 -0.02432588
0.0019977305 -0.034529816 -0.033298288 0.019986816 -0.01859276 -0.035553955 -0.028831944 0.0031743853
0.021613114 -0.00028023447 0.035372827 0.006039806 -0.005719691 0.0093769785 -0.02559185 0.0016234382
0.03230276 0.016729126 -0.021515165 0.007666829 0.029681392 0.021112787 -0.004650336 -7.2163966e-05
-0.007831262 0.01329428 -9.786246e-05 -0.028706525 -0.014565457 0.002051143 -0.0046935417 -0.03165558
0.020382216 0.017387392 0.028720131 0.02374968 -0.030968424 0.012570747 -0.028544933 0.00026012986
-0.031967007 -0.035449676 -0.028098764 -0.006648844 -0.0020215923 0.0048623113 0.025970211 -0.0060487785
0.020112433 0.025783416 0.019030161 0.031616542 0.006552645 -0.03122083 0.017662326 0.0060543725
0.02153256 0.035424273 -0.010973352 0.036019683 0.0270339 -0.021428593 -0.03276325 0.024517063
-0.030435542 0.02576294 -0.03224037 -0.031216495 -0.032807484 0.020049715 0.01690519 0.025709823
0.0076922723 0.011321277 -0.040845938 -0.016327113 -0.013257156 -0.018445693 8.13909e-05 0.0134256445
-0.028411018 -0.026849443 -0.019599987 0.006035353 0.0019226735 -0.0060149 0.012251722 -0.027311087
0.0031161956 0.026534263 0.0056958166 0.015461682 0.019447407 0.018622749 -0.039842147 -0.008916647
00000000: 23bc 0f3d 6788 b7bc ac45 323c 7345 1bbd
00000010: 1e46 083c f47c f63c 4d48 23bc adb4 86bc
00000020: e58f c6bc 88f6 97bb e710 0fbd ac4b 05bd
00000030: 5780 153d 7ac0 6a3b b4fe e63c 690c 96bc
00000040: bf9c 00bd 74d2 063d 9861 e83c 354a b6ba
00000050: 26fc f63c 13b1 bb3b ce1a 063d 224f 7d3b
00000060: 3bc7 003d de74 043d fe75 593c 7301 1fbd
00000070: 2349 90bc 1e0e b33c 02e5 a1bc c7d7 42bb
00000080: 3da4 2e3a fb67 fb3c a171 8c3c 4b3d efbb
00000090: 89ff 7d3b 9970 023d ea0a 9f3c 60e0 063d
000000a0: d695 1039 5b9d 0e3d 830c a3bc 0e0a 0e3d
000000b0: 08a8 133d 0ceb edbc 9bd9 803c b96e 67bc
000000c0: fa46 5ab8 b37a dabc 9c97 bc3c c7f1 403c
000000d0: fc37 873b 4e79 bf3c 3a77 00bd 3546 bf3b
000000e0: 4d5f 14bc b708 103c e190 05b8 a325 343c
000000f0: 7315 063c ba5c b2bb 917b 933c c24d b73b
00000100: a9bc b0bc 8521 bebc bbf2 2b3c d550 133d
00000110: 0c96 0b3d 7c7f 183d fe1f 9cbc 250a 51bb
00000120: 6ad6 973c 1c3f ebbc 68ad 2cbc 88a9 8bbc
00000130: 582a 983b bd63 eebc 14c1 02bd 72dd dd3c
00000140: 2986 e3bc 380a e7bc f7bc d43c 6c5d b73b
00000150: 113d dc3c 560b 1cbd ddd3 b23c fcfe f93c
00000160: fd92 1a3d 3974 c33c e88b cc3c 0c7b 10bc
00000170: fd1e a23c 96ab 8c3c d294 2bbc d5f4 a43c
00000180: a797 42bc 377d 31bc 7521 bf3a 4b27 e53c
00000190: bc3d 0ebd 3adb 14bd ad17 f53c b6f7 12bd
000001a0: 868d 953b 0c4e e6bb 1d8f c8bc 6a5d fc3c
000001b0: 54e5 013d f730 78bc ca66 2f3c ff71 193c
000001c0: 4856 b1bc 932d f03c 5403 533c 2db7 1fbd
000001d0: 8bd8 003c ce8d 143d 6b9a a13c 3c5e 9e3c
000001e0: ee3b 6c3c 6231 063d e455 dd3b 38b6 fa3c
000001f0: 981c c9bc 9641 79bc 2f3c 083c ca6c 02bd
00000200: e4f5 06ba 4930 d73c 5660 13bd 0cc9 4abb
00000210: f926 25bd 9e66 aabc bf24 52bc 4178 23bd
00000220: fd1d c53c 9a05 cbbc 20ea 313c c8e7 f83c
00000230: 6030 883c 27a1 e0bc 6149 9bbc 0e7a b53c
00000240: 289b d23c 8288 913c e773 e63b 9a1a 92bc
00000250: d828 443b 1f9e bfbc f3b3 f83c fb77 00bc
00000260: 8a60 003d f20f c1b9 03d1 4ebc c2d6 e03c
00000270: 879f b13c 93d6 28bd 20f6 cdbc 1147 c7bc
00000280: 5bec 023b 236f 0dbd c963 08bd 64bb a33c
00000290: d84f 98bc 06a1 11bd f830 ecbc 5909 503b
000002a0: fc0d b13c 6fec 92b9 19e3 103d 91e9 c53b
000002b0: 3f6c bbbb e6a1 193c 00a6 d1bc 8cc9 d43a
000002c0: e64f 043d 850b 893c 9240 b0bc 063a fb3b
000002d0: 6426 f33c b9f4 ac3c d961 98bb bc56 97b8
000002e0: b24e 00bc 40d0 593c 823b cdb8 f229 ebbc
000002f0: f4a3 6ebc 786c 063b 48cc 99bb 48a9 01bd
00000300: 9bf8 a63c 0170 8e3c 7b46 eb3c b08e c23c
00000310: 7eb1 fdbc 89f5 4d3c 10d7 e9bc 0a62 8839
00000320: d6ef 02bd ae33 11bd 612f e6bc 8cde d9bb
00000330: b17c 04bb 0654 9f3b 7bbf d43c d534 c6bb
00000340: d4c2 a43c be37 d33c 24e5 9b3c 5980 013d
00000350: 92b7 d63b d3c2 ffbc 95b0 903c c263 c63b
00000360: 0d65 b03c 0b19 113d 93c9 33bc 6089 133d
00000370: 3376 dd3c 048b afbc c232 06bd 02d8 c83c
00000380: f553 f9bc cd0c d33c 7a0e 04bd bcb9 ffbc
00000390: 2461 06bd 4d3f a43c c17c 8a3c 689d d23c
000003a0: 750f fc3b e17c 393c 124e 27bd 70c0 85bc
000003b0: 8b34 59bc 6c1b 97bc 68b0 aa38 3cf7 5b3c
000003c0: 39be e8bc 5df3 dbbc 2790 a0bc 36c4 c53b
000003d0: 3802 fc3a a318 c5bb 72bb 483c 80bb dfbc
000003e0: 1639 4c3b 625e d93c f9a3 ba3b ff52 7d3c
000003f0: 2b50 9f3c bc8e 983c 8531 23bd 2117 12bc

encoder.cnv1Dmonthly.2.bias f4 [5]
-0.03832085 -0.00045322717 0.00097237865 -0.016498083 0.012569745
00000000: 53f6 1cbd 1f9f edb9 3ae7 7e3a fd26 87bc
00000010: 55f1 4d3c

encoder.cnnFusion.weight f4 [32, 335]
-0.031344116 0.019534511 -0.042024218 -0.014722816 0.009450133 -0.010227185 -0.042504523 -0.048803765
-0.053955108 0.033838086 -0.03509095 -0.031720053 0.040368564 -0.014935564 -0.05432801 -0.0041455273
-0.024065169 -0.024530495 -0.03931573 -0.019213818 0.014960177 0.034972988 -0.042448066 -0.03042549
-0.05164746 -0.03451119 -0.03393949 -0.020185549 0.024530692 -0.023213 0.030148022 -0.00025636458
0.03555147 0.0069082356 -0.034003288 -0.0073425774 0.017425051 0.0007206256 -0.03458128 0.0056871036
-0.025009573 0.03443387 0.042526476 0.0023989945 -0.033821627 -0.02871205 0.039500836 0.0313345
0.034395326 0.009508131 -0.019642046 -0.044417225 0.03761234 -0.047525115 -0.049636178 0.027130771
-0.0014958156 -0.03563877 0.019200465 0.022852154 -0.022831064 0.0037357716 -0.0456443 0.008912646
-0.00060921826 0.04163085 0.046195485 0.0038733284 0.022123288 -0.04967784 0.031752475 0.042123947
-0.020759314 -0.0075789085 -0.009669959 0.043672953 -0.03963503 0.044626556 -0.05583852 0.0016681595
-0.052371953 0.0047470364 -0.020653963 0.019196 -0.05215489 -0.05674184 0.04731048 -0.0041691526
-0.002681405 0.043366343 0.0068238582 0.037372876 -0.005678117 -0.014228946 -0.03389285 -0.043199014
-0.04485974 0.011516763 0.0513093 0.0056990855 0.046841025 -0.030230157 -0.051159684 0.033891466
0.049928773 2.1690987e-05 -0.0070252996 -0.012698118 0.04121041 -0.05251366 0.024849726 0.042759
-0.018863047 -0.0022934154 0.04696784 -0.033257842 -0.008791895 0.044628736 0.0023274967 -0.047859702
-0.035481844 -0.03400045 -0.021135617 0.023153355 0.018603075 0.028405452 -0.019070847 -0.0343333
-0.011818964 -0.021499244 -0.033543345 0.039416794 0.021721242 0.003796642 0.018169666 0.054507677
-0.021237813 0.0025440506 -0.034739558 -0.022503745 -0.00566614 -0.03925625 0.016301502 0.013999717
0.021909738 -0.024329646 0.02600985 0.002770552 0.048272174 0.031278346 -0.04705077 -0.0489632
0.01823966 -0.044741325 -0.04366312 -0.0027491453 0.030239718 0.011873298 0.03170562 -0.03157284
-0.018334921 0.034676656 0.036298607 -0.003210229 -0.0007007978 -0.02060171 0.021069525 0.022915997
-0.044810895 -0.026354056 0.0014598796 -0.021639599 0.023121154 0.048056204 -0.036726855 -0.018479763
0.001951638 -0.047018684 -0.0035744892 -0.02869914 0.043348264 -0.004840631 -0.040052675 0.006748382
0.05415722 0.0027704083 -0.04450654 0.047890358 0.020735301 -0.0113388905 0.00877856 0.046889715
-0.04595677 -0.038585674 -0.011455138 0.034960985 -0.029701294 0.02459691 0.046065565 0.026457302
-0.04034424 -0.0064552436 -0.0074252402 0.02017449 0.044027694 0.045696232 -0.050118063 0.053748187
-0.034770127 0.015945913 0.015322233 -0.040319726 -0.012174886 0.047534306 -0.01283771 0.001758011
-0.049698003 -0.033871777 -0.04912767 -0.025238683 -0.022255579 0.05516111 0.01861518 0.0065237856
0.048439935 -0.02173623 -0.043383587 0.030282686 0.0400319 -0.052956432 -0.042883143 0.049267102
-0.008926222 -0.042675402 0.04382465 -0.025076587 -0.023781534 0.026156224 0.03767357 -0.020647505
0.0081177475 -0.03687067 -0.009416361 -0.03958479 -0.05054794 0.016213344 -0.021136487 0.020779822
0.033116665 -0.03491489 -0.05082688 0.016638704 -0.012398528 -0.025399724 0.03119024 -0.0020694938
00000000: b062 00bd d706 a03c 9621 2cbd f737 71bc
00000010: bbd4 1a3c ec8f 27bc 3919 2ebd 75e6 47bd
00000020: 0800 5dbd ce99 0a3d 87bb 0fbd e3ec 01bd
00000030: 8259 253d 4cb4 74bc 0c87 5ebd 34d7 87bb
00000040: 5124 c5bc 2df4 c8bc 8809 21bd 4c66 9dbc
00000050: 881b 753c d63f 0f3d 06de 2dbd e13e f9bc
00000060: 498c 53bd 9b5b 0dbd 2204 0bbd 2a5c a5bc
00000070: 97f4 c83c 3029 bebc fcf8 f63c ac68 86b9
00000080: 6b9e 113d 7b5e e23b 0847 0bbd 019a f0bb
00000090: fbbe 8e3c 5ee8 3c3a 1aa5 0dbd e25a ba3b
000000a0: e0e0 ccbc 880a 0d3d 3e30 2e3d 7338 1d3b
000000b0: 8c88 0abd 8835 ebbc a1cb 213d 9b58 003d
000000c0: 1de2 0c3d fec7 1b3c 5be8 a0bc d6ee 35bd
000000d0: 660f 1a3d b2a9 42bd 4e4f 4bbd 5a41 de3c
000000e0: 3e0f c4ba f5f9 11bd 4b4a 9d3c 7134 bb3c
000000f0: 3608 bbbc d9d3 743b 84f5 3abd 5906 123c
00000100: f2b3 1fba 1c85 2a3d 7a37 3d3d abd7 7d3b
00000110: e63b b53c fe7a 4bbd e20e 023d 298a 2c3d
00000120: 700f aabc 7e58 f8bb bf6e 1ebc 69e2 323d
00000130: 5758 22bd 56ca 363d efb6 64bd 25a6 da3a
00000140: f983 56bd 078d 9b3b 8032 a9bc ee40 9d3c
00000150: 5ea0 55bd 226a 68bd a2c8 413d 639d 88bb
00000160: 83ba 2fbb e8a0 313d ac9a df3b 4d14 193d
00000170: 7f0f babb 8620 69bc 3bd3 0abd 73f1 30bd
00000180: d9be 37bd ceb0 3c3c b329 523d 65bf ba3b
00000190: 60dc 3f3d 3ca5 f7bc d18c 51bd c7d1 0a3d
000001a0: 1d82 4c3d 0af5 b537 7c34 e6bb c40b 50bc
000001b0: 3fcc 283d 9018 57bd a791 cb3c 1024 2f3d
000001c0: ad86 9abc 204d 16bb 5a61 403d 6039 08bd
000001d0: e10b 10bc 9fcc 363d ea88 183b 8908 44bd
000001e0: 6955 11bd 0e44 0bbd 9a24 adbc 1bac bd3c
000001f0: 7a65 983c 8db2 e83c 773a 9cbc 13a1 0cbd
00000200: 54a4 41bc 2f1f b0bc bf64 09bd 8173 213d
00000210: bff0 b13c 15d1 783b 8dd8 943c 7143 5f3d
00000220: ecfa adbc 16ba 263b 114b 0ebd c659 b8bc
00000230: 07ab b9bb 29cb 20bd ba8a 853c 125f 653c
00000240: 0d7c b33c f74e c7bc 9c12 d53c 2692 353b
00000250: 0bb9 453d b91d 003d 4fb8 40bd a38d 48bd
00000260: 576b 953c ae42 37bd 1ad8 32bd 012b 34bb
00000270: 49b9 f73c 3988 423c c1dd 013d 8652 01bd
00000280: 1e33 96bc 1c09 0e3d d9ad 143d b562 52bb
00000290: bfb5 37ba ebc4 a8bc ff99 ac3c 54ba bb3c
000002a0: a18b 37bd 76e4 d7bc 6e59 bf3a 8745 b1bc
000002b0: 9368 bd3c 95d6 443d e66e 16bd df62 97bc
000002c0: 1bce ff3a aa96 40bd fa41 6abb 751a ebbc
000002d0: f38d 313d 289e 9ebb 460e 24bd 8821 dd3b
000002e0: f6d3 5d3d bd8f 353b 7d4c 36bd ae28 443d
000002f0: 14dd a93c c1c6 39bc f3d3 0f3c 6e0f 403d
00000300: 2b3d 3cbd 030c 1ebd 55ae 3bbc 4033 0f3d
00000310: 2150 f3bc 767f c93c 3faf 3c3d fcbc d83c
00000320: 0040 25bd 8286 d3bb 6e4f f3bb f944 a53c
00000330: 6256 343d f92b 3b3d 9948 4dbd 0f27 5c3d
00000340: 1f6b 0ebd 01a1 823c 1a0a 7b3c 4c26 25bd
00000350: 2c79 47bc 55b3 423d 4255 52bc 106d e63a
00000360: 2290 4bbd 22bd 0abd 183a 49bd 5bc1 cebc
00000370: 5551 b6bc 9ef0 613d dd7e 983c 7bc5 d53b
00000380: f468 463d 2e10 b2bc fdb2 31bd 6513 f83c
00000390: 7df8 233d d8e8 58bd 3ca6 2fbd 4dcc 493d
000003a0: 4a3f 12bc 67cc 2ebd 7a81 333d 6a6d cdbc
000003b0: 7ed1 c2bc 9445 d63c 9a4f 1a3d f524 a9bc
000003c0: 4d00 053c b305 17bd 1547 1abc a923 22bd
000003d0: 5b0b 4fbd d9d1 843c 6d26 adbc 723a aa3c
000003e0: 57a5 073d ea02 0fbd d92f 50bd e44d 883c
000003f0: 3223 4bbc 1513 d0bc ad82 ff3c 58a0 07bb

encoder.cnnFusion.bias f4 [32]
0.07278536 -0.008480212 0.06775606 0.0020789402 0.0036451113 0.05336113 0.038078707 -0.012889005
0.03321932 -0.014642848 0.017200448 0.004707682 0.055262752 -0.02683289 -0.03499047 0.031019237
0.046966076 -0.041893315 -0.031296637 0.023130788 0.038887367 0.03494906 -0.02026377 0.027234215
0.0016852379 0.021198861 -0.035913065 -0.04715333 0.050996803 -0.047219507 0.0449005 0.038956583
00000000: 7e10 953d 96f0 0abc b0c3 8a3d d43e 083b
00000010: d2e2 6e3b 3391 5a3d 6bf8 1b3d 682c 53bc
00000020: fb10 083d 8ee8 6fbc f4e7 8c3c e642 9a3b
00000030: 325b 623d a6d0 dbbc 2b52 0fbd 0e1c fe3c
00000040: 805f 403d 5398 2bbd e730 00bd c77c bd3c
00000050: 5c48 1f3d bf26 0f3d 3500 a6bc 4a1a df3c
00000060: 33e3 dc3a 3ca9 ad3c 9419 13bd da23 41bd
00000070: 06e2 503d 3e69 41bd 96e9 373d f090 1f3d

encoder.rnn.0.weight_ih_l0 f4 [15, 3]
0.265239 -0.12321074 0.06652321 0.1239039 0.10636908 0.27108565 -0.22466023 -0.010101646
-0.22731173 -0.28462353 -0.26519042 0.40452847 -0.18148218 0.3662023 -0.17746921 -0.2548905
-0.24495612 0.061456013 -0.17495553 -0.23956428 -0.1838798 -0.015849814 -0.2971605 -0.33378962
-0.22946507 -0.024438389 -0.3364519 -0.4110898 0.3167765 0.26714 -0.27825603 0.24421525
0.17152804 -0.11722807 -0.25884622 0.35603964 0.19619678 -0.3247679 0.12691295 0.10593434
0.30528468 -0.2366215 -0.25769794 0.255337 0.18663663
00000000: 68cd 873e ea55 fcbd 523d 883d 54c1 fd3d
00000010: 08d8 d93d bdcb 8a3e 550d 66be 6081 25bc
00000020: 68c4 68be 2dba 91be 0ac7 87be 5b1e cf3e
00000030: 77d6 39be de7e bb3e 7dba 35be 0281 82be
00000040: c7d5 7abe 4db9 7b3d 8b27 33be 5750 75be
00000050: fc4a 3cbe 78d7 81bc 6c25 98be 79e6 aabe
00000060: e4f8 6abe 0433 c8bc 6c43 acbe 5d7a d2be
00000070: 8830 a23e 93c6 883e 9377 8ebe 9013 7a3e
00000080: 0ca5 2f3e 4515 f0bd 7e87 84be d44a b63e
00000090: cfe7 483e fa47 a6be 78f5 013e 1af4 d83d
000000a0: 464e 9c3e e84c 72be fcf0 83be 88bb 823e
000000b0: ac1d 3f3e
