checkpoints_0/hoynet_5.pth (torch, 166193 bytes, 58 tensors)

encoder.cnv1Ddaily.0.weight f4 [64, 3, 1]
00000000: 4196 f2be b743 c83e bd6c 22be c3cd 98bd
00000010: 1ae6 273e cf3d 2dbe 2106 f33d ab8f f23e
00000020: 0f9e 0dbe f42b e93e ee59 acbe 968b 60be
00000030: b185 153e 263f 25be 63e3 8a3d 4b7b 483e
00000040: 2c5c 8e3e 8849 3dbe a0da 053e 87fe d6bc
00000050: 8fa1 e03e 1af1 e6be d16a 8fbc 0c82 063d
00000060: 3702 aabe 4dde da3e 5f0b b3be 01f7 86be
00000070: feb0 86be 35f6 e9bd b6a4 53be cb52 c4be
00000080: c0be 32bd 55b7 82bc 669a 953e 52d2 fc3e
00000090: 914d febe 6072 29bd f30b a83e cda9 8ebe
000000a0: 900e 653e d9ed ff3e bed7 ec3e c31c d1bd
000000b0: 229c 0ebf ce97 09bc eb79 003d adeb d93e
000000c0: f426 07bf 6023 b63e 4236 10be 59d5 e33e
000000d0: 02f7 d9bd eb93 9f3e b2b0 ff3e f97a cd3e
000000e0: 756c ad3c db7a 223e 610d 0b3f 494a a23d
000000f0: 88c6 823e 5d79 98be 54e3 67be e925 ce3d
00000100: 72e4 25be dade 863e 6f61 a73d 8ea5 c1bd
00000110: 1c6b c5be 9d03 26be b90b f73e c959 cfbc
00000120: 5c72 60be 9fb4 1e3c a9ff 4ebe 1144 073f
00000130: 7ccd bd3d ec65 543e 34ae 80be 4ca1 83bd
00000140: 5ba6 5c3d 6aa0 ddbe a156 87be d17b 9d3d
00000150: 781d d5be aef7 08bf e152 0c3f 1162 d4bd
00000160: 6f77 9f3d 5a64 c13e 4b6b acbd a459 95be
00000170: 020f abbe 930e ee3e 7af9 e23e 5e0f a93e
00000180: a6c7 84be b0e1 a13d 401e ce3e 2336 e9bd
00000190: 5d5f d63e bcc2 c43d af8a 98bd 857f ac3d
000001a0: 407f 123f d7cd f7be 6c32 c1be baa9 f63e
000001b0: 5cda a73d 20af 163e fa47 dfbe 4168 27be
000001c0: 920a 28bd 77dc 513e d8c6 0b3f d23d 983e
000001d0: c38f 02bf 3c7f e63e d034 433e a9a5 6f3e
000001e0: bbf4 3b3c b49c d5bd c169 cfbe 8466 3f3e
000001f0: 3c70 d33e d97e b13e 4f71 8e3e 6673 c13e
00000200: 199d 953d aaee f43e 917e 133e af6e bebe
00000210: 04b1 0dbf 5841 fabe a208 babe 0502 063f
00000220: b1dd 3fbe 325a a73e b2da b8be af73 adbe
00000230: d4c4 02bf fbf8 e63e 9c3c ec3d ec83 c83e
00000240: 4535 093f 952c 53bd 69f9 debe 02f7 0b3d
00000250: 367b 6c3e 97e8 c6bd fb34 01bf bd35 f7be
00000260: c031 0dbf 39ba eb3e 4575 a5bc 3cf2 a83d
00000270: 4a2f 743e 9e20 d4be eb9a babe 9451 dfbe
00000280: bd21 43bc ce15 a3be 6d5d 183e 2112 043f
00000290: 3a6a 233d 25a3 013f 06c5 103f 99dd 1c3e
000002a0: 6a17 ecbe fb35 b7be ead3 d7be 8be7 ef3e
000002b0: 4c91 d5bd 91ff febe c7c1 033f 9ffb f8bd
000002c0: 50ab bb3e 7094 f9be 81ea 0a3f 23e4 f23d
000002d0: 110f 1a3e 00a9 0d3f 1c09 d2bc 6468 543e
000002e0: 4055 dbbc f243 8abe d50a c43e 06bc 0bbf
000002f0: 32cd c73e 4870 78be ca76 ee3d a062 84bc
-0.4738026 0.39114162 -0.15861793 -0.07461121 0.1639637 -0.1691811 0.11866403 0.47375235
-0.13829826 0.45541346 -0.3366236 -0.21928248 0.1460178 -0.1613737 0.06781652 0.19578283
0.27804697 -0.18485081 0.1307168 -0.026244415 0.4387326 -0.4510582 -0.017506989 0.032838866
-0.33204815 0.42747727 -0.34969613 -0.26360324 -0.2630691 -0.114239134 -0.20668301 -0.38344416
-0.043638945 -0.01595656 0.2921936 0.49379212 -0.49668553 -0.041368842 0.32821617 -0.27863923
0.22368836 0.4998615 0.46258348 -0.10210564 -0.5570699 -0.008398009 0.03136627 0.4256262
-0.5279381 0.35573864 -0.14083198 0.4449871 -0.10642816 0.3116754 0.49939495 0.40132883
0.02116988 0.15867178 0.5431729 0.07924325 0.25542092 -0.29780093 -0.22645313 0.100658245
-0.16200426 0.26341897 0.08172881 -0.09455405 -0.3855828 -0.16212316 0.4825113 -0.025311368
-0.21918625 0.009686618 -0.20214714 0.52838236 0.09267709 0.20742005 -0.25132906 -0.06427249
0.053869586 -0.4328645 -0.2643328 0.07689632 -0.41624045 -0.5350293 0.54813963 -0.10370267
0.07786452 0.37771875 -0.08418902 -0.29169953 -0.33409888 0.46495494 0.4433096 0.33019537
-0.2593357 0.079043746 0.40257454 -0.11387279 0.4186963 0.09607455 -0.07448327 0.0842276
0.5722542 -0.4839923 -0.3773378 0.48176366 0.081959456 0.14715242 -0.436096 -0.16348363
-0.041025706 0.20494257 0.54600286 0.29734665 -0.5100061 0.45018947 0.19063115 0.23403038
0.0114719225 -0.104302794 -0.4051037 0.1869145 0.41296566 0.3466709 0.27820823 0.37783355
0.073053546 0.47838336 0.1440375 -0.3719382 -0.5534823 -0.48877978 -0.3633471 0.5234683
-0.18736912 0.32686 -0.3610435 -0.33877322 -0.51081586 0.45111832 0.11534998 0.39163148
0.5359691 -0.05155619 -0.4354966 0.034171112 0.23093876 -0.09712332 -0.50471467 -0.48283187
-0.5515404 0.46040514 -0.02019752 0.082493275 0.23846164 -0.41431135 -0.36446318 -0.43616927
-0.011909899 -0.31852573 0.14879389 0.5159016 0.039896227 0.50639564 0.56550634 0.15318908
-0.46111614 -0.3578337 -0.42153865 0.4685634 -0.10428104 -0.49804357 0.51467556 -0.12157368
0.3665414 -0.4874606 0.54264075 0.1185992 0.1504481 0.55336 -0.02563911 0.20742947
-0.026774049 -0.27004963 0.38289514 -0.54583776 0.3902374 -0.24261582 0.11643751 -0.01616031

encoder.cnv1Ddaily.0.bias f4 [64]
00000000: bd8f acbe 4d34 c93e ba35 bfbe 3165 c33e
00000010: bde0 b0be e00b ad3d 7c16 463e b70c 84be
00000020: 47cb 32be af9b 053f 08eb 823e b070 eb3e
00000030: 63e6 0e3f 1ab8 783e 34fb c0bc 4f7e 833e
00000040: de0e b33e c775 683e d401 663e 5876 d3be
00000050: de06 ec3d d804 ebbe 819a 68be 9a93 30bd
00000060: b7c6 bb3e d28b c1be 189e c83e 7333 653e
00000070: 457a 12bf dcc5 09be e706 12bf 10e1 c0be
00000080: 31a7 abbe c8a4 debe 74de 91be 2dd3 fcbe
00000090: 55bd 053f 9585 883e afe2 9f3e ae65 cebe
000000a0: bffa aebe bdc8 02bd 24ae babe e0b2 d1be
000000b0: 3976 b2be 19cf 09bd a363 113f fdaf 503e
000000c0: e906 0a3f 4e21 313d 3372 bdbe fd31 163f
000000d0: d399 fe3e 4f32 b0be fa71 d93e ccaf 6abe
000000e0: 8e17 90bd 2192 0e3e 453a 2b3e e7e5 a0be
000000f0: 2217 e03e b31b 2c3e f142 00bf 73e6 863d
-0.33703414 0.39297715 -0.37345678 0.3816314 -0.34546462 0.084495306 0.19344515 -0.2579095
-0.17460357 0.5219068 0.2556994 0.4598441 0.5582029 0.24288979 -0.023557283 0.25682303
0.3497228 0.22701178 0.22461635 -0.41301227 0.11524747 -0.45902133 -0.22715189 -0.043109514
0.36675045 -0.37801987 0.39183116 0.22382908 -0.5721782 -0.13454384 -0.5704178 -0.3767171
-0.33525994 -0.43485093 -0.2849003 -0.49379864 0.5224202 0.26664415 0.31227633 -0.4031195
-0.3417568 -0.03192972 -0.36460984 -0.40956783 -0.34855822 -0.03364477 0.5679266 0.20379634
0.53916794 0.043244652 -0.3700119 0.58670026 0.49726734 -0.34413382 0.4246977 -0.22918624
-0.07035743 0.13922931 0.16721447 -0.31425402 0.4376765 0.16807441 -0.50102144 0.065869235

encoder.cnv1Ddaily.2.weight f4 [5, 64, 1]
00000000: 263f d73d 52b5 4a3c f14a 2d3d f271 dabd
00000010: 4eb2 893d 585a d0bd f7b7 723d 6d45 a8bd
00000020: ee39 60bd 163e b4bd a02a 34bd 285c 57bc
00000030: ef4c c83d 947a b4bd ceee acbd d0b0 803c
00000040: 7f81 ed3d 7bcb 11bd df89 44bd 6818 af3d
00000050: ed4d c6bd 7184 3a3d 79b1 ccbc 0526 c93c
00000060: 6332 1c3d ad2e 883d 1a68 4c3c 8a8c e73d
00000070: 5a1d 8e3d 1654 02be 50b0 6a3c 690d 01be
00000080: b613 b1bd 88ae 613b 678f f8bd a822 e0bc
00000090: 78ab dcba 22f3 0c3c 5b8c 94ba ef95 14bd
000000a0: 378e 9dbd c2e4 e73d d4f3 ce3d c35e bd3b
000000b0: 10f2 15bd 17a1 973c 625e e2bd c351 d03c
000000c0: 5c65 4ebd f423 ecbd b5f5 a6bd dfdd df3d
000000d0: 23de 9dbd 40f8 c63d 7e60 c33d 9f30 11bd
000000e0: 69e6 53bd 5866 4dbd 175d 8e3d 04f1 e3bd
000000f0: 18d0 e13d a67a a33d 59d4 d6bc 23fb 5e3d
00000100: 5971 afbd 50a2 fa3d dc43 77bd 4f15 d83c
00000110: 151a 82bd b555 acbd 3dd0 e53d a3a9 293d
00000120: 4c40 393d 1d79 553d 2879 e03c 15e0 2ebd
00000130: 6858 fe3d 534e eb3d 2db5 d2bd 7c86 8bbd
00000140: 3a4e 00be 5261 ebbc abff 863b 9617 c2bd
00000150: e79d ea3c c553 ac3c d972 fd3d 9d80 bebd
00000160: 393a f43d a272 e03d 8b59 7e3c 53c9 9e3c
00000170: dcaa 4f3d 7452 e03d 0011 d2bc 7289 933c
00000180: f7fc 4abb ac00 31bc c58b f6bd e8c6 b83c
00000190: 7ac4 a83d c3a4 f4bd f98a a13d da7c 0dbd
000001a0: 0e5a 473d 88e2 adbc bb03 dabd d2b8 d2bc
000001b0: adc2 9fbc 0495 61bd 72c4 f83d 9137 48bc
000001c0: aa4e b2bd 8ee1 323d 9d14 c3bc 8a47 d03d
000001d0: b986 57bd 0936 353d 7b5d 00be 4bd2 ca3c
000001e0: 9cb5 b03d 1c7b b73a 5169 713c 78ef b83c
000001f0: 295e c4bb e031 dabc 4511 a4b9 e68a dcbd
00000200: c283 dabd b229 b9bd ba4c 313d a2b9 893c
00000210: 438c 9ebd e6ba 913d 3c31 78bd 8b17 ca3d
00000220: 9908 ddbd 7145 25bd 6b60 823d 8a9f b43b
00000230: 0661 3e3c 715d 6f3d 8cd7 ccbb 547c b83d
00000240: c2c0 8bbd 92f5 953d 9f73 c03d 130e cbbb
00000250: 13a7 9d3d 66ee c83c 9afd eebd b841 11bc
00000260: 8884 753d bdc5 a8bd 56b3 e2bd c82a c3bd
00000270: 5090 c33d 88f6 e13d e449 16bd c667 debd
00000280: 9fdd 3bbd 7976 023e fc21 f03c b2d2 fbbd
00000290: a025 45bc f2ca d03c 5f6a ed3b d072 c3bd
000002a0: 8d0e 4ab8 7688 713d 892d 8b3c bd8e 68bd
000002b0: 9091 b53d a5f5 943d 6bfd dabd 55fd 043e
000002c0: 39fe e9bc e18d 4fb9 73a1 073b b968 fb3d
000002d0: 9704 da3d 0ef5 23bd f5c8 afbd 9857 393d
000002e0: af15 ccbd ad7a 80bd 119d bdbd ce03 a33c
000002f0: dc4d a83d 382c 92bd 11dc b9bd 408d f73b
00000300: 4341 5c3d 5056 aa3d 6a81 ca3d 977d 78bd
00000310: 42ce 503d 85d9 eebb dbe4 b43c ceb7 73bc
00000320: 302d 18bd fb67 e43d 9bd5 eabd 7be8 72bd
00000330: dd7c 2f3d c38d fd3d 1f1d 0e3d d763 13bd
00000340: 1f85 df3d 5481 ae3d 0208 503d d45b b8bd
00000350: ed97 f1bd 3fd4 d53c be17 21bc 7329 b9bd
00000360: 5744 1a3d 7cef 2bbb 989d 933d f27a 223d
00000370: ccce de3d b245 dc3d f009 453d 7203 1c3d
00000380: a451 e53d fca9 973d ab5b 4a3d 0061 773b
00000390: 21ba dabd 354d 533d 1014 113c 6f9c bc3d
000003a0: 9ebf 89bd 02ba ac3d 91fa 2dbd cc5b f33d
000003b0: a183 f13d 58f7 61bc a11a 933d 94ab d73d
000003c0: ea72 8ebd eeff 843d bccb 32bd 605b 1dbc
000003d0: 8632 29bd 4763 88bc dd00 993d 0f1e c9bd
000003e0: 105c e1bc 7df3 db3d 4595 dabd c5d2 c5ba
000003f0: ac4f 8dbd 1aec b1bc b372 8e3d d8e4 113d
0.105100915 0.012372332 0.042307798 -0.106662646 0.06723462 -0.10173482 0.059257474 -0.08216367
-0.054742746 -0.088009045 -0.043985963 -0.01314453 0.09780299 -0.088124424 -0.08443986 0.01570931
0.11596965 -0.035594445 -0.047983047 0.08549577 -0.09682832 0.045536462 -0.02498697 0.024554262
0.03813399 0.06649528 0.012475992 0.113061026 0.06939192 -0.12727389 0.014324263 -0.12602772
-0.08646338 0.0034436304 -0.12136727 -0.027360275 -0.001683577 0.008602889 -0.0011333333 -0.0362758
-0.07693141 0.11322929 0.101051 0.0057791187 -0.036607802 0.01850943 -0.11053158 0.025429612
-0.050389633 -0.11530295 -0.08152334 0.109309904 -0.07708385 0.09715319 0.09539889 -0.03544676
-0.051733408 -0.05014643 0.06951349 -0.111299545 0.11026019 0.07982378 -0.026224302 0.05443872
-0.08566541 0.1223799 -0.06036745 0.026377348 -0.06352631 -0.08414785 0.11221359 0.041421544
0.045227334 0.052117456 0.027401522 -0.04269417 0.12419206 0.114895485 -0.10288463 -0.0681276
-0.12529841 -0.02873293 0.0041198335 -0.09477155 0.028639747 0.021036038 0.12375421 -0.09301875
0.119251676 0.109593645 0.015524278 0.019383108 0.050700054 0.10953227 -0.025642872 0.018009875
-0.0030973533 -0.010803383 -0.12038378 0.022555783 0.082406 -0.11945488 0.07887835 -0.034542896
0.048669867 -0.021226183 -0.10645243 -0.025722895 -0.019502008 -0.055073753 0.12146844 -0.012220279
-0.0870641 0.043672137 -0.02381354 0.10169895 -0.052618716 0.044240985 -0.1253566 0.024758479
0.08628389 0.0013998481 0.014734582 0.022575125 -0.00599267 -0.02663511 -0.00031293384 -0.1076868
-0.10669662 -0.09041156 0.043286063 0.01681215 -0.077415965 0.07115726 -0.06059383 0.09867772
-0.107926555 -0.040349428 0.063660465 0.0055121826 0.011619812 0.058438722 -0.006251281 0.09008089
-0.06823875 0.073222294 0.09397053 -0.006196746 0.076978825 0.02452774 -0.116694644 -0.008865766
0.059940845 -0.082408406 -0.11069362 -0.09529644 0.0954901 0.1103335 -0.03669156 -0.10859637
-0.04586565 0.12740506 0.02931308 -0.12296046 -0.012032896 0.025487397 0.0072453464 -0.09543383
-4.8174104e-05 0.05896803 0.016989486 -0.05677675 0.088656545 0.072734155 -0.10692867 0.12987264
-0.028563606 -0.00019793912 0.0020695596 0.12275834 0.10645407 -0.040028624 -0.085832514 0.04524955
-0.09965073 -0.062733985 -0.09258474 0.019899275 0.082179755 -0.0713734 -0.090751775 0.00755468
0.053773176 0.08317244 0.09887965 -0.060666647 0.050977953 -0.007289114 0.022081783 -0.014875365
-0.03715247 0.11152645 -0.11466523 -0.059303742 0.04284369 0.123805545 0.03469574 -0.035983887
0.10914063 0.08520761 0.050788887 -0.0900189 -0.11796556 0.026102183 -0.009832321 -0.09041109
0.03766283 -0.0026235273 0.07207793 0.03966803 0.10879287 0.10755481 0.04810518 0.038089223
0.11197212 0.07405469 0.049403828 0.0037747025 -0.106800325 0.051587302 0.008854881 0.09209525
-0.06726001 0.08433916 -0.042475287 0.11882743 0.11792684 -0.0137918815 0.071828134 0.10530773
-0.06955512 0.06494127 -0.043651327 -0.009604305 -0.04130795 -0.016648902 0.07470868 -0.09820186
-0.02750972 0.10739801 -0.10673002 -0.0015092721 -0.06899962 -0.021719027 0.06955471 0.035618633

encoder.cnv1Ddaily.2.bias f4 [5]
00000000: e6a5 fb3d fc96 7f3d 512f c9bc 52b3 c03b
00000010: e7ed a8bd
0.12287502 0.06239985 -0.024558695 0.0058807516 -0.08248501

encoder.cnv1Dweekly.0.weight f4 [64, 3, 5]
00000000: 1e36 42be a82e c9bd 4c79 3c3e ab1e a3bd
00000010: 201c 6fbe 61a8 19be cd02 49bd caaf 24be
00000020: cf82 00bd d92e 0abd 236c 2e3e 7d30 82bb
00000030: 94bd 21be 7724 e1bd f392 72be 8214 4ebe
00000040: add6 3d3e e570 29be 7a58 123d f943 2e3e
00000050: 51a8 76be 2dfa 10be 0e5e 003c 0733 0bbc
00000060: 40b7 12bd 9668 ec3d 9cdf 64bd a275 28be
00000070: fa7e c9bc fca2 5b3e ff7c 703e 542e 42bd
00000080: 804b c3bc 88a2 4cbd 90fa 21be a905 ffbc
00000090: 75b3 6abe 64c5 0e3e 26b4 713e 7e4c 05bd
000000a0: d230 24be 4231 3d3e 27d5 f6bd 2032 443e
000000b0: 909a 623d 66e5 d13d d6ce 533e b39b 4a3e
000000c0: 3bf6 3bbe 0a74 003e b725 e1bd 1b57 2d3e
000000d0: 90ab 75be abca 40be 1171 d23d 80a4 05be
000000e0: 61ab cbbc 8780 b03d ae4f 06be 6f83 dcbd
000000f0: 79ef f93b add3 ab3d d086 623e 4d30 38be
00000100: 58da 37be 0132 313e 034c f73d c34c 2cbe
00000110: aef7 3abe 4c3a a4bc 686f 2cbe c675 113b
00000120: 9d79 11be 470a d73a cb6e 6cbd b245 7ebe
00000130: 0e9d 4cbe 9996 1c3e 13d0 64be 815c 613d
00000140: 2fd9 30be c657 ab3c 7d23 cbbd 7ede f2bc
00000150: 86e7 20be b668 48bc 7cf2 6a3c 40e8 0fbd
00000160: ebb4 01be d68e 7f3e 5708 3b3e 3f45 1cbe
00000170: b1ff 35bd 14fa 34be 3717 503d e3e2 4c3d
00000180: 39e4 4b3c 6874 1fbd 09cb 38bd 5fe0 90bd
00000190: 6993 3fbe 3922 03bd e3a9 603e 3416 74be
000001a0: 800b 8d3b d774 4ebe 7c27 51be a3c8 513d
000001b0: b870 313e 2295 503e 521d b1bc 355e a03d
000001c0: 7003 613e 873e c03d 527f 34bd ad07 86bd
000001d0: 8834 3ebe 49ff babd 639b 5cbe fb8f 07be
000001e0: 38b1 7ebe 623c a33d bfb1 a23d 93eb 803d
000001f0: 3b68 153d e92b 433e d57d 333e d4fe 2b3e
00000200: 07f0 e13d 06d0 de3d ccd8 7ebd 445c 74be
00000210: dbc1 273e e62c 9a3d 5763 32be 1e89 3f3e
00000220: a153 56be e2c5 04be 6d34 6dbe d8b9 b4bd
00000230: a265 823e 0112 9dba 36df 083e 7668 2abe
00000240: 8a1f c7bd 8b51 dd3b ef5c 06be 9798 9cbc
00000250: 818d 7c3d 3242 85bd 2dac 823e a654 11be
00000260: 124c 44be 2780 4c3e db6c 2abe 969b 7e3e
00000270: 1ce3 203c 092b 843e de4e 34be 3620 14be
00000280: 8211 093e 4a95 053e 1e6f f7bd 3f8b 593e
00000290: a6d6 3c3e af6a e43d b457 763e 48cf 673e
000002a0: dec1 8abc f6b6 173e fd96 0bbd 39ea 6e3e
000002b0: 486e 463e 518c 933d 558b c3bd 82bb 7e3d
000002c0: 39ac d13d a3b7 253e 5911 59be 8a4b 73bd
000002d0: 79e1 66be 5d48 bcbd 3598 1cbe de74 7ebe
000002e0: 4edb 9f3d b5c8 4ebe 9e4b 7a3e 7cde e03d
000002f0: 55c3 32be aeb9 57be 5caf 113e d4c0 813d
00000300: 1afd 87be acdd 0d3e 313f 933d 25ae 8b3d
00000310: f01a 193e c348 b63d b30b d0bd 23e7 743e
00000320: 9ef2 833e 5c44 6dbe c8c9 f53b ea1b 393e
00000330: 5c27 2fbe 6cce de3c 00db 3fbe 0849 6a3d
00000340: 81c1 743d 7a91 14be e4f0 6ebe 2433 45bc
00000350: f59a ecbd dfdd 473d 8c07 1f3e ef9b 4a3d
00000360: 8bc0 2a3e b775 0c3e 66ac 873b deb1 2bbe
00000370: 2fd7 abbc 3e00 e53d 55ec 0c3e 97d0 da3d
00000380: b00c 9fbd b953 26be f6e4 f03d 3576 6cbe
00000390: 7b0a 84bd 4b2e b4bc 49a6 863c 3de3 263e
000003a0: 53af fd3d dc6c 06be 98b8 153e b9a8 283e
000003b0: 2fef 45be 6e88 6f3e 2819 e2bd 432a 183e
000003c0: cab7 673d 2e4d 5a3e 559f 0bbe c7d6 e6bd
000003d0: 4a30 15be fa78 693c d241 683d efcd 123e
000003e0: d821 a7bd cf03 733e e41a 483e b747 3cbe
000003f0: a40d 323e 5ecd 9e3d 3c8f 01be 8aaa e63d
-0.18965957 -0.09823352 0.18405646 -0.07964834 -0.23350573 -0.15005638 -0.049074937 -0.16082683
-0.03137475 -0.033736084 0.17033438 -0.0039730654 -0.15794975 -0.10993283 -0.23688869 -0.2012501
0.18538924 -0.16546972 0.03572891 0.17018117 -0.24087645 -0.14157934 0.007834924 -0.008496053
-0.035819292 0.11543386 -0.055877313 -0.16451123 -0.02459668 0.21448892 0.23485182 -0.047407463
-0.023839712 -0.04995969 -0.15818238 -0.031130629 -0.2292002 0.13942486 0.23603877 -0.03254365
-0.16034248 0.18475822 -0.12052374 0.19159746 0.055323184 0.102488324 0.2068437 0.19785957
-0.18355648 0.12544265 -0.10993522 0.1692776 -0.23991227 -0.18827312 0.10275472 -0.13051033
-0.024861993 0.08618265 -0.13116333 -0.107672565 0.0076274243 0.08389983 0.2212174 -0.17987175
-0.17954385 0.17304231 0.12075045 -0.16826157 -0.18258545 -0.02004733 -0.16839373 0.0022195443
-0.14206548 0.0016406261 -0.057722848 -0.24831274 -0.19981787 0.15291823 -0.22344999 0.05501986
-0.17270349 0.020915877 -0.09918878 -0.029647108 -0.15713319 -0.012231996 0.014340039 -0.0351336
-0.12666671 0.24956831 0.182649 -0.1526079 -0.0444333 -0.17673522 0.05080339 0.050021064
0.012444549 -0.038929373 -0.045115504 -0.070740454 -0.18708576 -0.03201506 0.21939807 -0.23836595
0.0043043494 -0.20161758 -0.20425218 0.051216733 0.17328155 0.2036939 -0.021620426 0.078304686
0.21973968 0.09386926 -0.044066735 -0.06544433 -0.18574727 -0.09130723 -0.2154365 -0.13238518
-0.24872291 0.079705015 0.079440586 0.06294932 0.036476355 0.19059719 0.1752847 0.16796428
0.1103211 0.10879521 -0.062218472 -0.23863322 0.16382544 0.07528095 -0.17420708 0.1870465
-0.2093034 -0.12966111 -0.2316453 -0.088245094 0.25468165 -0.0011983515 0.13366398 -0.16641411
-0.097228125 0.0067541054 -0.13121389 -0.01911573 0.061658386 -0.065067664 0.25521985 -0.14192447
-0.19169644 0.19970761 -0.16643088 0.24864039 0.009819772 0.25814083 -0.1760821 -0.14465412
0.13385585 0.1304523 -0.12081741 0.21244524 0.18441257 0.11153161 0.24056894 0.22637665
-0.016938146 0.14815888 -0.03407954 0.23331536 0.19378006 0.072044976 -0.0954806 0.06219054
0.10237927 0.16183333 -0.21198024 -0.05939821 -0.22546948 -0.0919349 -0.15292437 -0.24849269
0.07805501 -0.20193751 0.24442908 0.109799355 -0.17457326 -0.21066925 0.1422705 0.06335607
-0.2656029 0.13854092 0.07189787 0.06820325 0.14951682 0.08900597 -0.101584814 0.23916297
0.2577104 -0.23170608 0.007500861 0.18077055 -0.17104858 0.027198039 -0.18735886 0.057198554
0.059754852 -0.1450862 -0.2333408 -0.012036119 -0.11552993 0.048795577 0.15530223 0.049465116
0.16675012 0.1371678 0.0041404245 -0.1676707 -0.020976631 0.11181687 0.13762029 0.106843166
-0.07766092 -0.16242875 0.11762421 -0.23091967 -0.064473115 -0.02199473 0.016436713 0.16297622
0.12386956 -0.13127464 0.14621198 0.16470613 -0.19329523 0.23391888 -0.110399544 0.14859872
0.05657176 0.21318504 -0.13634999 -0.11271434 -0.14569202 0.0142500345 0.056703396 0.1433637
-0.08160752 0.23731922 0.19541508 -0.18386732 0.17388016 0.077540144 -0.12652296 0.112629965

encoder.cnv1Dweekly.0.bias f4 [64]
00000000: e7bd 0c3c 8c15 233e cc37 303c 98af efbd
00000010: 0741 2b3c 1841 8b3c 2344 483e 2924 213d
00000020: b2b2 0a3e 2c56 32be 9e26 bbbd af72 38be
00000030: 346b 373e 64ef 5b3e 2711 d13d 5777 4fbe
00000040: cc03 9dbd 5958 6ebe caf4 4d3e 099d 0bbe
00000050: f0d4 8b3d e763 56be 718b 2abe 5409 4ebe
00000060: 0452 75be 59fc f2bd 4d08 583e 8a2f 80bd
00000070: c11d ecbd 6950 17be f60f 4dbe 20b8 263e
00000080: 7cdb bf3d 93f3 4bbe 9961 033e c7fd 7abe
00000090: 0cf3 c2bd 86be 0dbd 6715 80be 33f6 bbbc
000000a0: 51e1 b43d 8451 54bd f200 f13d 1712 2fbe
000000b0: 32ad 56be 44e8 0fbd dafa 673e 85ac 6e3e
000000c0: bf2d 33bd 6c9c 973d 7e29 973d 50a4 56be
000000d0: f764 053e 3647 f03d fb94 febd 1160 83bb
000000e0: 679e 08be 3d41 5b3e 5f83 adbd fef9 2b3e
000000f0: 537c 8bbd 7dae 21be 517d ae3b c5fc 3e3d
0.008590198 0.15926188 0.0107554905 -0.11703414 0.010452515 0.016998813 0.19557242 0.039341126
0.1354473 -0.17415684 -0.09138225 -0.18012498 0.17911988 0.21478039 0.1020835 -0.20260368
-0.0766674 -0.2327589 0.20112911 -0.13634123 0.06827724 -0.20936547 -0.16654755 -0.20120746
-0.23957068 -0.11864538 0.21096916 -0.06259067 -0.115291126 -0.14776768 -0.2002562 0.16281176
0.09368035 -0.19917135 0.128302 -0.24510871 -0.09519014 -0.034605525 -0.2501633 -0.022944545
0.08832038 -0.05183555 0.117677584 -0.17096744 -0.20964506 -0.035133615 0.22654286 0.23307998
-0.0437448 0.07402882 0.07380961 -0.20961118 0.13026796 0.117323324 -0.124307595 -0.0040092547
-0.13341676 0.21411605 -0.08472323 0.16794583 -0.06810822 -0.15789218 0.0053249975 0.04662778

encoder.cnv1Dweekly.2.weight f4 [5, 64, 5]
00000000: 7d25 4bbd d17a b23c 3d8b 41bd 9e9c f4bc
00000010: c5d6 ad3c 231f 64bd 84e7 1f3d c0d0 fd3c
00000020: b383 ff3c 95b9 273d a7f4 63bd 8825 4fbd
00000030: 48dc 2a3d 0aa0 b93c 5e5a 61bd 17bc 6b3b
00000040: c3f0 b33a a175 cb3c b2f7 7d3c 431d 03bd
00000050: 28f3 9b3c 5c03 01bd 1d47 363b 1510 833c
00000060: 17ee 7cbd 588f 41b9 f678 62bd 7e59 e8bc
00000070: 6a9d e4bb 3ead 103d 7df4 57bd fdd6 f23c
00000080: f07b 5cbc 54a0 4abd b87a 86bc 3929 2bbd
00000090: 24cf 0a3d d969 5fbb 7aa6 b0bc 8ee2 d83c
000000a0: 9521 73bc 9298 ce3c 7894 5c3d 4e92 46bd
000000b0: 6fcb 5ebd 8a15 46bd fa47 d7bc 6193 073c
000000c0: ee94 78bc 70b2 e3bc 50c9 60bd 5a78 163d
000000d0: 050d 1e3d dfc5 943b d780 483d 0a7c 903c
000000e0: 0b04 bf3c 4d7b 193d b8cb b33c 470c edbc
000000f0: b4d1 4bbd 3445 13bc 7e95 2fbd f807 b13c
00000100: 2caf 033d b8f2 3e3d 7858 bbba 572c f8bc
00000110: 26b9 b5ba 8e56 12bc 453b e73b 7f0d 1cbd
00000120: edad b4bc 0492 1dbd e85e 14bd 60c7 6c3b
00000130: b676 1bbd 3654 003d 921e 72bc 52af b8bc
00000140: 515f 3f3d f90b 27bc 4592 07bd b763 573c
00000150: 19cf 1d3d d8d0 1dbb 4394 49bc 2160 2e3c
00000160: 9c5c 113d 1ae0 e4bb 65d0 b93b 8b64 583c
00000170: 0492 40bd f1d0 503c 1806 063d 19af 67bc
00000180: 99b0 cc3c f8f0 123d 752d b5bc 8091 243d
00000190: 26cd b1bc e57e 1bbb d244 fcbb fbba 0d3d
000001a0: daab f73c 9041 4f3c 124a fbbb 5d6c 2abd
000001b0: 7d4d df3c 4d9a 5a3c f712 1ebd 0593 a43c
000001c0: d77e 39bd 35bf 3939 a01e 5d3d 294a 00bd
000001d0: e2ba 8b3c c5ef 763c e901 babc 5832 69bd
000001e0: 94e7 a0bc 8335 2c3d 5a62 01bd 0e01 123d
000001f0: a58f d9bc e404 23bd a159 2e3a b0bb eb3a
00000200: a7fe 80bc a46a 883c 75ac eb3c cbc8 66bd
00000210: a61d 463c fa6c cbbb fa3e 48bd 0462 57bd
00000220: d074 08bd 576d 1ebc 3c14 88bc 374a 413d
00000230: 9168 293d 8334 a73b e246 cc3c 97a4 303d
00000240: fd1d d3bc d418 383d 0c45 dcbc d409 c33c
00000250: 4ddf 5cbc a0cd 043d 4751 133d 74e0 aa3c
00000260: f61f e8bb 0ce1 613d a427 5bbc 423b 2b3c
00000270: 5f9c 20bd d466 213d aadd 32bd 3ac2 283d
00000280: 7500 553d d00b 283d f4ac 233d f857 283d
00000290: 4200 26bc 1c2d 35bc d211 a8bc 4128 8abb
000002a0: d63d f33c 0ef3 14bd 9064 1dbd de87 6e3c
000002b0: 9c36 5aba dbd3 bc3c 3588 4d3c 55fc c6bc
000002c0: 7057 02bd 757b bcbc 5b90 a33c f35c 58bb
000002d0: d061 eebc 06ea 0dbd 90a0 bbb8 181a 4d3d
000002e0: 0133 dfbc 2f4b 80bc 534f 043d 3758 703c
000002f0: ff2c f83c b451 07bd 7686 6ebd 08ee e4bc
00000300: 2386 ec3c bdaa 14bd dfc7 2a3d 5530 38bd
00000310: c6be 44bd 0d55 383c 16da 2bbd 435b 56bd
00000320: 6ad1 9f3c b916 513d 64c7 28bc ada2 9f3c
00000330: 5a34 653c 710b 11bd 8e42 aa3a f392 36bd
00000340: 0272 66bd 6292 1dbd 2d18 0c3d bb9d e23b
00000350: 2861 d83a bff0 6fbc 8f1a 3e3d 02d2 3c3d
00000360: 2adf 6ebd 7210 b0bc 89e8 8e3c 955f 6dbd
00000370: a873 7abd 4704 003d 2f0f abbc 9a2a 37bd
00000380: 3b4d 30bd 5173 8ebc 2422 1ebd 01cf 1d3d
00000390: 3376 67bd cfff 453d 352c 03bd 9f73 153c
000003a0: 2b59 193c 625c 9cbb 1490 963b cc0c 63bb
000003b0: 0360 03bd 563c 093d efcf 87bc 22c5 67bd
000003c0: 9da6 213d 9e54 fc3c 11b2 173d 5a19 afbc
000003d0: b414 57bd b681 d33c d140 49bd 9e9e cf3c
000003e0: 2ca6 31bc 142d eabc 3d8a 153d e99a 61bd
000003f0: a2b7 3b3d cdff 6dbd 0828 68bd 7979 8a3c
-0.0495963 0.021787079 -0.04725193 -0.029859837 0.021220574 -0.055693757 0.03903915 0.030983329
0.031190729 0.04094847 -0.05565324 -0.050572902 0.041713983 0.02265932 -0.05501782 0.0035970265
0.0013728369 0.024836363 0.01550095 -0.032010328 0.019036844 -0.031497344 0.0027813383 0.01599888
-0.061750498 -0.00018459314 -0.05529114 -0.028362986 -0.006976773 0.035321467 -0.052723397 0.02964353
-0.013457283 -0.049469307 -0.016415939 -0.04178736 0.03388895 -0.003409019 -0.021563757 0.026475217
-0.01483955 0.025219236 0.05385253 -0.04847937 -0.05439323 -0.048360385 -0.026279438 0.008274884
-0.015172226 -0.027795047 -0.054879487 0.03673587 0.038586635 0.0045401896 0.048950996 0.017637271
0.023317358 0.037471104 0.021947727 -0.028936518 -0.049760535 -0.008988667 -0.042867176 0.021610245
0.03214948 0.046618193 -0.0014293334 -0.03029458 -0.0013864383 -0.008931769 0.007056626 -0.03809881
-0.02205559 -0.03846933 -0.036223322 0.003612958 -0.03795501 0.03133031 -0.014777796 -0.022544537
0.04672176 -0.010195726 -0.033098478 0.013146332 0.03852758 -0.002408078 -0.012303415 0.010643036
0.03548871 -0.006984723 0.0056705945 0.013207565 -0.04701425 0.012745128 0.032720655 -0.014140868
0.024986552 0.035874337 -0.022116402 0.040177822 -0.021704268 -0.0023726758 -0.0076986337 0.034602147
0.030233312 0.012649909 -0.007668742 -0.04160725 0.027258629 0.013342452 -0.038592305 0.020089636
-0.04528698 0.00017714205 0.053984284 -0.031320725 0.017056886 0.015071814 -0.022705989 -0.056932777
-0.019641675 0.04204322 -0.031587936 0.035645537 -0.026557753 -0.039799586 0.0006650929 0.0017985012
-0.015746428 0.016652413 0.028768757 -0.056343835 0.01209203 -0.0062080594 -0.048888184 -0.05258371
-0.033314526 -0.009669623 -0.016611211 0.047189917 0.041359488 0.0051026954 0.024936143 0.043125715
-0.025771135 0.044945553 -0.026888393 0.023808397 -0.013480973 0.03242266 0.035966184 0.02085898
-0.007083888 0.055146262 -0.01337615 0.01045114 -0.039211627 0.039404705 -0.043668427 0.041200854
0.05200239 0.04102689 0.039959863 0.04109952 -0.010131897 -0.011058118 -0.02051631 -0.0042162244
0.029692572 -0.036364608 -0.038425982 0.01455876 -0.00083241775 0.02305024 0.012544681 -0.024290243
-0.03182167 -0.023008088 0.019966295 -0.0033014386 -0.029099375 -0.03464701 -8.946762e-05 0.050073713
-0.027246 -0.01566085 0.032302212 0.01466947 0.030294893 -0.033036903 -0.0582337 -0.027945533
0.028872555 -0.03629564 0.04169452 -0.044967968 -0.0480335 0.011250746 -0.04195603 -0.052333128
0.019509036 0.05104706 -0.010301445 0.01948675 0.013989532 -0.035411302 0.0012989806 -0.044573735
-0.05626107 -0.03846968 0.034202743 0.0069157756 0.0016508447 -0.014644801 0.046412047 0.046098717
-0.058318295 -0.021492217 0.017444866 -0.057952482 -0.061145455 0.03125408 -0.020881264 -0.044718362
-0.043042403 -0.017388972 -0.038606778 0.038527492 -0.056509208 0.04833966 -0.03202458 0.0091218045
0.009359638 -0.004771755 0.004594812 -0.0034645079 -0.032073986 0.033504806 -0.016578643 -0.056584485
0.039465535 0.030802067 0.03703505 -0.021374393 -0.05250998 0.025818687 -0.04913408 0.02534419
-0.010842841 -0.028585948 0.036508787 -0.055079374 0.045829423 -0.05810528 -0.0566788 0.016903626

encoder.cnv1Dweekly.2.bias f4 [5]
00000000: 52d9 813c 771e 36bd aa66 81ba 4892 58bc
00000010: c077 3cbd
0.015850697 -0.044462647 -0.0009872515 -0.01321847 -0.04601264

encoder.cnv1Dmonthly.0.weight f4 [64, 3, 11]
00000000: 121b 26bd 32e8 06be 563c 0ebd 758f 5abd
00000010: d161 1cbe a651 c5bd 617e b8bd 3c4a d5bd
00000020: 24fc f5bd 92ca bb3c 3f3b 23be f32f aa3d
00000030: 1818 a6bd 28a2 bbbc 827e 12bc 02ab 08be
00000040: ac8f 303e d8ac 13bd 2792 b83d 757c 003d
00000050: ff38 dc3d 8e32 9d3d 4365 26be bebc 90bd
00000060: 149c 58bd 69d8 7b3d 61d9 8c3d 36d1 a33d
00000070: c647 98bb 1548 77bd 1f01 bebd b540 34bd
00000080: 3efe a4bd cda1 efbd c53e 0cbe 595d f23d
00000090: da56 27bb 05c3 2b3e 4025 e13d 2f06 b6bd
000000a0: 5320 e8bd d758 cabc 8076 203e cbbd 9f3d
000000b0: 2f44 30be 85de 52bd 363d 953d 6491 b2bd
000000c0: 436d bebd b634 723d 34cd 8fbc 53c9 29be
000000d0: d6c6 e4bd 1479 16be 970d a7bd 50c5 3e3c
000000e0: 2bb5 053e 224c 8b3d fca7 4c3d f32d 593d
000000f0: da21 50bd 4463 d2bd 41be 86bd cd7a 0c3e
00000100: 9b3d e33d aeca f13d efab a33d 3cfe 32be
00000110: fb63 cf3d 88f5 513d 8f0c 293e f034 d0bd
00000120: 9e69 0bbe d7f6 98bd 8ba0 29bb acb2 483d
00000130: 5b1c 833d 5168 283e 2be8 07bd 095c 8c3d
00000140: eedc 853c f052 273e 2b5d adba 6752 4b3b
00000150: 1daf 86bd b719 243e 4745 1fbc 6966 3cbd
00000160: 4c33 153e 9596 81bb 39a2 b83d 7981 003e
00000170: 4bb7 c5bd 9428 64bb 32e9 9b3c bf5b bfbd
00000180: d0f7 b93d 3c31 0b3e 9fc4 01be a92d 183e
00000190: 908e 593b 01ac 20be e8a5 84bd c8a8 fbbd
000001a0: e00d c73d c2b5 cabc 6c4e e8bb 39ae 15be
000001b0: 6596 27be b34f 0a3e ab7e ee3d 1668 0bbe
000001c0: 4f8a 713d 801c 1abe fee7 10bd 38e0 6c3d
000001d0: 3d61 f7bc c9a2 29bd 57e4 853c 72dd 743d
000001e0: bb69 623d fcde a6bd 27e2 473d 2361 8fbd
000001f0: e0bf 0a3e 0da8 b63b 0f52 ca3a e923 8b3c
00000200: 709c 29be d188 b2bd 0e8e 0abd 3247 b4bc
00000210: 3b16 c2bb 0fc8 a03d 6435 c83d c48a 03bc
00000220: 9bcb 4f3c e751 21be 93d6 4bbd 9302 0f3e
00000230: 9262 aa3d f2e9 083d 93d2 233e 8b73 2f3e
00000240: c7f8 f6bc 1701 df3d ff18 87bd 4d2c 46bd
00000250: 0fc6 843d cb10 06be f82c 19be b47f 0ebe
00000260: c9a8 b6bd 5d1e e63d e468 60bc b1cf 25be
00000270: 2097 17be cf0e b2bd 577a b9bc 582c be3c
00000280: 9fbb 2cbe 9d2c 1fbe a956 243e 4e71 a73d
00000290: a61f 053d 2cd0 d2bd 0a24 17be d5a1 a5bd
000002a0: e80b 373d 049f 973d d851 1abe 9aaf 03be
000002b0: 0521 89bd 2ffa 033e 0e6a 163e 4171 e03c
000002c0: a454 c73d e1af ab3d 182e cabd f10f e63c
000002d0: cfa1 2cbe 56b5 26be 5db8 b1bd 8b33 13bd
000002e0: 49ea e43d 4969 1a3d f71f 0d3e 1860 11bd
000002f0: f3b3 b13d 8d07 053e 3344 c53d 258a b2bd
00000300: 47d9 93bd 8d54 d1bd 6e91 8f3d e8e2 9cbd
00000310: 7d95 febb 9699 233e 92e3 c4bd 3d19 04bd
00000320: 37cb d5bd a560 b0bc abf4 263d a459 013d
00000330: afb9 17be 2405 0a3e d3a5 07be e721 673c
00000340: 6a78 9bbd 3e06 eaba 3f98 ca3c cf5c a63d
00000350: 9b53 0f3e 34af cdbd 7187 a7bd 9245 7c3d
00000360: 4caf 63bd e776 88bb 7fca 0b3d e11e a8bd
00000370: 5109 9a3c 22ff 283e 16a6 d2bd 8309 75bd
00000380: c7f2 0cbe d5ba 5c3d 7c82 cabd 2b2c 0b3d
00000390: 1f02 323e 3502 b8bd b312 14bd 5172 0a3e
000003a0: 546d f1bd fe4a 273d bc2c d03d 07e1 743c
000003b0: e7cc 11be 1f6f c6bd 9d39 903b 9ee4 7cbd
000003c0: c692 94bd cc74 f4bb 7844 b3bc 3375 b33d
000003d0: af8d 663d efcd 203e 0567 2cbe 02c0 26bd
000003e0: 44c0 8b3c 8b59 71bd b2a2 cc3d 2210 0bbe
000003f0: 41fc 91bd 4d7e 083e ecfe 06be a576 42bb
-0.04055316 -0.13174513 -0.03472551 -0.053359468 -0.15271689 -0.09634714 -0.0900848 -0.1041455
-0.12010983 0.022923741 -0.1594057 0.08309927 -0.08110064 -0.02290447 -0.008941295 -0.13346484
0.17242306 -0.03605351 0.09012251 0.03136869 0.10753059 0.07675658 -0.16249566 -0.0706725
-0.052883223 0.06148568 0.06877399 0.07998888 -0.004647228 -0.060371477 -0.092775576 -0.044007022
-0.08056305 -0.11700783 -0.1369582 0.11834211 -0.0025533945 0.16773613 0.10993433 -0.08887898
-0.1133429 -0.024700565 0.15670204 0.07799872 -0.1721351 -0.051481742 0.07287066 -0.08719137
-0.09298184 0.0591323 -0.017553903 -0.16580705 -0.111707374 -0.14694625 -0.08156889 0.011643723
0.13057391 0.068016306 0.04996489 0.053022336 -0.050813533 -0.1027284 -0.06579257 0.1371872
0.11095735 0.11806236 0.07991778 -0.17479795 0.10126492 0.051259547 0.16508697 -0.10166347
-0.13614509 -0.07468956 -0.0025883045 0.04899852 0.06401893 0.16446044 -0.033180397 0.06853492
0.016340699 0.16340232 -0.0013226619 0.0031024457 -0.06576369 0.16025434 -0.009721107 -0.045996103
0.1457035 -0.0039547184 0.090153165 0.1254939 -0.09654101 -0.0034814226 0.019032095 -0.09343671
0.090804696 0.13593 -0.12672661 0.14861168 0.0033196546 -0.15690614 -0.064769566 -0.12288052
0.09719443 -0.024744872 -0.0070894267 -0.14617242 -0.16365965 0.13506965 0.11645254 -0.13613924
0.058969792 -0.15049934 -0.035377495 0.05783102 -0.030197734 -0.04141501 0.016344232 0.0597815
0.055276614 -0.08148 0.04879966 -0.07000949 0.13549757 0.0055742324 0.0015435832 0.016984897
-0.16563582 -0.08717502 -0.03382688 -0.022006605 -0.0059230602 0.07850658 0.097758085 -0.00802869
0.012682821 -0.157539 -0.04976518 0.13965826 0.08319582 0.033426233 0.15998296 0.1713392
-0.030147923 0.1088888 -0.065965645 -0.048382092 0.06483089 -0.13092344 -0.1495856 -0.13915902
-0.08918912 0.1123626 -0.013696883 -0.16192509 -0.14803743 -0.08694231 -0.022641344 0.023214504
-0.16868447 -0.15544362 0.16048683 0.08175908 0.032500885 -0.10293612 -0.14759842 -0.08087508
0.04468909 0.07403377 -0.15070283 -0.12859955 -0.06695751 0.12888406 0.14688894 0.027397754
0.09732941 0.083831556 -0.09872073 0.028083773 -0.168586 -0.16280112 -0.08677743 -0.035937827
0.11177499 0.037698064 0.13781725 -0.035492033 0.08676901 0.12991162 0.096321486 -0.08717755
-0.07219177 -0.10221205 0.070101604 -0.076604664 -0.0077692852 0.15976557 -0.09613718 -0.03225063
-0.10439151 -0.021530459 0.040760677 0.03157963 -0.14816926 0.13478523 -0.1324685 0.014107204
-0.075913265 -0.0017854644 0.0247308 0.081231706 0.13996737 -0.10043183 -0.0818013 0.061589785
-0.055587098 -0.004164565 0.034128662 -0.08209015 0.01880327 0.16503575 -0.10285585 -0.059823524
-0.13764487 0.053889114 -0.09888169 0.03397767 0.17383622 -0.08984796 -0.036150645 0.13520171
-0.11788431 0.040843002 0.101647824 0.014946229 -0.1423832 -0.096891634 0.0044013993 -0.061741464
-0.07254557 -0.0074602123 -0.021883234 0.08762588 0.056287464 0.15703557 -0.16836174 -0.040710457
0.017059453 -0.058923285 0.09991969 -0.13580373 -0.07128192 0.1332943 -0.13183182 -0.0029672768

encoder.cnv1Dmonthly.0.bias f4 [64]
00000000: 2fe0 1ebe ac68 00be 5939 d0bd a613 de3d
00000010: 20d9 093e fd1b 873d c1ae dcbb b6c2 62bd
00000020: 34cc 8e3b 0dd7 32bc 0072 e0bd 6547 dcbd
00000030: 130a 093e 3d7a 21bd 0279 8b3d ede2 c8bd
00000040: f724 a63d 4fc1 97bd f70e b8bc e035 c7bd
00000050: 502e 1abe e056 29bb b2b3 88bd d8b7 9e3d
00000060: 1454 e2bd 9008 8abd 9e41 1c3e b27f 6dbb
00000070: bf2a b8bd e32a 31bd 4fbc 23be a43e 9fbd
00000080: dc14 023d 5916 9fbd 9988 8b3d 5b60 e33d
00000090: 1e15 933d 3b3d e63d ebfa 1a3e c929 2bbe
000000a0: 1ecd 9f3d 2692 f2bd 61c6 833d 137e 123e
000000b0: d06a b73d 9873 acba 5625 03bd a7b7 febd
000000c0: d08e 91bd 2965 453d df8c ccbd 1b39 fa3d
000000d0: afd2 803c ee74 afbd 6df1 c8bd d50e ec3d
000000e0: 7731 273d 43fd 28be b5ff 1b3e 8ff7 bcbd
000000f0: fe8a 353d 2682 2ebc b462 61bc 3a53 ddbd
-0.15515207 -0.12539929 -0.10167188 0.108435914 0.13461733 0.06597135 -0.0067346995 -0.055361472
0.004357839 -0.01091553 -0.10959244 -0.10755805 0.1338275 -0.039423216 0.0681019 -0.09808908
0.08112519 -0.074099176 -0.022468073 -0.09727073 -0.1505673 -0.0025839135 -0.06674899 0.07749909
-0.11051193 -0.067399144 0.15259406 -0.0036239442 -0.08992528 -0.04325379 -0.15989803 -0.077756196
0.031758174 -0.07767934 0.06813163 0.11102363 0.07181762 0.112421475 0.1513478 -0.16715159
0.07802795 -0.11844282 0.06434322 0.14305906 0.0895592 -0.0013157008 -0.03201803 -0.12437373
-0.071073174 0.048192177 -0.099878065 0.12217923 0.015725462 -0.085672244 -0.09811673 0.115262665
0.040818658 -0.16502862 0.15234263 -0.092269056 0.044322006 -0.010651147 -0.013756443 -0.1080689

encoder.cnv1Dmonthly.2.weight f4 [5, 64, 10]
00000000: afff 0f3d 72f0 b6bc 6a96 333c 56e9 1abd
00000010: efd4 093c 1a53 f73c ac7f 21bc a3c2 85bc
00000020: ac90 c5bc 53c7 93bb 5bdc 08bd 222e febc
00000030: 02b5 1b3d 0c06 a73b 4968 f33c ada2 89bc
00000040: 96cf f4bc 6f07 0d3d b2cb f43c 1ad1 0239
00000050: 1977 d63c 7f92 ee3a 12b5 ec3c 78a3 ac38
00000060: c815 e33c aff5 ea3c 2c97 1e3c d176 2dbd
00000070: 2eae acbc 502e 973c c6e7 aebc e54a 95bb
00000080: dcf6 6eba fc85 ee3c de34 7f3c 5037 11bc
00000090: 2ef5 173b e12a f83c 8c5f 923c 0590 003d
000000a0: 77fb a83a 3151 133d 29ab 99bc ecb7 123d
000000b0: 2653 183d 739a e4bc 9825 8a3c 60df 54bc
000000c0: 2972 8d3a 3e39 d1bc aa7e bd3c 69c2 423c
000000d0: fbdc 8a3b c164 c03c 7b00 00bd 27fd c23b
000000e0: d784 12bc d1e1 113c ec55 aa38 6001 363c
000000f0: 931d db3b 9d29 e3bb 2058 873c c2fd 863b
00000100: 60c1 bcbc 4d17 cabc c323 143c 1964 0d3d
00000110: 1db0 053d 40a0 123d d5d9 9cbc 6c6c 56bb
00000120: 8b37 973c c6d0 ebbc 67b7 2dbc a621 8cbc
00000130: 927a 963b 35c4 eebc c6eb 02bd bd92 dd3c
00000140: fa57 efbc dacc f2bc 4309 c93c c6c8 883b
00000150: 15a6 d03c e3cf 21bd 5358 a73c 9a90 ee3c
00000160: 42e2 143d 4f1f b83c 47e1 ba3c 12bb 32bc
00000170: e789 913c 0042 793c e594 4abc 63ff 953c
00000180: bc6c 5fbc a13b 4dbc ac37 31b9 6d5e d83c
00000190: 0b24 fbbc 9d28 04bd eb44 0b3d 4c38 02bd
000001a0: 16dd 0d3c 9be2 3fbb 06ec a6bc 1c06 0f3d
000001b0: 4cc2 123d 80a7 34bc ac71 c43b 5446 9a3b
000001c0: 0d0c d7bc 8dea ca3c 0760 093c dfe6 31bd
000001d0: effb 633b 62d1 023d 4027 7d3c a295 773c
000001e0: d318 8b3c 3dab 103d fb85 183c d6ce 073d
000001f0: ca3a b4bc c986 4fbc 24ec 313c bc07 f0bc
00000200: ffb1 043b 86f9 eb3c e465 11bd 12c4 2abb
00000210: 1621 23bd 4750 a6bc 11e3 49bc 3663 21bd
00000220: 4751 c93c 92c9 c6bc 9072 3a3c 7633 fd3c
00000230: 92e3 803c bb64 e7bc 7c82 a1bc 29cb af3c
00000240: b176 cd3c cfee 8c3c 283b d63b 349d 95bc
00000250: 346d 2c3b eb09 c2bc cd57 d33c 8ff9 49bc
00000260: d59c dc3c ce2b 9abb 2351 8abc 028c be3c
00000270: 9df2 8f3c 955d 39bd 2666 eebc 6e18 e7bc
00000280: 881e 583a a5ff 11bd 32b6 0cbd ce92 9b3c
00000290: f8fb 9fbc dd38 15bd 29e3 f2bc db5d 1e3b
000002a0: 9555 ab3c edde 70ba 5d58 033d df4d 373b
000002b0: 45cc 11bc c22f cd3b cca4 eabc 6abe b2ba
000002c0: 14ae f03c 8e41 633c 4024 c7bc 52c7 a13b
000002d0: 03f1 f83c 5b0a b53c 4480 5bbb a913 c33a
000002e0: da2b c4bb c839 7c3c 934d 173b 1cfc d4bc
000002f0: 0fd4 3dbc 773a af3b b2bc 30bc a85a 1abd
00000300: bc39 6c3c 6237 3c3c 617c bb3c 5850 933c
00000310: b533 16bd 6b30 e33b 92be 0bbd f6f4 abbb
00000320: d98f f8bc 258b 0abd 18dd d8bc 7d90 a4bb
00000330: fbb5 ceb9 d3ab d43b a516 e23c 23d3 90bb
00000340: 8f1c b23c b092 e03c ba49 8f3c e674 f63c
00000350: 91c5 a43b 1518 06bd 5152 843c 9825 953b
00000360: dd23 a43c bdff 0a3d 3411 4cbc 5b7e 0d3d
00000370: dd75 f03c 93ba 9cbc 616d f9bc 3323 dc3c
00000380: eb9e e5bc 1b04 e73c 98af f3bc 4295 eabc
00000390: 56c6 f6bc f67d ba3c cfc8 853c 737a ce3c
000003a0: 52c7 ed3b 297c 333c 5585 28bd 269d 87bc
000003b0: fdca 5bbc 03d5 97bc d751 8338 4ecd 5c3c
000003c0: b19c 10bd ffd1 09bd af76 d7bc fc57 15ba
000003d0: ac42 96bb b896 4bbc a993 c23b fa52 09bd
000003e0: 7eb0 44bb 2210 a83c 9b93 803a 1c81 313c
000003f0: 713b 743c d225 683c 6314 35bd 3035 58bc
0.03515595 -0.02233145 0.0109611545 -0.037820183 0.008412584 0.030190993 -0.0098570995 -0.016328162
-0.024116836 -0.0045098453 -0.033413272 -0.031027857 0.03801442 0.0050971564 0.029712813 -0.016801203
-0.029884141 0.034430917 0.029882286 0.00012475663 0.026179837 0.0018201618 0.028894935 8.2320475e-05
0.027720347 0.028681604 0.009679597 -0.04234964 -0.02107915 0.0184547 -0.021350753 -0.0045560473
-0.00091157644 0.029116623 0.015576569 -0.008863285 0.002318691 0.030293884 0.017867826 0.031387348
0.0012892325 0.035966102 -0.018758373 0.035819933 0.03718867 -0.027905678 0.01686363 -0.01299271
0.0010791469 -0.02553999 0.023131687 0.011887171 0.0042377687 0.023485543 -0.03125046 0.0059505883
-0.008942804 0.0089039365 8.122236e-05 0.011108726 0.006686875 -0.006932451 0.016521513 0.0041196058
-0.023041427 -0.024669314 0.009041729 0.03451929 0.032638658 0.035797358 -0.01914684 -0.0032718433
0.018459102 -0.028786074 -0.010602809 -0.017105889 0.0045922482 -0.029146293 -0.031963132 0.02704751
-0.029216755 -0.029638696 0.02454055 0.0041743247 0.02546982 -0.039504897 0.020427858 0.029121686
0.03634859 0.022475867 0.022812499 -0.010908859 0.017765952 0.0152134895 -0.012364601 0.018310254
-0.013636764 -0.012526424 -0.00016900775 0.026412213 -0.030656835 -0.032265294 0.034001272 -0.03179197
0.008658668 -0.0029279354 -0.020376217 0.034917936 0.035829827 -0.011026263 0.005994996 0.004708091
-0.026250863 0.024770046 0.008384711 -0.043433066 0.0034787615 0.031937964 0.015451252 0.015111359
0.01697961 0.035319556 0.009309287 0.03315624 -0.022000689 -0.012666413 0.010859523 -0.029300563
0.0020247696 0.028805505 -0.03549756 -0.0026056808 -0.039826475 -0.020301951 -0.012322203 -0.039401256
0.024574889 -0.024266038 0.011379853 0.030908328 0.015733514 -0.028246274 -0.01971554 0.021459179
0.02508101 0.017203717 0.0065378137 -0.018263437 0.0026310207 -0.02368637 0.025798703 -0.012327566
0.026930252 -0.004704929 -0.016884392 0.02326012 0.017571742 -0.045255262 -0.029101443 -0.028209891
0.00082442956 -0.035644192 -0.034353442 0.0189909 -0.019529328 -0.036431182 -0.029649334 0.002416483
0.020914832 -0.0009188492 0.03206669 0.0027969999 -0.008898799 0.0062617967 -0.028643034 -0.001363707
0.029379882 0.01387061 -0.024309278 0.004937091 0.03038836 0.022099664 -0.00334932 0.0014883179
-0.005986673 0.0153946355 0.002308701 -0.025999121 -0.011586203 0.0053475457 -0.010787176 -0.037684113
0.014418062 0.011487814 0.022886457 0.017982647 -0.036670405 0.006933262 -0.03411729 -0.0052477075
-0.03034203 -0.033824105 -0.026472613 -0.005022107 -0.00039426968 0.0064902096 0.027598688 -0.0044197007
0.021742133 0.027413696 0.01749121 0.030085038 0.0050284346 -0.03273781 0.016152533 0.0045516007
0.020036632 0.033935297 -0.012455273 0.03454433 0.029353077 -0.019131934 -0.030447664 0.026872253
-0.02802988 0.0282002 -0.029746816 -0.028635625 -0.03012387 0.022765141 0.016331105 0.025204873
0.007256427 0.010954895 -0.04114278 -0.016554426 -0.013415095 -0.01853419 6.2618106e-05 0.013476683
-0.035305683 -0.033647534 -0.02630171 -0.00056970096 -0.0045855846 -0.012426071 0.0059380126 -0.0335264
-0.0030012424 0.020515505 0.0009809615 0.010834005 0.01490675 0.014169173 -0.044208895 -0.013196275

encoder.cnv1Dmonthly.2.bias f4 [5]
00000000: 1176 e0bc 3b72 28bb da2f cebb 03df efbc
00000010: dbf5 263c
-0.027400048 -0.0025702852 -0.0062923254 -0.029281145 0.010190452

encoder.cnnFusion.weight f4 [32, 335]
00000000: 3a0c d6bc 518c ca3c 89fe 16bd fb60 1dbc
00000010: a710 6e3c 6929 a9bb 2868 19bd 5b31 33bd
00000020: d14a 48bd ef38 1f3d 869a f6bc ac4b dbbc
00000030: 7f6b 393d b105 25bc 57af 4abd cf9e 3b3a
00000040: 1176 9dbc 7ab4 a1bc 1ebb 0dbd 50ae 6ebc
00000050: 04e6 9f3c 118e 213d 4fc4 1bbd 8628 d5bc
00000060: 4e96 41bd 2af2 f6bc ba35 f2bc 7e85 81bc
00000070: e3c4 ec3c 884a 9abc 2988 0d3d 804e 883b
00000080: c7db 233d 7a49 3a3c 230e f2bc 2726 3ebb
00000090: 6b5b b33c cd30 aa3b 536f f6bc 3c81 273c
000000a0: d68e a7bc bbb4 1f3d 4c08 413d 32e9 e73b
000000b0: ea54 eebc b7d2 c3bc 559b 353d e207 143d
000000c0: 165a 203d 37cd 683c 17f5 75bc ea0b 23bd
000000d0: 37f2 2c3d 65f1 2fbd b0b0 38bd 07a0 013d
000000e0: e116 433b a5a0 ffbc 738e c13c de6e df3c
000000f0: 52ae 96bc a62c 063c fdaa 28bd e530 5b3c
00000100: 1a7e 7c3b 2ecf 3c3d cf93 4f3d 3635 093c
00000110: 9341 da3c cfea 38bd 7ca6 143d 711e 3f3d
00000120: f3fc 84bc 8722 47bb fa83 a8bb 7f2b 453d
00000130: 7a70 10bd 7854 483d 8da0 53bd 6047 bc3b
00000140: 0017 46bd 2e3b 0e3c 48ad 89bc 0613 bc3c
00000150: 3d9a 46bd 11ac 59bd 8571 503d ac16 22ba
00000160: 2843 563a 919b 3f3d 5661 253c 66cb 253d
00000170: 73e6 31bb 08c8 3abc cb10 ffbc c602 26bd
00000180: 2840 2dbd 7a32 643c cb85 5b3d d2c2 003c
00000190: e836 483d 438c e7bc ebb2 49bd 2d49 123d
000001a0: 2a88 533d 8c06 db3a db30 b3bb f710 38bc
000001b0: cc8d 2e3d 5c86 51bd 0e7a d63c c77a 343d
000001c0: bef3 8fbc 4ad5 83ba 67aa 453d 21eb 02bd
000001d0: ce25 f6bb 03c1 3b3d 301a 623b aadd 3fbd
000001e0: bd97 0dbd 2bd7 07bd 6662 a6bc 4231 c43c
000001f0: 74a5 9e3c 05b2 ee3c 4379 96bc b204 0abd
00000200: a408 38bc 1cac abbc 0e72 07bd 521a 233d
00000210: 9ef7 b43c b2b0 883b 6704 983c eadb 603d
00000220: 9abf aabc 82a7 3e3b 371d 0dbd d2b1 b6bc
00000230: 2d9f b5bb caa5 20bd 7640 853c 92b1 643c
00000240: eb27 b33c a739 c7bc 1701 d63c 36f0 433b
00000250: 1feb 463d a495 013d 7e21 3fbd 3000 47bd
00000260: 5492 983c 8baa 35bd 7b51 31bd 977b 1cbb
00000270: fc82 fa3c 7232 473c 06d2 023d 1485 00bd
00000280: 05eb 94bc fc8f 0e3d 56b6 083d 41c9 c9bb
00000290: a3d9 72bb 40f9 c1bc 5dcd 923c ea6b a13c
000002a0: 6af2 44bd cd21 f3bc 76cd faba 1659 cdbc
000002b0: 38e4 a03c ca59 363d 3237 25bd a8b4 b5bc
000002c0: b7c6 ecba ae53 50bd 751a f5bb a2c5 05bd
000002d0: e712 213d a63e 12bc ef09 35bd 724a 263b
000002e0: a365 4c3d cc98 c9ba 0d2c 48bd 3712 323d
000002f0: cc29 853c 7c15 82bc 58f2 883b 0efc 2c3d
00000300: 5d90 4fbd 2186 31bd c710 85bc 15fa f63c
00000310: 5a70 0dbd 44cf a13c 89bb 283d 49d0 b03c
00000320: 9a25 39bd 4ceb 38bc 66e5 47bc 6826 7d3c
00000330: b43e 213d 7164 283d c6c2 5fbd 9aff 493d
00000340: 3026 20bd b900 403c 345f 373c eeb4 35bd
00000350: 2b0f 84bc 8ae7 323d daf9 87bc e021 faba
00000360: 013b 5abd 85fc 18bd 720d 57bd 11b0 e9bc
00000370: 00b9 d0bc e20d 553d 779f 7e3c e398 673b
00000380: 828b 3a3d b6fb c8bc 90c4 3cbd 08ab e23c
00000390: 208e 193d 5908 63bd 696f 39bd 3e6f 403d
000003a0: cbea 35bc 8843 37bd 1381 2b3d 6973 dcbc
000003b0: 64d3 d0bc 7742 c93c 155f 143d 15ef b3bc
000003c0: c217 e33b fc6e 1bbd ae31 2abc 8cb3 25bd
000003d0: 893d 52bd d528 7e3c 6624 b2bc 70f1 a53c
000003e0: d7d8 053d 3373 10bd 4e52 51bd f267 863c
000003f0: 8736 4ebc 5539 d1bc aea4 fe3c 088e 0cbb
-0.026128877 0.024725111 -0.036863837 -0.0096056415 0.014530337 -0.005162407 -0.037452847 -0.04374824
-0.048899475 0.038872655 -0.03010298 -0.026769482 0.045268532 -0.010072158 -0.049483623 0.0007157148
-0.019221338 -0.019739378 -0.034602277 -0.0145679265 0.01951886 0.039442126 -0.03802901 -0.0260203
-0.047262482 -0.03014477 -0.029566634 -0.015810724 0.028902477 -0.018834367 0.03455368 0.0041597486
0.040004518 0.011370057 -0.029547757 -0.002901444 0.021894177 0.005193806 -0.03008238 0.010223683
-0.020453852 0.038990717 0.047127053 0.0070773596 -0.029093225 -0.023904188 0.04433759 0.03614033
0.039148413 0.014209083 -0.015012047 -0.039806284 0.04222318 -0.04295482 -0.045090377 0.031646755
0.0029768276 -0.031204531 0.023627495 0.027274545 -0.01839367 0.008189356 -0.041178692 0.013378357
0.003852731 0.04609602 0.05067807 0.008374503 0.026642596 -0.045145806 0.036291584 0.04665989
-0.016233897 -0.003038557 -0.005142686 0.048137184 -0.035263516 0.04890868 -0.051666785 0.0057458133
-0.04836178 0.008681102 -0.01680626 0.02295829 -0.048486937 -0.05314261 0.05088951 -0.0006183188
0.0008173459 0.04677922 0.0100940075 0.04047718 -0.0027145415 -0.01140023 -0.031135937 -0.04052999
-0.042297512 0.01392805 0.05359439 0.007858949 0.048880488 -0.028265124 -0.049242895 0.035714317
0.051643528 0.0016710325 -0.0054684705 -0.0112345135 0.042615697 -0.051153526 0.026181247 0.044062402
-0.01757228 -0.0010058072 0.04825821 -0.031962518 -0.007511831 0.045838367 0.0034500472 -0.046842255
-0.034568537 -0.033164185 -0.020310592 0.02394927 0.019366004 0.02913762 -0.018368369 -0.033695884
-0.011232529 -0.020956092 -0.033067755 0.039820023 0.02209073 0.0041714543 0.018556787 0.054897226
-0.020843316 0.0029091542 -0.03445169 -0.022301588 -0.005542657 -0.03922061 0.016266089 0.013958352
0.02186962 -0.024319483 0.026123567 0.0029897816 0.048564073 0.03163685 -0.0466628 -0.048584163
0.018624462 -0.044352096 -0.043290596 -0.0023877376 0.030580036 0.012158023 0.031938575 -0.031376913
-0.018178472 0.034805283 0.033377014 -0.0061580245 -0.003705599 -0.023678422 0.01792019 0.019704778
-0.048082747 -0.029679203 -0.0019134718 -0.025066894 0.019640073 0.044519223 -0.04033584 -0.02218087
-0.0018064593 -0.050861053 -0.0074799606 -0.03265918 0.039324667 -0.008926069 -0.044198927 0.0025373963
0.049901616 -0.001538062 -0.048870135 0.043474402 0.016255282 -0.015879385 0.0041792803 0.042232566
-0.050674785 -0.043340806 -0.016243352 0.030148545 -0.034530975 0.019752152 0.041194472 0.021583693
-0.045201875 -0.011286568 -0.012200689 0.015451051 0.03936644 0.041111413 -0.05462911 0.049316026
-0.03909892 0.011718922 0.011192132 -0.044362 -0.016120514 0.043677844 -0.01659863 -0.0019083582
-0.053278927 -0.037350196 -0.052503057 -0.028526338 -0.02547884 0.052015193 0.015540949 0.003533893
0.0455432 -0.024534088 -0.046085894 0.027669445 0.037489057 -0.055427883 -0.045272265 0.04698109
-0.011103342 -0.044742137 0.04187114 -0.0269105 -0.025491424 0.024567826 0.03622349 -0.02196459
0.0069303224 -0.03794764 -0.010387821 -0.040454432 -0.051328216 0.015512665 -0.021745872 0.020256728
0.032677498 -0.035266113 -0.051103882 0.016406987 -0.0125862425 -0.025540033 0.031084385 -0.0021446962

encoder.cnnFusion.bias f4 [32]
00000000: 7de4 7d3d 62e3 9ebb e2b4 6e3d f20e 58b9
00000010: 70e8 f3ba 2547 393d 879c 363d b254 66bb
00000020: 13da 163d acbb 3dbc 2883 913c e7db 653c
00000030: 9b92 313d d471 e3bc 66f5 e4bc 28ef 063d
00000040: 0790 333d a346 17bd 21f5 14bd 3a03 983c
00000050: 23be 113d c558 003d 413b 85bc 188c cd3c
00000060: 0637 a0bb a76b 823c cbb3 d6bc 4ff3 2ebd
00000070: edd1 4e3d 7ab0 3cbd bde3 223d 29e3 203d
0.06198548 -0.0048488835 0.058277972 -0.00020604933 -0.00186087 0.045233864 0.04458287 -0.0035145697
0.036829066 -0.011580389 0.017762735 0.01402948 0.043352704 -0.027764238 -0.027949046 0.03294292
0.043838527 -0.0369326 -0.036366586 0.018556226 0.03558172 0.031334657 -0.016263606 0.025091216
-0.004889372 0.015920473 -0.026208779 -0.042712506 0.05049317 -0.04606674 0.03976797 0.039279137

encoder.rnn.0.weight_ih_l0 f4 [15, 3]
00000000: ccbf 853e f653 02be b86d 803d ccb3 ea3d
00000010: c0b1 c63d d614 863e cb91 60be 16e9 9abb
00000020: 414a 63be a1a8 8cbe 7bb9 82be 2335 d43e
00000030: d1c2 3dbe cd88 b93e aaae 39be c45b 80be
00000040: 8771 76be 4d16 863d 7b73 34be 8e85 76be
00000050: b99e 3dbe 3d2c 79bc 86dd 97be ea81 aabe
00000060: cdcf 65be 74a3 9cbc 27be a9be 91b1 cfbe
00000070: 1200 a53e 3981 8b3e ea8f 8dbe fae0 7b3e
00000080: 2b85 313e d688 e4bd c6a3 81be 8b2a b93e
00000090: e1e5 493e 1ecb a5be 28fd 023e 44d7 d63d
000000a0: 20c7 9b3e 4e68 73be 5be6 81be b8c6 843e
000000b0: 073a 433e
0.26122892 -0.12727341 0.06270927 0.11460075 0.09701872 0.26187772 -0.21930616 -0.004727493
-0.22196294 -0.27472404 -0.25532135 0.4144679 -0.18531348 0.36237183 -0.18133035 -0.25070012
-0.24066745 0.06547222 -0.17622177 -0.24074385 -0.18517579 -0.015208301 -0.29661196 -0.33302242
-0.22442551 -0.01912091 -0.33152887 -0.4056516 0.32226616 0.27247027 -0.2764886 0.2459754
0.17335956 -0.11158912 -0.25320262 0.3616527 0.19716598 -0.3238153 0.12791884 0.104902774
0.30425358 -0.23770258 -0.2537106 0.2593286 0.19065104
