checkpoints_0/hoynet_0.pth (torch, 166193 bytes, 58 tensors)

encoder.cnv1Ddaily.0.weight f4 [64, 3, 1]
000000 b7 6e f1 be fa 83 c9 3e 84 19 20 be 5d 13 94 bd
       -0.4715478 0.39358503 -0.15634733 -0.07230256
000010 ed 52 2a 3e 7b f1 2a be 3b a2 f5 3d 5f 38 f3 3e
       0.16633196 -0.1669368 0.11993834 0.47503945
000020 a1 4e 0c be f6 33 e7 3e 81 57 ae be bd 6e 64 be
       -0.1370187 0.4515683 -0.34051135 -0.22307868
000030 d7 08 1a 3e b6 bc 20 be a7 e7 93 3d a9 b1 42 3e
       0.15042435 -0.15696988 0.072219186 0.19013084
000040 e3 77 8b 3e a6 13 43 be 9c 9a 0b 3e ec 0e a9 bc
       0.27239904 -0.19050464 0.13633198 -0.020636998
000050 21 82 e3 3e b1 64 e6 be a1 a2 86 bc bc e3 0a 3d
       0.44435218 -0.44998696 -0.01643497 0.03390859
000060 30 51 aa be f5 79 da 3e cb 5f b3 be 36 5f 8c be
       -0.33265066 0.4267117 -0.35034022 -0.2741639
000070 bf 1c 8c be 1f 8a ff bd 9d 6b 49 be a4 36 bf be
       -0.27365682 -0.124775164 -0.19669957 -0.37346375
000080 97 d9 09 bd 22 ad 68 bc c0 75 96 3e c7 c2 fd 3e
       -0.033654775 -0.014201434 0.2938671 0.49562666
000090 c4 09 01 bf d8 1b 48 bd a0 54 a4 3e 6f d2 8d be
       -0.50405526 -0.04885468 0.32095814 -0.2769961
0000a0 45 c7 66 3e 10 60 00 3f a1 dc e9 3e 9f 0d dd bd
       0.22536953 0.5014658 0.4567614 -0.10793614
0000b0 6f 19 10 bf c2 b5 51 bc 69 81 dc 3c 8e b1 d7 3e
       -0.5628881 -0.012799682 0.026917176 0.4212765
0000c0 97 a8 09 bf 37 23 b1 3e f9 3f 1a be b6 20 e1 3e
       -0.5377287 0.3459718 -0.15063466 0.4397027
0000d0 bc bf e4 bd ad de 9c 3e 93 eb fc 3e 8a b4 ca 3e
       -0.11169383 0.30638638 0.4939848 0.39590865
0000e0 ce 31 81 3c 51 d5 1e 3e cd 24 0a 3f 04 fa 9a 3d
       0.015770819 0.15511061 0.53962404 0.07567218
0000f0 6a bb 87 3e fc 83 93 be 96 fa 5d be 1a 74 d7 3d
       0.26510173 -0.28811634 -0.21677622 0.105201915
000100 c3 3e 21 be 0a 33 89 3e 40 c3 9f 3d e4 45 c9 bd
       -0.15746598 0.26796752 0.07800913 -0.09827784
000110 62 52 c7 be cc 23 25 be 0f 7e f7 3e 16 6e c8 bc
       -0.3893004 -0.16126937 0.48338363 -0.024466556
000120 54 9b 59 be 3f 40 87 3c 9d 54 48 be 78 b3 08 3f
       -0.21250659 0.016510127 -0.19563527 0.5339885
000130 4f 45 c9 3d 7c 24 5a 3e 94 5f 86 be 13 79 9a bd
       0.09827673 0.2130298 -0.26244795 -0.07542624
000140 a4 3d 2f 3d 23 21 e1 be 7b d7 8a be 74 7b 8f 3d
       0.042783394 -0.43970594 -0.27117524 0.07005969
000150 78 1d d5 be ae f7 08 bf e1 52 0c 3f ed 82 da bd
       -0.41624045 -0.5350293 0.54813963 -0.10669503
000160 2f 4e 99 3d 70 de bf 3e 4b 6b ac bd a4 59 95 be
       0.074856155 0.37474394 -0.08418902 -0.29169953
000170 02 0f ab be a3 73 f0 3e c5 5e e5 3e 92 74 ab 3e
       -0.33409888 0.46963224 0.44798866 0.33487374
000180 35 13 86 be 3c b4 9c 3d 6a d2 cc 3e 35 fe f1 bd
       -0.2618653 0.076515645 0.40004283 -0.11816064
000190 41 2d d4 3e e3 fa bb 3d 79 4c a4 bd db c1 a0 3d
       0.41440776 0.09178712 -0.080223985 0.07849475
0001a0 d6 06 11 3f d7 cd f7 be 6c 32 c1 be ba a9 f6 3e
       0.56651056 -0.4839923 -0.3773378 0.48176366
0001b0 57 46 ab 3d 27 4d 18 3e 03 61 de be c3 19 29 be
       0.08363026 0.14873181 -0.4343339 -0.16513734
0001c0 33 a9 2e bd 78 26 50 3e a5 fd 0a 3f 04 a9 96 3e
       -0.04264183 0.20327175 0.5429328 0.29425824
0001d0 27 58 03 bf 95 d8 e4 3e 94 e7 3f 3e ae 59 6c 3e
       -0.51306385 0.4469649 0.18740684 0.23081085
0001e0 c0 50 43 3c 29 b1 d4 bd df 2e cf be 2f 79 3a 3e
       0.011921108 -0.10385353 -0.40465447 0.1821029
0001f0 5f f8 d0 3e 17 0a af 3e 2b 2a 8c 3e 5e 2e bf 3e
       0.40814492 0.34187385 0.27375922 0.37340063
000200 29 7b 8c 3d 6f a4 f6 3e 82 ec 16 3e 93 b8 bc be
       0.068594284 0.48172328 0.14738658 -0.3685957
000210 25 42 0f bf 2e 64 fd be 41 2a bd be 99 a0 04 3f
       -0.55960304 -0.49490494 -0.369463 0.5180755
000220 15 63 45 be 38 97 a4 3e 0c ae bd be 48 4a b2 be
       -0.19276078 0.3214662 -0.3704685 -0.34822297
000230 fe 2c 05 bf a9 95 e6 3e f7 b4 ea 3d 6f 21 c8 3e
       -0.5202178 0.45036057 0.114602976 0.39088008
000240 8a 18 0a 3f 49 ec 44 bd fb 33 dd be c3 40 12 3d
       0.53943694 -0.0480769 -0.4320372 0.035706293
000250 d9 11 6e 3e 5f cc c3 bd 9a 31 00 bf d1 2f f5 be
       0.23248996 -0.09560465 -0.50075686 -0.47888044
000260 11 2e 0c bf f7 52 eb 3e db 8a ac bc f4 77 a7 3d
       -0.5475779 0.45961735 -0.021062305 0.08177176
000270 2d 8f 78 3e 8b 21 d2 be 76 3d b8 be 10 b9 de be
       0.24273367 -0.41041216 -0.3598439 -0.43500566
000280 c1 0c 30 bc 9f 7d a2 be b6 46 18 3e 33 12 04 3f
       -0.010745228 -0.31736466 0.14870724 0.5159027
000290 32 c5 22 3d b6 6f 02 3f dd 91 11 3f 6f 0c 20 3e
       0.03973884 0.5095171 0.56863195 0.15629743
0002a0 27 02 ef be 11 23 ba be c8 bd da be cb 28 ec 3e
       -0.4668133 -0.3635488 -0.42722917 0.46124873
0002b0 fe 5d e4 bd 2a 65 01 bf 9f 62 03 3f 84 fb fb bd
       -0.1115074 -0.5054499 0.5132236 -0.12303832
0002c0 53 ed ba 3e 25 a8 fb be 0f e0 09 3f 47 97 ea 3d
       0.3650919 -0.49151722 0.5385751 0.11454635
0002d0 0c 6b 17 3e e8 fc 0c 3f c5 cb e6 bc aa 79 4d 3e
       0.14786929 0.55073404 -0.028173337 0.20065942
0002e0 d0 6e 09 bd cc b9 8d be 15 48 c6 3e d2 9c 0a bf
       -0.033552945 -0.27680814 0.3872687 -0.5414554
0002f0 a6 0a ca 3e ce 3b 7b be 02 e8 e8 3d 45 db 9a bc
       0.3946125 -0.24534532 0.11372377 -0.018903384

encoder.cnv1Ddaily.0.bias f4 [64]
000000 7a 4d ab be 0d ee cc 3e 81 a3 be be 0a 6e bf 3e
       -0.33457547 0.40025368 -0.3723412 0.3738864
000010 90 e3 ae be eb 8a a0 3d 2b c4 4b 3e 51 a2 84 be
       -0.3415799 0.078389965 0.19899051 -0.25905088
000020 d1 35 32 be 0a 3b 08 3f 03 c0 7a 3e df a6 e7 3e
       -0.17403342 0.53215086 0.24487309 0.452445
000030 3c 53 0f 3f ea ed 7f 3e 17 bd 90 bc 08 69 7e 3e
       0.5598638 0.24993101 -0.01766829 0.24844754
000040 37 45 b7 3e 07 db 68 3e 8e 49 5d 3e 72 d8 d5 be
       0.35794994 0.22739802 0.2161009 -0.41766697
000050 c7 9f d6 3d 70 cc e8 be 36 af 64 be 28 22 1d bd
       0.10479694 -0.45468473 -0.22332463 -0.038362652
000060 01 e1 bc 3e d3 6e be be df b4 cd 3e 23 80 6c 3e
       0.36890414 -0.37193927 0.40177056 0.23095755
000070 45 7a 12 bf cc df 0b be e7 06 12 bf 45 66 bd be
       -0.5721782 -0.1365959 -0.5704178 -0.36992088
000080 76 4d ae be b1 05 e2 be 13 37 95 be 2d d3 fc be
       -0.34043473 -0.44144967 -0.2914358 -0.49379864
000090 9f 63 03 3f 06 43 8b 3e 5e ac 9d 3e 5e 4d d2 be
       0.51323885 0.27199572 0.30795568 -0.4107465
0000a0 c8 35 af be cf 43 2e bd 81 bb bd be bf 22 d0 be
       -0.3422072 -0.042545136 -0.37057117 -0.4065151
0000b0 27 36 af be 40 b0 26 bd ca b9 13 3f e3 18 51 3e
       -0.34221002 -0.04069543 0.57705367 0.2041965
0000c0 dd 37 0a 3f c9 40 4b 3d 0a cd bf be 9f 80 13 3f
       0.5399149 0.04962233 -0.3746112 0.57618135
0000d0 53 83 fa 3e 0a d4 b0 be 5f 4e df 3e ff 88 60 be
       0.48928317 -0.34536773 0.4361448 -0.2192726
0000e0 25 81 85 bd 5c 80 19 3e 4e b1 25 3e 82 9f a3 be
       -0.06518773 0.14990371 0.16180918 -0.31957632
0000f0 fb cb da 3e 5f 56 28 3e d8 18 fe be 53 9c 8e 3d
       0.4273375 0.16439198 -0.4962833 0.0696341

encoder.cnv1Ddaily.2.weight f4 [5, 64, 1]
000000 b0 30 dc 3d 7d 39 be 3b 98 3a 45 3d 65 4d e7 bd
       0.10751474 0.005805193 0.048151582 -0.11294059
000010 75 3a 91 3d b5 78 ca bd bb 73 7d 3d fc 80 ad bd
       0.07091228 -0.09886304 0.061877947 -0.084718674
000020 32 a1 54 bd 49 e3 bb bd d3 b1 42 bd 8a 28 3b bc
       -0.05191154 -0.091742106 -0.047532868 -0.0114232395
000030 b2 c0 bc 3d 95 7a b0 bd 5c 8b b4 bd 14 a9 8f 3c
       0.09216441 -0.08617131 -0.08815643 0.017536677
000040 5b 0e e5 3d 91 f2 06 bd ba 2f 38 bd e2 28 ba 3d
       0.11184379 -0.032946173 -0.04496739 0.09089829
000050 74 f6 cd bd 64 f6 52 3d 15 24 e4 bc 36 1e ec 3c
       -0.10056773 0.051504508 -0.027849237 0.028823
000060 4d bf 0b 3d e2 d8 92 3d 24 3c 02 3c 82 c0 e0 3d
       0.034117986 0.07170273 0.007948909 0.10974218
000070 5a 1d 8e 3d 4e 2a fa bd 50 b0 6a 3c 07 36 f8 bd
       0.06939192 -0.122151 0.014324263 -0.1211968
000080 82 2d a4 bd b4 51 1d 3c 0b 95 ed bd a8 22 e0 bc
       -0.080164924 0.009601999 -0.11600693 -0.027360275
000090 3b f0 f8 bb fa 2a 16 3b 27 98 61 ba 6d 07 fe bc
       -0.007596997 0.00229138 -0.00086057413 -0.0310094
0000a0 46 54 9c bd d4 23 f0 3d 7d eb d9 3d 2d be 44 3c
       -0.076332614 0.11725584 0.10640619 0.012008232
0000b0 84 05 2a bd 80 19 b9 3c 25 59 e9 bd 9d ba e9 3c
       -0.041509166 0.022595167 -0.11393956 0.028531367
0000c0 17 5f 65 bd 7e 27 e6 bd f7 80 b1 bd 14 c4 de 3d
       -0.055998888 -0.11238001 -0.08667176 0.10877243
0000d0 13 26 a6 bd 07 52 bd 3d f7 dc c6 3d 3a b8 fd bc
       -0.08112731 0.09244161 0.097101144 -0.030971635
0000e0 b6 2d 64 bd 21 62 5d bd 7e ab 94 3d cb c0 d6 bd
       -0.055707656 -0.05404866 0.07259272 -0.10485991
0000f0 d9 f9 e4 3d c6 44 99 3d 9f 21 a6 bc 36 80 51 3d
       0.11180467 0.074838206 -0.020279704 0.051147662
000100 38 67 b5 bd fb 98 fc 3d 1b ed 65 bd fe 33 de 3c
       -0.08857578 0.12333866 -0.056134325 0.027124401
000110 d8 4c 7a bd ea d5 a1 bd 9d 31 f0 3d 08 7e 2d 3d
       -0.06110844 -0.07902129 0.11728213 0.04235652
000120 e5 fe 35 3d b2 85 55 3d 2e db dd 3c b1 08 1b bd
       0.04443254 0.052129455 0.027082052 -0.037850086
000130 66 a1 ff 3d 1b 67 f5 3d 1a 8f d3 bd 3e 6c 81 bd
       0.12481956 0.119825564 -0.10330029 -0.06319474
000140 ef 1a 00 be 6d 1f c1 bc ca 6e 16 3c e2 f8 b8 bd
       -0.12510274 -0.023574555 0.009181688 -0.09031846
000150 80 87 e7 3c d8 35 cc 3c 61 86 ff 3d 70 d9 b4 bd
       0.028262854 0.024928018 0.124768026 -0.088305354
000160 6e 62 f4 3d 93 a4 e9 3d 06 ea 81 3c 33 c0 9c 3c
       0.119328365 0.11408343 0.015858661 0.019134616
000170 dc aa 4f 3d 16 cd e9 3d 00 11 d2 bc 27 74 b9 3c
       0.050700054 0.1141607 -0.025642872 0.022638394
000180 65 59 8f 3a c4 d8 d9 bb 5c 3b ed bd e8 c6 b8 3c
       0.0010936676 -0.006648155 -0.115835875 0.022555783
000190 4a 21 aa 3d ca cc f1 bd 91 3f aa 3d 79 d5 f5 bc
       0.08307131 -0.118066385 0.083129056 -0.030009018
0001a0 f9 cc 48 3d 34 00 86 bc a2 d2 d0 bd 8d 28 b2 bc
       0.049023602 -0.016357519 -0.10196425 -0.021747852
0001b0 aa 22 a4 bc 94 97 4d bd 4d 5d f8 3d 0d 57 eb bb
       -0.02003606 -0.050193384 0.12127171 -0.007182008
0001c0 61 a1 ae bd 73 94 47 3d 98 3a c8 bc 73 66 d8 3d
       -0.08526874 0.048725557 -0.024442002 0.10566416
0001d0 8d 5c 57 bd 1c f8 37 3d f1 de f6 bd c6 70 f1 3c
       -0.052578498 0.04491435 -0.120542414 0.02947272
0001e0 af a3 af 3d f7 99 d1 3a ec 0e a2 3c d9 55 da 3c
       0.08576142 0.001599132 0.019782506 0.026652263
0001f0 da c1 a0 ba 2b ea d6 bc 72 e8 77 3b 3b e5 dc bd
       -0.0012264804 -0.026234707 0.0037827757 -0.1078591
000200 44 b8 d9 bd fc fe cf bd 85 a0 15 3d c1 44 b8 3b
       -0.10630849 -0.10156056 0.036530036 0.0056234305
000210 23 88 a4 bd f2 da 80 3d 49 aa 8c bd a3 ee c4 3d
       -0.080337785 0.062917605 -0.06868417 0.09615829
000220 37 f2 dd bd 35 55 51 bd b1 76 58 3d a0 ea 79 bb
       -0.108372144 -0.05110665 0.052847568 -0.0038134232
000230 c2 17 18 3a fb 4e 4a 3d 9f c5 80 bc 55 57 a5 3d
       0.000580188 0.049391728 -0.015719233 0.08073298
000240 bd d9 a1 bd f2 fc 84 3d 6c 44 b0 3d 9b 70 58 bc
       -0.079028584 0.06493558 0.086068004 -0.013210441
000250 be 11 87 3d ca 4a 9d 3c e8 68 f5 bd 2a e0 83 bc
       0.06595181 0.019200701 -0.119829 -0.0160981
000260 3c e3 48 3d 7f ea b6 bd 6f e8 f8 bd e0 c3 d8 bd
       0.049044833 -0.08931445 -0.12153708 -0.10584235
000270 50 90 c3 3d ca 60 d3 3d e4 49 16 bd 09 dd ec bd
       0.0954901 0.103211954 -0.03669156 -0.115655966
000280 0e 99 56 bd 30 07 f7 3d 04 f7 b5 3c b2 d2 fb bd
       -0.052392058 0.12061918 0.022212513 -0.12296046
000290 7b e9 bd bc e1 a3 68 3c ba 63 4e bb f5 e1 d1 bd
       -0.023182621 0.014199228 -0.0031492547 -0.10248176
0002a0 a5 5e 34 ba fb 38 53 3d 11 e2 22 3c a7 e3 80 bd
       -0.0006880558 0.051568013 0.009941594 -0.06293421
0002b0 fe 4a a3 3d 13 cd 85 3d 30 d0 f0 bd 2e 1f fa 3d
       0.07973288 0.065332554 -0.117584586 0.12212978
0002c0 af aa 23 bd 19 f5 02 bc 32 69 e8 bb ef 85 e5 3d
       -0.0399577 -0.007993006 -0.0070926184 0.112071864
0002d0 42 a1 c3 3d 40 93 3a bd ef f0 c2 bd a1 05 1c 3d
       0.09552242 -0.045550585 -0.09518611 0.038091306
0002e0 5e a1 e0 bd 20 3a 96 bd 7c 8f cd bd d3 15 5b 3c
       -0.10968278 -0.07335305 -0.10037133 0.0133719025
0002f0 bb b3 94 3d c1 a1 a8 bd de fb c4 bd e0 e5 40 bb
       0.07260843 -0.08233977 -0.09618352 -0.0029433891
000300 34 40 67 3d b0 de bd 3d 5b db c6 3d 0b 23 51 bd
       0.056457713 0.0927099 0.097098075 -0.05105881
000310 f1 d9 57 3d 70 9e 40 bc 8c 96 90 3c d7 72 59 bc
       0.05269808 -0.011756524 0.017649911 -0.013272009
000320 5b 60 12 bd e8 4e f9 3d 8d 9f d5 bd 80 0e 81 bd
       -0.035736423 0.12173253 -0.104308225 -0.06301594
000330 7f a8 57 3d ba 92 f5 3d f9 14 33 3d 34 fb 22 bd
       0.052650925 0.119908765 0.043721173 -0.039790347
000340 3d 30 f4 3d 18 68 a5 3d a8 dc 3d 3d 9c 6b bd bd
       0.11923263 0.08076495 0.046353012 -0.092490405
000350 65 12 dc bd f7 f2 da 3c 05 81 f5 bb b6 92 c0 bd
       -0.10745696 0.026727183 -0.007492187 -0.09402983
000360 ce 58 44 3d 9e 49 ae bb 10 1d a8 3d 93 19 4c 3d
       0.047936253 -0.0053188344 0.08208668 0.049829077
000370 cc ce de 3d a6 88 d6 3d f0 09 45 3d 48 46 0f 3d
       0.10879287 0.10475282 0.04810518 0.034979135
000380 95 1f e5 3d 0c 7a 95 3d 0e 18 40 3d 00 61 77 3b
       0.111876644 0.07298669 0.04689794 0.0037747025
000390 ac 9c c6 bd b1 14 7b 3d 90 12 df 3b 3b 35 b7 3d
       -0.096978515 0.06129903 0.0068076327 0.089457
0003a0 77 7a 88 bd 69 d8 a4 3d c8 5c 38 bd 4a cd f2 3d
       -0.06663983 0.080490895 -0.045010358 0.11855562
0003b0 4c 05 01 3e 72 03 90 bc 43 0f a8 3d 44 a9 ce 3d
       0.12599677 -0.017579768 0.08206036 0.100908786
0003c0 73 82 73 bd c4 e1 77 3d d5 1a 11 bd fa 79 2d bc
       -0.059450578 0.06051804 -0.03542598 -0.0105881635
0003d0 e4 1e fe bc 4c 47 48 bc 8c 92 91 3d 19 2d d0 bd
       -0.03102059 -0.01222403 0.0710803 -0.10164852
0003e0 26 da 93 bc f6 68 f0 3d e6 9e e3 bd bb 00 8d ba
       -0.018048357 0.1173877 -0.11114292 -0.0010757664
0003f0 a0 80 94 bd 69 a9 41 bc 39 d5 8f 3d 6d 63 3b 3d
       -0.07251096 -0.011820176 0.07023091 0.045749117

encoder.cnv1Ddaily.2.bias f4 [5]
000000 08 ed ee 3d ca c8 82 3d 9e 21 13 bd 38 04 81 3c
       0.11666304 0.06385954 -0.03592073 0.015749082
000010 d7 42 b6 bd
       -0.088994674

encoder.cnv1Dweekly.0.weight f4 [64, 3, 5]
000000 d4 45 36 be ea 4b b1 bd f3 6b 48 3e dd 36 8b bd
       -0.17800075 -0.086570576 0.1957243 -0.06797574
000010 03 27 63 be d1 c6 0d be c6 77 19 bd b8 cb 18 be
       -0.2218285 -0.13845374 -0.03746774 -0.14921463
000020 bb da a1 bc ee 28 b5 bc 0f 6c 3a 3e 37 f4 fd 3b
       -0.01975762 -0.022114243 0.18205284 0.00775006
000030 1c bb 15 be 23 1d c9 bd 16 8e 66 be 75 67 58 be
       -0.14622158 -0.098200105 -0.22515139 -0.21133216
000040 71 84 33 3e 67 c2 33 be dc 24 d2 3c 13 f2 23 3e
       0.17530991 -0.17554627 0.025652342 0.16010313
000050 e1 7f 80 be b4 50 1b be 38 43 14 bb 1b 4f 98 bc
       -0.25097564 -0.15167505 -0.0022623073 -0.018592408
000060 9f 14 3c bd 19 cc d7 3d ad 0a 87 bd 98 c2 32 be
       -0.045918103 0.105369754 -0.06593833 -0.17457044
000070 fc f3 0d bd c7 55 51 3e f4 e3 6f 3e 4d ad 44 bd
       -0.03465651 0.20442878 0.23426801 -0.048016835
000080 f0 84 c8 bc 59 52 4f bd bd a8 22 be da a7 01 bd
       -0.024477452 -0.050615642 -0.15884681 -0.031654216
000090 ff 43 6b be f8 2f 0e 3e bc 1b 71 3e b1 b8 07 bd
       -0.22975157 0.13885486 0.23545736 -0.03313512
0000a0 08 dd 24 be c3 7e 3c 3e a7 49 f8 bd 00 72 43 3e
       -0.16099942 0.18407731 -0.12123423 0.19086456
0000b0 3b 91 5f 3d 7d 96 d4 3d f8 57 55 3e 07 11 4c 3e
       0.054581862 0.10380266 0.20834339 0.1992837
0000c0 7f 7a 3a be 6a f8 01 3e 4c 58 de bd c3 b9 2e 3e
       -0.18210791 0.12692419 -0.10856685 0.1706305
0000d0 1f 0f 74 be 3d 49 3f be 2f 29 d5 3d 6d 33 04 be
       -0.23833893 -0.18680282 0.10408246 -0.12910242
0000e0 81 17 c0 bc 5f 35 b3 3d 1b dc 04 be ad b1 d9 bd
       -0.023448708 0.08750414 -0.12974589 -0.10629592
0000f0 bc 11 b2 39 81 e9 9c 3d 13 13 5b 3e c3 a2 3f be
       0.0003396402 0.07661725 0.21393995 -0.18714432
000100 32 4c 3f be 34 ba 29 3e c2 5f e8 3d a4 c1 33 be
       -0.1868141 0.16574937 0.11346389 -0.17554337
000110 32 6b 42 be da ce df bc e7 e3 33 be 6f a7 a5 bb
       -0.18986204 -0.027320314 -0.17567407 -0.00505536
000120 9b eb 18 be fc 73 b8 bb 1d 19 85 bd b3 51 81 be
       -0.14933626 -0.005629061 -0.064989306 -0.25257644
000130 6d f7 50 be 78 3f 18 3e cf 23 69 be 3d 19 50 3d
       -0.20406885 0.14867961 -0.22767566 0.05080532
000140 69 4c 35 be 8a d7 87 3c 17 fd d3 bd 09 16 0b bd
       -0.1770493 0.01658227 -0.103510074 -0.03395656
000150 6e 4e 25 be 53 62 86 bc e7 cb 26 3c 3e e4 20 bd
       -0.161432 -0.016404307 0.01018045 -0.03928017
000160 90 f0 05 be ec 55 7b 3e 24 fc 32 3e d2 50 24 be
       -0.13080049 0.24544495 0.17478997 -0.16046456
000170 4e 2e 56 bd 77 05 3d be d6 e9 2f 3d 2e b0 2c 3d
       -0.052290253 -0.18459116 0.042947613 0.042160206
000180 76 3b 96 3b 22 a6 3f bd 55 fc 58 bd 78 f9 a0 bd
       0.004584725 -0.046789296 -0.052975018 -0.078600824
000190 62 9e 47 be 94 4c 23 bd 63 9f 58 3e 21 20 7c be
       -0.19494012 -0.039867952 0.21154551 -0.24621631
0001a0 55 72 68 bb 1e 9b 51 be 4b 4b 54 be 51 54 45 3d
       -0.0035468538 -0.20469329 -0.20731847 0.048176114
0001b0 d1 53 2e 3e 4b 7a 4d 3e 87 2d cb bc 7e df 99 3d
       0.17024161 0.20066182 -0.024801983 0.07513331
0001c0 5a cc 5d 3e 43 cd b9 3d b9 57 41 bd b9 17 8c bd
       0.21659985 0.09072354 -0.0472028 -0.06840462
0001d0 38 39 41 be 99 ff c0 bd 31 9a 5f be 70 8b 0a be
       -0.18869483 -0.094237514 -0.21836163 -0.13529754
0001e0 5c 49 80 be 7c 79 9f 3d e0 ec 9e 3d a9 4f 7a 3d
       -0.2505597 0.07786843 0.07760024 0.061111126
0001f0 08 ee 0d 3d 5a 4b 41 3e 0d 9e 31 3e 17 1f 2a 3e
       0.034650832 0.188764 0.17345448 0.16613422
000200 7a 31 de 3d 93 17 db 3d 46 33 83 bd bc 3f 76 be
       0.10849281 0.10697856 -0.06406264 -0.2404775
000210 7d dd 25 3e cd 65 96 3d 75 45 34 be 87 7c 3a 3e
       0.16197772 0.07343636 -0.17604621 0.18211566
000220 41 5f 5b be 4a d0 09 be d1 3d 72 be 89 cb be bd
       -0.21423055 -0.13458362 -0.23656394 -0.09316165
000230 fd bb 7f 3e 74 21 c9 bb a8 d1 03 3e 6b 75 2f be
       0.24974056 -0.006138021 0.12872946 -0.17134635
000240 c8 38 d1 bd 29 b9 f0 3a 64 64 0b be 61 c9 c4 bc
       -0.10215908 0.0018365729 -0.13612515 -0.024021806
000250 33 78 68 3d 03 4c 8f bd 5b e7 82 3e 74 d5 10 be
       0.056755256 -0.0699692 0.25567135 -0.14143926
000260 d4 c3 43 be ae 12 4d 3e 1a d0 29 be 2d f3 7e 3e
       -0.19117671 0.20026657 -0.1658329 0.24897452
000270 9d 19 27 3c 48 60 84 3e b5 d8 33 be bb 9f 13 be
       0.010198978 0.25854707 -0.17563136 -0.14416401
000280 68 ac 09 3e a6 38 06 3e b8 16 f6 bd d9 40 5a 3e
       0.13444674 0.13107547 -0.12016052 0.213138
000290 7b 95 3d 3e e3 16 e7 3d 54 a3 77 3e 80 0e 69 3e
       0.18514054 0.11283662 0.24183398 0.22759438
0002a0 74 31 81 bc b1 dd 18 3e 1c fa 05 bd 68 47 70 3e
       -0.015770651 0.14928319 -0.032709226 0.2346474
0002b0 46 c0 47 3e a4 17 96 3d e3 14 c1 bd 82 dd 81 3d
       0.1950694 0.07328728 -0.09427812 0.063410774
0002c0 d1 14 d4 3d cc de 26 3e 5c f7 57 be 25 12 6f bd
       0.10355533 0.16295928 -0.21090454 -0.058366913
0002d0 19 68 5b be 19 54 a5 bd 02 1d 11 be a0 f8 72 be
       -0.21426429 -0.08072681 -0.14171222 -0.23727655
0002e0 b2 d5 b6 3d 4e 61 43 be a1 da 82 3e e2 b1 f7 3d
       0.08927478 -0.19080088 0.25557426 0.12094475
0002f0 45 58 27 be c2 4d 4c be 5d 3b 1d 3e e1 da 98 3d
       -0.16342266 -0.19951537 0.15354677 0.07463623
000300 28 36 82 be 8d 6c 19 3e c5 5f aa 3d c3 08 7d 3d
       -0.25431943 0.14982815 0.08319048 0.061775934
000310 86 84 12 3e 42 18 a9 3d 4d 49 dd bd f3 3d 6e 3e
       0.14308366 0.0825658 -0.10804997 0.23265819
000320 c7 a8 80 3e 71 da 73 be 68 cf 8a 3a 42 7c 32 3e
       0.25128767 -0.23813798 0.0010590376 0.17430213
000330 0e d1 35 be 52 1b aa 3c b9 72 46 be e2 db 4f 3d
       -0.1775553 0.02076498 -0.193797 0.050746806
000340 f9 37 5a 3d 20 3d 1b be f2 2a 72 be bf 6e 78 bc
       0.053276036 -0.15160036 -0.23649195 -0.015163123
000350 46 f5 f2 bd 76 3f 3b 3d 2a e5 1b 3e d8 ba 3d 3d
       -0.118631884 0.045714818 0.15224138 0.046320766
000360 4d 8e 27 3e 47 49 09 3e 6e 37 8b 3a 32 d4 2e be
       0.16362877 0.1340686 0.0010621378 -0.17073134
000370 2e 8e c5 bc 80 a0 de 3d 86 c2 09 3e e2 87 d4 3d
       -0.024115648 0.10870457 0.13453111 0.1037748
000380 0d 4a a5 bd a9 1d 28 be 56 45 ed 3d 17 4d 6e be
       -0.08070765 -0.16417564 0.115854904 -0.23271595
000390 c3 c4 87 bd fa 2f c3 bc 05 31 71 3c 85 1b 25 3e
       -0.06629326 -0.023826588 0.01472116 0.16123779
0003a0 f5 12 fa 3d 5d 42 08 be 06 e3 13 3e 36 d2 26 3e
       0.12210647 -0.13306566 0.14442071 0.16291127
0003b0 21 cd 47 be 5e a5 6d 3e 91 eb e5 bd 0d 3f 16 3e
       -0.19511844 0.23207614 -0.11226571 0.1467249
0003c0 d1 2a 5b 3d 76 2c 57 3e a6 bd 0e be ba 12 ed bd
       0.05350763 0.21013054 -0.13939533 -0.115758374
0003d0 4c 4f 18 be f3 31 36 3c 5d 7a 5b 3d b0 9d 0f 3e
       -0.14874 0.011120307 0.05358349 0.14024997
0003e0 12 82 ad bd 40 d2 6f 3e 91 0a 45 3e 5e 55 3f be
       -0.084720746 0.23420048 0.19242312 -0.18684909
0003f0 1b 02 2f 3e cd b6 98 3d 85 9b 04 be 8c f1 f4 3d
       0.17090647 0.074567415 -0.12949951 0.11960134

encoder.cnv1Dweekly.0.bias f4 [64]
000000 cf 2d e5 bb de 58 2d 3e 0f a8 c1 3c e3 f0 f1 bd
       -0.006993986 0.16928431 0.023639707 -0.118135236
000010 73 72 92 3c 84 49 80 3c 04 b3 50 3e 6e 02 16 3d
       0.01787684 0.015660055 0.20380789 0.03662341
000020 10 c6 0f 3e 63 ff 2d be 30 c8 dc bd 8c 50 2b be
       0.14040399 -0.16991954 -0.1078037 -0.16729945
000030 a9 eb 27 3e f0 de 5e 3e 5f 8e d8 3d cb 4e 45 be
       0.16398491 0.21764731 0.1057403 -0.19268338
000040 fe 41 c2 bd 37 ad 76 be 1e 74 47 3e eb 12 0b be
       -0.09485243 -0.24089514 0.19477889 -0.13581435
000050 98 24 a1 3d 03 cf 65 be 60 52 29 be 6d 2a 4c be
       0.07868308 -0.2244225 -0.1653533 -0.19938059
000060 d8 ad 66 be e8 30 f3 bd 90 b7 49 3e 2e 85 3c bd
       -0.22527254 -0.118745625 0.1969893 -0.046025448
000070 e7 d1 f1 bd cc c6 12 be 61 fe 50 be 8f 43 1a 3e
       -0.11807614 -0.14333647 -0.20409538 0.15064834
000080 28 13 a2 3d 4e 46 3c be 17 05 fb 3d f7 5b 82 be
       0.0791381 -0.18386194 0.1225683 -0.2546079
000090 98 0f b9 bd c3 9f a0 bc cf e7 71 be 2c 54 cb bc
       -0.090361774 -0.01960743 -0.23623584 -0.02482041
0000a0 f7 e6 b0 3d 72 bd 4d bd 37 70 d3 3d 96 26 3d be
       0.08637803 -0.050229497 0.10324138 -0.1847175
0000b0 4e eb 4f be 7c fd d2 bc 74 66 66 3e 57 5f 74 3e
       -0.20304605 -0.025755636 0.2250002 0.23864494
0000c0 b7 34 15 bd 44 3a 74 3d 62 52 8c 3d 5f e9 63 be
       -0.036427226 0.05962588 0.06851651 -0.22256993
0000d0 7a 51 0a 3e cb 92 e2 3d 5d 3d 07 be 1a 16 48 bb
       0.13507643 0.11063155 -0.13207002 -0.0030530752
0000e0 18 49 12 be 55 7b 5b 3e 03 86 bd bd f6 f3 26 3e
       -0.14285696 0.21433766 -0.09254076 0.16304001
0000f0 e9 d3 5c bd aa 36 21 be 9c 99 3f 3c ad 5f 0c 3d
       -0.05391303 -0.15743509 0.011694338 0.03427093

encoder.cnv1Dweekly.2.weight f4 [5, 64, 5]
000000 2e dc 3a bd 81 1f d3 3c fd 30 31 bd d4 d6 d3 bc
       -0.045620136 0.025771858 -0.04325961 -0.025859274
000010 94 af ce 3c f8 8c 49 bd 56 79 3a 3d 81 7b 19 3d
       0.025230207 -0.049206704 0.04552587 0.037471298
000020 33 55 1a 3d 68 4e 42 3d 99 b6 60 bd 6a 20 4c bd
       0.03767891 0.047438055 -0.05486164 -0.0498356
000030 dc be 2d 3d 35 85 bf 3c 31 7f 5e bd 1e a2 14 39
       0.042418346 0.023378948 -0.054320518 0.00014174773
000040 56 1d 15 bb 44 ed ae 3c 1d 50 41 3c 81 13 11 bd
       -0.0022753081 0.021353371 0.011798886 -0.03541899
000050 33 c8 bd 3c f2 1c e0 bc b5 0c e3 3b 1c 17 a5 3c
       0.023166751 -0.027357552 0.006929005 0.020152621
000060 fc e2 6b bd 18 ea 7c 3b 11 e1 51 bd a7 1d c7 bc
       -0.057589516 0.003859168 -0.05124003 -0.024306132
000070 12 ee 3e bb 87 5b 21 3d 49 39 3d bd 57 29 14 3d
       -0.00291336 0.039393928 -0.04619721 0.036172237
000080 f3 f4 e2 bb 88 dc 2f bd 79 da 21 bc 40 01 16 bd
       -0.006926173 -0.042934924 -0.009878748 -0.036622286
000090 57 f9 1f 3d 1e 6f e6 3a 11 4a 86 bc 8c a5 01 3d
       0.03905615 0.0017580723 -0.01639274 0.03165202
0000a0 5f 8a 66 bc a7 b9 d4 3c b7 85 5f 3d 95 ba 43 bd
       -0.014071076 0.025967432 0.05457088 -0.04778536
0000b0 82 04 5c bd 63 2e 50 bd 26 73 eb bc e0 92 be 3b
       -0.053715236 -0.050825488 -0.02874143 0.0058158487
0000c0 33 64 90 bc d7 cc f7 bc 23 9c 53 bd 29 96 23 3d
       -0.017625904 -0.030249042 -0.051662575 0.039938126
0000d0 dd 1c 2b 3d 2f c2 fc 3b 7a 62 55 3d 44 a0 aa 3c
       0.041775573 0.007713578 0.052095868 0.020828374
0000e0 12 18 d9 3c 29 70 26 3d 25 7a cd 3c b5 8b d3 bc
       0.026500735 0.040634308 0.025082657 -0.025823453
0000f0 86 88 31 bd 85 2e 28 bb 6f 42 15 bd 10 b3 e5 3c
       -0.04334309 -0.0025662493 -0.03644031 0.028039485
000100 ef 09 1e 3d 49 61 4e 3d d5 da 17 3b de 81 d9 bc
       0.038583692 0.050385747 0.0023171206 -0.026551183
000110 55 12 1a 3b 6b 04 ab bb 47 c3 09 3c a5 9d 16 bd
       0.0023509462 -0.0052190325 0.008408374 -0.036771435
000120 ae 41 aa bc e7 82 18 bd 69 6a 0f bd 83 2c 58 3c
       -0.020783272 -0.037234213 -0.03501359 0.013194206
000130 c6 8f e8 bc cd 75 27 3d d7 6e ad bb bc 7b 56 bc
       -0.028388869 0.040883828 -0.005292754 -0.013091024
000140 42 01 50 3d f7 e5 c8 bb 37 e4 ed bc 50 b2 8c 3c
       0.05078245 -0.0061309296 -0.029039485 0.01717487
000150 5e 3c 2e 3d 54 3e e5 bb 8b 5b 8a bc 17 91 c6 3b
       0.04253804 -0.0069959555 -0.016889354 0.0060597765
000160 9f 33 fd 3c 7e 6e 3d bc 88 c7 e4 3b 93 59 6d 3c
       0.030908404 -0.011561988 0.006981794 0.014486688
000170 45 7b 3b bd b5 8d 64 3c f7 d0 0a 3d db 40 6b bc
       -0.045771856 0.013949801 0.03389069 -0.0143587245
000180 3f 13 cb 3c 02 28 12 3d 52 a3 b6 bc 27 49 24 3d
       0.02478945 0.035682686 -0.022294674 0.040108826
000190 5f 7b 89 bc 01 69 27 3b 6a 50 35 bb 74 f3 21 3d
       -0.01678246 0.0025544765 -0.0027666339 0.039538816
0001a0 34 15 10 3d 95 1e a5 3c 61 a5 4b b9 3b fd 0b bd
       0.03517647 0.020156184 -0.00019421197 -0.034177046
0001b0 ea ea 0d 3d 13 8b a9 3c 86 ea 18 bd ed 59 ad 3c
       0.03464786 0.020696199 -0.037333034 0.021161044
0001c0 b3 dd 35 bd 26 73 ac 3a a0 1f 61 3d bb 06 de bc
       -0.044400882 0.0013156876 0.0549618 -0.027102819
0001d0 3b 20 ae 3c 6c ad 9d 3c 46 04 98 bc 3d 51 58 bd
       0.021255603 0.019247733 -0.018556725 -0.05281185
0001e0 58 87 46 bc 87 e1 4a 3d 5f aa c5 bc 37 5e 30 3d
       -0.012117229 0.049531486 -0.02412909 0.0430586
0001f0 f8 f3 9c bc 57 5c 29 bd 14 6f 98 ba 4a b1 0c 38
       -0.019159302 -0.041347828 -0.0011629784 3.3543714e-05
000200 3a 4e 90 bc b7 f9 6d 3c 40 0e 10 3d 5b 8c 4c bd
       -0.017615426 0.014524869 0.03516984 -0.04993854
000210 04 94 97 3c 68 c9 59 39 18 f3 2d bd c5 b4 4d bd
       0.018503197 0.00020769762 -0.04246816 -0.050221223
000220 9d b1 fd bc f4 09 f1 bb df 92 6a bc a4 9f 4a 3d
       -0.030968482 -0.007355923 -0.014317243 0.04946865
000230 9f de 27 3d be 27 9b 3b c3 4d c9 3c cf 31 2f 3d
       0.040983792 0.0047349622 0.024573212 0.04277211
000240 ce f3 d5 bc 74 2a 55 3d 6f c8 a2 bc 59 b1 fc 3c
       -0.026117232 0.05204244 -0.019870965 0.030846285
000250 1a 65 d3 bb 98 60 21 3d db 5f 08 3d 72 f4 94 3c
       -0.006451261 0.03939876 0.03329454 0.018182967
000260 da f2 1f bc c1 e5 56 3d 55 89 83 bc 4b e1 39 3c
       -0.00976249 0.052465204 -0.016056696 0.011345218
000270 67 0d 1d bd c2 dd 24 3d 92 79 2f bd a7 0c 2c 3d
       -0.03834286 0.040250547 -0.042840548 0.042004254
000280 43 2b 5a 3d 4e 34 2d 3d fd c1 28 3d 8d 53 2d 3d
       0.053263914 0.04228621 0.041200627 0.04231601
000290 a1 6d 12 bc e7 27 95 bb 1f fc 65 bc 35 dd 12 3b
       -0.00893727 -0.004551876 -0.014037161 0.0022409682
0002a0 74 f8 13 3d 21 72 f5 bc 71 45 1a bd 73 fe 7a 3c
       0.036125615 -0.029961647 -0.03766388 0.0153194545
0002b0 2b 2a bd b8 b7 b0 c2 3c 04 c9 58 3c c6 c7 c5 bc
       -9.020077e-05 0.023765905 0.01323152 -0.024143111
0002c0 cc b5 01 bd fa 29 bb bc 0f f4 a4 3c 17 b2 4c bb
       -0.031667516 -0.022847164 0.020135907 -0.003123408
0002d0 e9 c1 d2 bc 82 46 00 bd b4 bd 51 3b 65 86 5a 3d
       -0.02572723 -0.03131724 0.003200394 0.053350825
0002e0 69 95 c4 bc e0 96 4d bc 1d e5 10 3d 58 2e 91 3c
       -0.023997026 -0.012548178 0.03537475 0.017722294
0002f0 c0 73 08 3d 91 36 f6 bc 81 c9 59 bd 46 9e bb bc
       0.033313513 -0.030055316 -0.053170685 -0.02290262
000300 75 dd 0a 3d c4 25 00 bd c7 25 3f 3d fe 56 2a bd
       0.033902604 -0.031286016 0.046666887 -0.04158687
000310 76 de 36 bd e3 f1 6f 3c ab ea 1d bd 97 62 48 bd
       -0.04464575 0.014645073 -0.038553875 -0.048922148
000320 d1 63 a6 3c 78 55 54 3d 46 c9 1b bc 5f f2 a5 3c
       0.020311268 0.05183932 -0.009508437 0.020257173
000330 ea 33 71 3c f2 21 10 bd e3 24 c7 3a b5 a8 35 bd
       0.01472185 -0.035188623 0.0015193488 -0.044350345
000340 29 8f 65 bd e1 a6 1c bd 0b f8 10 3d fc 90 04 3c
       -0.05604473 -0.038245086 0.035392802 0.008091208
000350 53 06 38 3b 03 5e 5d bc 3d a5 42 3d 89 de 41 3d
       0.0028079941 -0.013511184 0.047520865 0.047331367
000360 4e cb 69 bd 89 d7 a5 bc a0 36 99 3c 5c 2e 68 bd
       -0.057078652 -0.020244377 0.018702805 -0.056684837
000370 91 18 51 bd 4d 0c 29 3d 2f 5b 34 bc f9 dc 0e bd
       -0.05104882 0.041271497 -0.011008068 -0.034878705
000380 b0 f4 07 bd 43 6b 77 bc 6d bd 14 bd fc 39 27 3d
       -0.033192337 -0.015101257 -0.036313463 0.040826783
000390 3c 02 5e bd c4 7d 4f 3d 0e 64 f4 bc ff 3f 39 3c
       -0.05420135 0.05065705 -0.029832866 0.011306762
0003a0 09 44 3d 3c 1f 26 28 bb 45 cf de 3b 1e 12 1d 3a
       0.011551865 -0.0025657488 0.006799611 0.00059917744
0003b0 ae 6b e5 bc e3 ee 19 3d c2 03 4d bc 75 2c 57 bd
       -0.028005447 0.037581336 -0.012513103 -0.052532632
0003c0 df 83 29 3d 93 10 06 3d 43 9b 1f 3d 02 39 9f bc
       0.041385528 0.03273065 0.03896643 -0.019436363
0003d0 9c 1f 4f bd 1c 90 01 3d e7 70 31 bd d5 45 ff 3c
       -0.050567254 0.031631574 -0.043320563 0.031161228
0003e0 49 8a a4 bb b2 6f ba bc 9a 40 21 3d fe 05 56 bd
       -0.0050213677 -0.022758339 0.03936825 -0.05225181
0003f0 64 36 47 3d d8 97 62 bd 97 e5 5c bd 6c 64 91 3c
       0.048635855 -0.05532059 -0.05392989 0.01774808

encoder.cnv1Dweekly.2.bias f4 [5]
000000 00 ea 98 3c ad 42 54 bd 25 6f 94 bb 69 c6 3e bb
       0.018666267 -0.0518214 -0.004529851 -0.002910996
000010 90 4e 42 bd
       -0.047438204

encoder.cnv1Dmonthly.0.weight f4 [64, 3, 11]
000000 6f 13 23 bd 34 26 06 be 3c 34 0b bd 3b 87 57 bd
       -0.039813455 -0.13100511 -0.03398536 -0.0526192
000010 c2 9f 1b be 8f cd c3 bd 37 fa b6 bd 1a c6 d3 bd
       -0.15197662 -0.095606916 -0.089344434 -0.10340519
000020 fd 77 f4 bd d0 da c1 3c 43 79 22 be d0 ae ab 3d
       -0.119369484 0.023663908 -0.1586657 0.08382952
000030 fc 98 a4 bd 9b a5 b5 bc bf 84 06 bc 5b eb 07 be
       -0.08036992 -0.022173693 -0.00821036 -0.13273375
000040 3a 4f 31 3e 5b ae 10 bd 44 11 ba 3d fb 7a 03 3d
       0.17315379 -0.03532253 0.090853244 0.032099705
000050 35 b8 dd 3d b3 b1 9e 3d 04 a1 25 be 19 34 8f bd
       0.1082615 0.07748737 -0.16174704 -0.06992359
000060 a6 8a 55 bd d7 e9 7e 3d 19 62 8e 3d ec 59 a5 3d
       -0.05213418 0.062234726 0.069523044 0.08073792
000070 ca 77 7f bb b3 36 74 bd 7f 78 bc bd ae 2f 31 bd
       -0.0038981312 -0.059622478 -0.0920267 -0.04325836
000080 d6 75 a3 bd a9 00 f1 bd 41 ee 0c be 3a fe f0 3d
       -0.0798146 -0.11767704 -0.13762762 0.1176724
000090 63 38 53 bb 8a 13 2b 3e 74 c6 df 3d d4 64 b7 bd
       -0.0032229654 0.16706672 0.10926524 -0.08954778
0000a0 e0 7e e9 bd 39 d3 cf bc 22 c7 1f 3e f9 5e 9e 3d
       -0.114011526 -0.025369273 0.15603307 0.07732958
0000b0 f4 f3 30 be e8 9d 55 bd 3f dd 93 3d 26 f1 b3 bd
       -0.1728056 -0.052152544 0.07219934 -0.0878623
0000c0 e4 cc bf bd a4 75 6f 3d 7a 4a 95 bc f9 78 2a be
       -0.09365252 0.0584618 -0.01822399 -0.1664771
0000d0 2d 26 e6 bd d1 28 17 be 25 6d a8 bd 8c d3 33 3c
       -0.1123775 -0.14761664 -0.08223943 0.01097573
0000e0 02 06 05 3e b1 ed 89 3d 45 eb 49 3d 77 71 56 3d
       0.12990573 0.06734789 0.049296636 0.052354302
0000f0 09 de 52 bd 39 c1 d3 bd 2c 1c 88 bd d0 cb 0b 3e
       -0.05148128 -0.10339589 -0.06645998 0.13651967
000100 7e df e1 3d 77 6c f0 3d 6d eb a6 3d 31 61 31 be
       0.11028956 0.11739438 0.08150373 -0.17322232
000110 13 99 d2 3d af 54 58 3d 69 a1 2a 3e ce 11 cd bd
       0.10283103 0.052815136 0.16663136 -0.100131616
000120 47 db 09 be 2b e0 95 bd 8e ee 8e ba e1 c9 4e 3d
       -0.13462554 -0.07318147 -0.0010904835 0.050485495
000130 99 21 86 3d f5 13 2a 3e 25 45 01 bd d4 a8 8f 3d
       0.06549377 0.16609176 -0.031560082 0.07014623
000140 0d f9 92 3c 7f f3 28 3e 28 91 84 39 80 eb 98 3b
       0.017941022 0.16499136 0.00025285152 0.0046667457
000150 47 81 83 bd 17 ae 25 3e 30 2f 06 bc ca 2d 36 bd
       -0.06421142 0.16179691 -0.008189961 -0.04447726
000160 09 c1 16 3e 1f 59 20 bb 40 b4 bb 3d e9 07 02 3e
       0.14722075 -0.0024467183 0.09165239 0.1269833
000170 2b b0 c2 bd 2b 05 04 bb cf d6 a7 3c b6 65 bc bd
       -0.095062576 -0.0020144682 0.02048817 -0.09199087
000180 c5 e8 bc 3d fb a6 0c 3e ed 51 00 be cc 5e 16 3e
       0.09224085 0.13735573 -0.12531252 0.146846
000190 ca 8c ca 3a 41 7f 22 be 68 4f 88 bd 7b 54 ff bd
       0.0015453335 -0.15868856 -0.066557705 -0.12467285
0001a0 44 60 c3 3d 61 74 d9 bc a3 b5 11 bc 17 88 17 be
       0.095398456 -0.026544752 -0.008893403 -0.14798008
0001b0 89 70 29 be 9b 75 08 3e c4 df ea 3d 87 3a 0d be
       -0.16546835 0.13326113 0.11468461 -0.13791858
0001c0 87 3a 6a 3d e1 f2 1b be c9 43 18 bd 80 80 65 3d
       0.057184722 -0.1522937 -0.03717402 0.05603075
0001d0 8c 16 03 bd 3f 0c 31 bd 46 18 6e 3c 19 6f 6d 3d
       -0.032003924 -0.04322457 0.014532154 0.05796728
0001e0 45 fc 5a 3d a4 7d aa bd 66 9d 40 3d 7e 06 93 bd
       0.05346324 -0.08324745 0.047025107 -0.07178973
0001f0 07 ec 08 3e f5 1c 78 3b 14 37 82 b9 b4 dc 78 3c
       0.13371287 0.0037859057 -0.0002483657 0.0151893385
000200 24 74 2b be 9a 39 b6 bd 1e f0 11 bd ea 0b c3 bc
       -0.16743523 -0.088977054 -0.035629384 -0.023809392
000210 2f 31 ff bb 75 f3 9c 3d 2b 5d c4 3d 80 6c 22 bc
       -0.0077878456 0.07663623 0.09588083 -0.009913564
000220 5d d2 30 3c 93 42 23 be 7a 9a 53 bd 73 12 0d 3e
       0.010792342 -0.15943365 -0.051660992 0.13776569
000230 8d 85 a6 3d b1 36 01 3d 19 e7 21 3e 0d ba 2d 3e
       0.081309415 0.0315463 0.15810813 0.16965504
000240 a7 6a 02 bd 5f 86 db 3d 29 98 8a bd d2 2f 4d bd
       -0.031839993 0.107189886 -0.067673035 -0.050094433
000250 eb 42 81 3d 9c d2 07 be b5 ed 1a be c2 3e 10 be
       0.06311592 -0.13263935 -0.1512974 -0.1408644
000260 67 23 ba bd a6 a5 e2 3d 30 05 81 bc 3a eb 27 be
       -0.09088784 0.11066751 -0.015749544 -0.16398326
000270 40 b4 19 be 0d 4c b6 bd 62 76 ca bc bc 2c ad 3c
       -0.15010166 -0.08901224 -0.024714652 0.021139495
000280 74 db 2e be 11 4b 21 be 68 3a 22 3e 29 3c a3 3d
       -0.17075902 -0.15751292 0.15842593 0.07970459
000290 a0 71 f9 3c 11 3e d9 bd 33 5b 1a be 10 11 ac bd
       0.030449688 -0.10607541 -0.15073852 -0.08401692
0002a0 69 2b 2a 3d b2 28 91 3d 86 8f 1d be 3a eb 06 be
       0.041545305 0.0708784 -0.15386781 -0.1317567
0002b0 f4 8d 8f bd 43 ca 00 3e dd 3e 13 3e 89 33 c7 3c
       -0.07009497 0.12577157 0.14379449 0.024316566
0002c0 42 33 c1 3d 45 8d a5 3d 8a 53 d0 bd 57 72 cd 3c
       0.09433605 0.08083586 -0.10172184 0.025078936
0002d0 52 b9 2f be 7b cd 29 be 81 e1 b7 bd 95 6e 1f bd
       -0.17160538 -0.16582291 -0.08978558 -0.03892382
0002e0 b3 d9 de 3d 9b 57 0e 3d 52 1e 0a 3e 00 d4 1e bd
       0.108813666 0.034751516 0.13488129 -0.038776398
0002f0 7d fa aa 3d 84 aa 01 3e ae 87 be 3d 8f 4c b9 bd
       0.08348558 0.12662703 0.093032226 -0.090478055
000300 fe 9b 9a bd 2e 10 d8 bd c3 e1 88 3d 3e 88 a3 bd
       -0.075492844 -0.10549961 0.06683686 -0.079849705
000310 45 35 34 bc ab 4d 20 3e 2f 87 cb bd 2c 5e 11 bd
       -0.010999029 0.15654628 -0.099378936 -0.0354902
000320 43 6c dc bd 67 de ca bc c7 b9 19 3d 6e 42 e8 3c
       -0.10762837 -0.024764253 0.037530687 0.028351989
000330 58 07 1b be 9b b7 06 3e 08 f3 0a be c1 52 32 3c
       -0.1513952 0.13155977 -0.13569272 0.010883988
000340 9c 11 a2 bd 1d b2 a5 bb 36 d1 af 3c 96 ac 9f 3d
       -0.07913515 -0.005056633 0.021462064 0.0779659
000350 48 fc 0b 3e 93 5b d4 bd ac 32 ae bd 79 f0 6e 3d
       0.13670456 -0.10369029 -0.08505759 0.0583348
000360 98 03 71 bd 84 0d f3 bb ed f1 fc 3c 03 c7 ae bd
       -0.058841318 -0.0074173827 0.030877078 -0.08534052
000370 1d 7a 7f 3c 1e b6 25 3e 3e 36 d9 bd 5e 13 81 bd
       0.015593079 0.16182753 -0.10606049 -0.06302522
000380 6d 39 10 be ce a1 4f 3d 64 0e d1 bd c4 29 fc 3c
       -0.14084406 0.05069142 -0.10207823 0.030781634
000390 89 bc 2e 3e c3 8c be bd 07 27 21 bd 37 52 0a 3e
       0.17064108 -0.09304192 -0.03934386 0.13507925
0003a0 b8 ac f1 bd 00 cd 26 3d 60 ee cf 3d ab f6 72 3c
       -0.118005216 0.040722847 0.10152888 0.014829318
0003b0 2a eb 11 be 04 ac c6 bd a3 64 8c 3b d7 5f 7d bd
       -0.14249864 -0.09700778 0.004284458 -0.061858978
0003c0 8c d0 94 bd 8c 58 f8 bb 07 7a b4 bc 55 28 b3 3d
       -0.0726634 -0.007578915 -0.022030843 0.08747927
0003d0 b8 f4 65 3d 2e a8 20 3e 60 8c 2c be a8 54 27 bd
       0.056141585 0.15689155 -0.16850424 -0.04085222
0003e0 37 95 8a 3c 00 f0 71 bd 37 57 cc 3d ee 35 0b be
       0.016916854 -0.059066772 0.099775724 -0.13594791
0003f0 68 48 92 bd 4a 65 08 3e 84 17 07 be 32 8e 48 bb
       -0.07142717 0.13319889 -0.13192564 -0.0030602333

encoder.cnv1Dmonthly.0.bias f4 [64]
000000 ca 14 22 be 5c 58 ff bd 1d 55 b9 bd ca a4 df 3d
       -0.15828243 -0.12468025 -0.09049437 0.10920103
000010 1e 2f 12 3e 95 38 98 3d 6f 7b 81 bb c1 5a 6c bd
       0.14275786 0.07432667 -0.003951482 -0.057703737
000020 be 77 52 3b 8f 7a ce bb 63 31 e9 bd ad 46 d5 bd
       0.003211483 -0.006301231 -0.11386373 -0.10413871
000030 1b fe 08 3e 72 df 10 bd 05 48 96 3d 70 06 d1 bd
       0.13378184 -0.035369344 0.073379554 -0.10206306
000040 22 5b 92 3d 13 65 8f bd 4b dc b0 bc e5 0a d8 bd
       0.071462885 -0.070017 -0.021589419 -0.10548953
000050 28 74 18 be 3f 50 0e bc 17 24 88 bd 12 d4 aa 3d
       -0.1488806 -0.008686124 -0.066475086 0.083412305
000060 f0 56 00 be ca f6 9d bd fa d7 20 3e 6a c9 7b bc
       -0.12533164 -0.07713087 0.15707389 -0.015367845
000070 7c f6 c4 bd fa f5 23 bd aa 76 20 be 18 7f a7 bd
       -0.09617326 -0.040029503 -0.15670267 -0.08178538
000080 67 4e 01 3d ac 7c ac bd dd a2 88 3d 46 fc d3 3d
       0.03156891 -0.08422217 0.06671689 0.10350852
000090 a5 d9 91 3d ca 3a d9 3d d7 66 1f 3e a3 46 2f be
       0.071215905 0.10606916 0.15566574 -0.1711679
0000a0 da a7 9a 3d 3e c4 05 be ef 26 5d 3d e3 ad 0c 3e
       0.075515464 -0.13063142 0.053992208 0.13738208
0000b0 4a 3b a6 3d 50 61 6a 3b 3b f5 03 bd 90 65 00 be
       0.08116777 0.003576357 -0.032216292 -0.12538743
0000c0 af 17 90 bd 32 79 45 3d 36 25 e9 bd a8 fc ec 3d
       -0.07035767 0.048211284 -0.113840505 0.11571628
0000d0 4f 02 22 3c 54 66 b5 bd 41 c8 c1 bd 58 fb f6 3d
       0.009888246 -0.08857408 -0.094620235 0.12059659
0000e0 ed be 14 3d c6 c2 27 be 75 f4 1c 3e 39 41 bd bd
       0.036314894 -0.16382894 0.15327628 -0.09240956
0000f0 b2 5a 28 3d 53 84 a1 bc d3 70 c4 bc 42 11 f0 bd
       0.04110212 -0.019716417 -0.02397958 -0.11722042

encoder.cnv1Dmonthly.2.weight f4 [5, 64, 10]
000000 87 4e 14 3d 6c 4a ae bc 19 f3 44 3c 18 8e 16 bd
       0.036207702 -0.021275721 0.01202085 -0.036756605
000010 0e 52 1b 3c d7 0c 00 3d b7 e2 0f bc 7b d8 79 bc
       0.009480013 0.031262245 -0.00878208 -0.015249367
000020 4e b2 bc bc 8a 5d 60 bb d3 0d 0a bd 6d 46 00 bd
       -0.023034241 -0.003423544 -0.03370459 -0.031317163
000030 a5 87 1a 3d c4 ab 9d 3b 3e 16 f1 3c 12 f0 8b bc
       0.037727017 0.004811736 0.029429551 -0.017082248
000040 9c 18 f7 bc fa e4 0b 3d f3 8a f2 3c e8 80 1b b9
       -0.030163102 0.034153916 0.029607272 -0.00014829973
000050 67 3c 05 3d e7 bd 05 3c 78 4f 10 3d 33 2a d2 3b
       0.032528307 0.008162952 0.035232037 0.006413722
000060 e1 73 0b 3d cd 5d 0f 3d 38 05 83 3c 20 a0 13 bd
       0.034046058 0.035001565 0.0159937 -0.03604138
000070 c5 19 72 bc 7a c3 ca 3c b2 6a a8 bc 20 77 76 bb
       -0.014776652 0.024751414 -0.020558689 -0.0037607625
000080 22 1c ed b8 55 17 f5 3c 66 32 86 3c 98 fa 03 bc
       -0.00011306281 0.029918352 0.016381454 -0.008055352
000090 2a 1d 4d 3b af d6 fe 3c 22 12 99 3c 93 ec 03 3d
       0.00312979 0.031108228 0.018685404 0.032208037
0000a0 45 d4 41 3b 05 26 1a 3d 8c 02 8c bc 31 8c 19 3d
       0.0029575985 0.037633915 -0.017091058 0.037487213
0000b0 5b 27 1f 3d 88 f2 d6 bc 6b cd 97 3c 21 8f 39 bc
       0.03885589 -0.026238695 0.018530568 -0.0113256285
0000c0 19 00 34 3b ac 8f c3 bc e8 11 cc 3c 70 e6 5f 3c
       0.0027465879 -0.023872219 0.024910882 0.01366578
0000d0 6f 1e c5 3b 94 f4 ce 3c a4 71 f1 bc ee 36 fd 3b
       0.006015591 0.025263108 -0.029473133 0.0077274954
0000e0 28 d8 ea bb 65 f6 2e 3c 5c 24 f3 3a 76 0d 53 3c
       -0.007166881 0.010678862 0.0018550265 0.012881627
0000f0 aa dd f9 3b 56 4d c4 bb 2f 16 8f 3c 06 12 a6 3b
       0.0076253014 -0.0059906645 0.017466633 0.0050680665
000100 3d f5 b4 bc f7 43 c2 bc 54 d8 23 3c a5 54 11 3d
       -0.022089595 -0.023714049 0.010000307 0.035481114
000110 07 a4 09 3d 90 97 16 3d 2b ec 94 bc 4f c5 16 bb
       0.033603694 0.036765635 -0.01817902 -0.0023005789
000120 9c 33 9f 3c 89 cd e3 bc f5 a1 1d bc 4d 0f 84 bc
       0.019433789 -0.027807968 -0.009621133 -0.016120577
000130 ec e2 b6 3b a6 a2 e6 bc c9 ae fd bc cc c2 e5 3c
       0.0055812504 -0.028153729 -0.030967133 0.028046988
000140 e3 41 e8 bc ce ae eb bc 40 2f d0 3c 7c 80 a5 3b
       -0.02835173 -0.028769877 0.025413156 0.005050717
000150 e0 db d7 3c 1a 31 1e bd a0 9d ae 3c 93 dd f5 3c
       0.026349962 -0.038621046 0.021315396 0.030012881
000160 95 8c 18 3d a6 7b bf 3c 65 6a f5 3c b1 19 77 bb
       0.037243444 0.02337439 0.02995796 -0.0037704522
000170 64 f5 cb 3c bc fd b6 3c e3 f1 ab bb 85 3e d0 3c
       0.024897285 0.022337787 -0.005247341 0.025420437
000180 a9 17 d6 bb f9 ef b1 bb fc c2 e2 3b 7a 31 09 3d
       -0.006533582 -0.0054302183 0.0069202166 0.03349445
000190 7b 88 eb bc fa a7 f8 bc 07 20 13 3d 4f ad f4 bc
       -0.028751602 -0.030353535 0.035919216 -0.029867796
0001a0 07 7e 2d 3c b7 e7 81 ba cf 00 97 bc 70 02 17 3d
       0.010589129 -0.0009910975 -0.018433003 0.03686756
0001b0 57 c5 1a 3d dd 80 14 bc a9 b6 3a 3c 44 90 25 3c
       0.037785854 -0.0090639265 0.011396089 0.010105196
0001c0 e8 dd aa bc 10 10 f7 3c 4f 99 61 3c 0d dd 1b bd
       -0.020857766 0.030159026 0.013769462 -0.038052607
0001d0 82 14 11 3c 63 d2 18 3d 75 8c aa 3c 24 ba a7 3c
       0.008854987 0.037310015 0.020818928 0.020474501
0001e0 ea 33 9d 3c 0d b9 19 3d 88 bf 3c 3c a1 dd 10 3d
       0.019189794 0.037529994 0.011520274 0.03536761
0001f0 40 1c a2 bc 89 44 2b bc 7b 32 56 3c 5e e3 dd bc
       -0.019788861 -0.010453352 0.013073559 -0.027085956
000200 f7 f2 8a 3b ab 22 fe 3c 0f e1 0c bd 4a a1 c4 ba
       0.0042403894 0.03102239 -0.03439432 -0.0015001681
000210 4d 97 1e bd 78 37 9d bc 2d a7 37 bc ba d1 1c bd
       -0.03871851 -0.019191489 -0.011209291 -0.03828595
000220 4c 79 d2 3c cc 9c bd bc b0 d5 4c 3c 14 35 03 3d
       0.025692604 -0.023146056 0.012502119 0.03203304
000230 3c ee c0 3c 06 69 a7 bc 80 2b 43 bc d1 a8 ef 3c
       0.023551099 -0.020435821 -0.011912227 0.029255303
000240 91 a2 06 3d 09 ae cc 3c f9 7d 6a 3c 33 f8 2b bc
       0.03286988 0.02498533 0.014312261 -0.010496187
000250 ce 3e 2a 3c 95 87 82 bc c5 52 05 3d 31 fa b6 bb
       0.01039095 -0.015933791 0.03254964 -0.0055840244
000260 b8 e5 09 3d c6 a0 04 3b 8e 83 26 bc 91 8b f5 3c
       0.033666342 0.002023743 -0.010163201 0.029973777
000270 53 e2 c6 3c a5 ed 1d bd 04 96 b7 bc fb 57 b0 bc
       0.024277842 -0.038556714 -0.0224104 -0.021526327
000280 3c a5 05 3c da fb e7 bc 36 77 dd bc be 79 d7 3c
       0.008157071 -0.028318334 -0.027034383 0.026303168
000290 98 46 48 bc 51 a7 ee bc f4 26 b7 bc 4c f3 1e 3c
       -0.012223862 -0.029132517 -0.022357441 0.009701561
0002a0 41 f5 e6 3c bb 29 d0 3b cf d4 1f 3d 70 a9 1f 3c
       0.028193118 0.006352631 0.03902131 0.009744987
0002b0 6c 49 00 bb ba 35 58 3c f5 e3 b1 bc 2c 1b b6 3b
       -0.0019575013 0.013196403 -0.021715144 0.0055574384
0002c0 55 a9 14 3d 32 37 aa 3c ed 9b 8e bc f1 d7 41 3c
       0.0362943 0.020778272 -0.017408336 0.01183127
0002d0 23 4a 03 3d af a9 c2 3c a0 34 de ba 61 e2 4d 3b
       0.032053124 0.023762552 -0.0016952939 0.003141545
0002e0 ef 74 8e bb df 73 8b 3c da e7 80 3b f4 a1 c7 bc
       -0.0043474357 0.017023025 0.003933889 -0.024369217
0002f0 34 25 23 bc dd 41 e4 3b 61 b9 a9 bb ce 69 03 bd
       -0.0099576 0.0069658593 -0.0051795696 -0.032083325
000300 28 f0 a3 3c 85 e0 8b 3c 00 33 e9 3c d5 f8 c0 3c
       0.020011976 0.017074833 0.028466702 0.023556152
000310 4d ce fe bc d3 ab 4c 3c b9 02 ea bc ac b2 9b 39
       -0.031104231 0.012492138 -0.028565751 0.00029697025
000320 de 3c f6 bc 61 5c 09 bd e6 74 d6 bc 06 c4 9a bb
       -0.03005832 -0.033535365 -0.026178788 -0.004723075
000330 cd b9 bc b8 60 cf de 3b 5c aa e4 3c 34 5a 86 bb
       -8.999147e-05 0.0067996234 0.027913265 -0.0041001085
000340 2a c5 b4 3c 55 45 e3 3c 7d 39 95 3c 42 6d fc 3c
       0.022066671 0.027743021 0.01821589 0.030813817
000350 b9 c9 bc 3b 41 13 03 bd ab 64 8a 3c 49 91 ad 3b
       0.005761352 -0.032000784 0.016893705 0.0052968604
000360 09 47 aa 3c 87 15 0e 3d f4 a7 3f bc 09 9d 10 3d
       0.020785825 0.0346885 -0.011697758 0.03530601
000370 99 cb ee 3c 15 59 9e bc f9 09 fb bc 74 84 da 3c
       0.029149817 -0.019329587 -0.030644404 0.026674487
000380 e6 3b e7 bc cb 4c e5 3c ff 80 f5 bc 8c 67 ec bc
       -0.028226804 0.02799072 -0.029968737 -0.028857969
000390 cc a7 f8 bc df a0 b8 3c e0 a9 c7 3c a9 25 08 3d
       -0.03035345 0.022537647 0.024372995 0.03323904
0003a0 06 65 7a 3c 89 6e 9b 3c 34 b5 07 bd 17 1a 0c bc
       0.015282875 0.018973606 -0.033131793 -0.008551142
0003b0 0f 96 b1 bb 3a ca 2c bc 72 c6 03 3c 87 b6 af 3c
       -0.0054194997 -0.010546261 0.0080429185 0.02144934
0003c0 64 df e9 bc ff 5d dc bc 17 45 a0 bc 91 ca c9 3b
       -0.028548904 -0.02690029 -0.019564195 0.006158181
0003d0 ff c5 0b 3b 18 59 bb bb c2 0b 4f 3c 10 d9 db bc
       0.0021327732 -0.005717408 0.012637081 -0.026836902
0003e0 ff 13 71 3b ae b4 de 3c 93 5f 07 3c 8a 53 94 3c
       0.00367856 0.027185764 0.008262533 0.01810624
0003f0 9a 9d b5 3c 6a 7f af 3c be 67 17 bd 79 53 c3 bb
       0.022169877 0.02142306 -0.03696417 -0.0059608785

encoder.cnv1Dmonthly.2.bias f4 [5]
000000 2c 03 90 bc f6 83 31 3a 63 46 07 3b 59 a7 e2 bc
       -0.017579637 0.0006771678 0.002064132 -0.027667688
000010 77 2c 43 3c
       0.011912457
